Assets/riged2.onnx (onnx, 850588 bytes, 11 tensors)

action_model._continuous_distribution.mu.weight f4 [1, 228]
00000000: c0f5 89bc c2f3 ad3b 4769 d43b 3a4d 54ba
00000010: f6bd b0bb a220 cebc 45d6 743c 462c 013c
00000020: 64dd c8bb fca8 f3bb 0b08 3b3c 9bea 91bc
00000030: 1e8a a6bc fa5b 4eba fa29 1e3b a5bf 9a3c
00000040: ac9a 4ebc e4df e83c 4e41 1d3d 57da f9ba
00000050: d6b1 09bd 6046 0d3c 0d38 95bb 8a55 913c
00000060: f784 d13a 9552 c43c 17f4 363d a447 b43b
00000070: dfba 453c 69fc 0bbc fa67 b5bb 28ec 7fbc
00000080: 5ae2 c9b9 86ab 323d 583d 7b3c 5129 eb3a
00000090: 1939 bb3b 8283 87bc 9508 c1bc 7c6d 62bb
000000a0: 8c07 88bb 6c07 0c3a d1a6 6fbc 9905 7b3c
000000b0: 6cc8 23bb 5b00 413b 254e f9bb ee6e 433d
000000c0: 6d96 fe3c 930d 9f3b 01ef 95bc 7971 883a
000000d0: 459b 5d3c 99b6 d13c 892f d63b 5268 b3bc
000000e0: 19d9 e3bb a21f 2f3d 65a5 d13c c054 0fbc
000000f0: fa2a fb3b 9bd1 c0ba 39b1 643c ed13 c6bb
00000100: f6ae d03a 4fa8 27bb 480b 25bb 79ab 1c3c
00000110: 5c40 943a e6f9 b33a 491f 22bc 2499 ac3c
00000120: 8b37 4dbc 866d 06bc 7bb2 9d3b 74b9 0fbd
00000130: 7e7b 7abb 4edc 453c 24d5 66b9 d5c7 fbbc
00000140: f072 51bc 4126 7f3a d385 d6bb d6ba eb3c
00000150: 7ab5 59ba 0638 b6bb 95c1 673c 2c00 893a
00000160: e4fb 973c afe8 febc 49e0 52bd bf9e c2ba
00000170: 6e4e 66bc 7717 8abb d1b9 89bc dcac 473c
00000180: f77c d1bc e02b f0bb 85de 9cbc a307 203c
00000190: 79c4 983c b64d 143c 61f5 973c 0587 753c
000001a0: 14b1 cb3c 705e 84bc 96ce fa3c e2d8 0a3c
000001b0: c240 343c 546f 953c 5394 993c 6045 00bd
000001c0: a6c8 c9bb ddc8 813c ff81 8c3b 44ea c4bc
000001d0: f52c c63c 3e00 c43c feb1 a43c 73a5 133d
000001e0: edb7 223d d1f5 693b 8023 7fbc 2750 cfbb
000001f0: 4e67 97bc b65d 883c 6b1b 363c 1800 02bd
00000200: c7ac 93bc 6e19 2bbc 170f 113d 1843 fe3b
00000210: 5159 ce3b 547b 223c 8f19 20bb d43b 0ebc
00000220: e890 07bd cd56 4cbc 8153 6fbc 1bfe 003c
00000230: e95b 01bc 9d8f 8a3c 545f e23c 71f6 44bc
00000240: 402f 5ebb 5513 f237 8a28 2bbd d715 3bbb
00000250: 701b df3c 5dcf a1bb 5b6a 713c 6521 b1bc
00000260: 5fdd 21bc 37da 173c ba78 fb3c 64ec 0c3b
00000270: fe11 8b3c 64ea bcbb 5575 d63a f119 6c3b
00000280: 7744 2fbc fa86 e1bc 6d3f e1bb 1c7d e3bc
00000290: 13b5 08bb dad1 923c 9388 0fbd a0f6 11bd
000002a0: dabe 033c 029f c3bc ec63 d6bb a482 f6bc
000002b0: d15d 5ebc 1e27 e73b 23b3 8d3c f3e3 07bc
000002c0: 2c91 22bb 1a35 7d3c 0f39 d23b 825b 09b9
000002d0: a582 26bc 88f2 05bd dcad d5bc 099d 053d
000002e0: ca45 b6bc 5025 48bb abd8 3a3c efaf f23c
000002f0: 7400 5e3c ee84 4dbc 08d8 16bc 7bf1 30bc
00000300: 2d87 0c3c 343c 27bc bf89 573b 2a2c 58bc
00000310: 8f68 5dbc a291 efbc 5319 f63c 8fbe 853c
00000320: 1e2e 8abc 6271 09bc 9d00 5dbd 3f6a 43bc
00000330: 2fff 55ba ee76 1fbd a80c dfbb caaa 90bc
00000340: 569a 99bc 0c52 1f3b 286e 8abb b561 4b3a
00000350: 7878 363c 6e91 263c e5fe 1f3d 6759 3dbb
00000360: e777 d7ba e5aa a03c beee e1bb e195 b8ba
00000370: 63f9 56bb 2f1e a2bc d91e 7e3c 9d92 9a3b
00000380: de99 873c e164 ccb9 87b4 b83b 7fb3 06bc
-0.016840816 0.005308599 0.0064822766 -0.0008098666 -0.005393739 -0.025162045 0.014943664 0.007884091
-0.0061299074 -0.007435916 0.011415492 -0.017812064 -0.020329531 -0.0007871982 0.0024133907 0.018890211
-0.012610119 0.028427072 0.038392358 -0.0019062263 -0.033616863 0.008622736 -0.004553801 0.017740984
0.0015985061 0.02396516 0.044666376 0.0055017043 0.012068479 -0.008544066 -0.0055360766 -0.015620269
-0.00038506353 0.04362061 0.01533445 0.001794139 0.0057135937 -0.0165422 -0.023563663 -0.003455012
-0.0041512903 0.0005341682 -0.0146271745 0.015321159 -0.0024991287 0.0029449675 -0.0076081925 0.047713213
0.031077588 0.004853913 -0.018302443 0.0010409794 0.013525789 0.025599765 0.0065364284 -0.02190033
-0.0069533703 0.042754777 0.025591562 -0.008748233 0.0076650353 -0.0014710905 0.013958269 -0.006044856
0.0015921283 -0.0025582497 -0.0025183726 0.009562367 0.0011310684 0.0013731092 -0.009895154 0.021069117
-0.0125254495 -0.008204823 0.0048125363 -0.03508897 -0.003822058 0.0120764505 -0.0002201391 -0.030734936
-0.012783751 0.00097331783 -0.006546715 0.028775614 -0.0008304935 -0.0055608777 0.014145275 0.0010452322
0.018552728 -0.031116812 -0.051483426 -0.0014848335 -0.014056785 -0.004214223 -0.016812237 0.012187209
-0.025572283 -0.007329449 -0.019149074 0.009767446 0.018648373 0.009051731 0.018549623 0.014985804
0.02486471 -0.016158313 0.030616086 0.00847456 0.011001768 0.018241562 0.018747484 -0.03131616
-0.0061579524 0.01584285 0.0042879577 -0.024037488 0.024191359 0.023925897 0.020104405 0.036046457
0.039726187 0.0035699497 -0.015572429 -0.0063266936 -0.018481877 0.016646247 0.011114935 -0.03173837
-0.018026723 -0.010443075 0.03541478 0.007759463 0.0062972684 0.009917099 -0.0024429297 -0.008681256
-0.033097178 -0.012471867 -0.014607311 0.007873083 -0.007895448 0.016914183 0.027633347 -0.012021647
-0.0033902675 2.885765e-05 -0.041786708 -0.0028546953 0.027234763 -0.0049380497 0.01473483 -0.021622369
-0.009879439 0.009268335 0.030697215 0.0021503204 0.016976353 -0.005765246 0.0016361872 0.0036026204
-0.010697476 -0.027530182 -0.006874016 -0.027769618 -0.0020859882 0.01792233 -0.035042357 -0.03563559
0.008041108 -0.023879532 -0.0065426733 -0.030091591 -0.013572172 0.0070542237 0.017297333 -0.008294093
-0.0024805767 0.015454555 0.0064154933 -0.00013099427 -0.010162984 -0.032702 -0.02608388 0.032620464
-0.022250075 -0.0030539818 0.011404197 0.029624907 0.013549913 -0.0125439 -0.009206779 -0.010799761
0.00857715 -0.010207225 0.00328885 -0.013194123 -0.013513698 -0.029244248 0.030041372 0.016326217
-0.016867694 -0.008388849 -0.053955663 -0.0119271865 -0.00081633305 -0.03893178 -0.0068069287 -0.017659564
-0.01875035 0.0024310378 -0.0042245574 0.0007758395 0.01113712 0.010166509 0.039061446 -0.00288924
-0.0016438932 0.019612739 -0.0068949154 -0.0014082753 -0.0032802455 -0.019789783 0.015510284 0.0047171847
0.016552862 -0.00038985073 0.005636755 -0.008221506

network_body.linear_encoder.seq_layers.0.bias f4 [228]
00000000: 0546 193b fe22 f4bc 62bb ddbb 73a1 cd3b
00000010: 41c5 adbb 38c3 0abc 29f1 a2bb 4e5f 793c
00000020: 6849 023d aba5 0e3c b713 b5bc b93a c4bc
00000030: 120d 91bc 6c01 343c afe0 76bc 57cf 4b3b
00000040: c1c5 1fbd 575b a23c 0800 e93c 3372 b13c
00000050: ebac 12bc 019b a3bc 060b cdbc f514 8dbc
00000060: 983c 69bc 35fa af3a a025 d73c 5b81 c5bc
00000070: 1b7d 603c f042 82bb 99a1 c5bc 35d1 cabc
00000080: 7235 d03c 7dbb 1bbc bfbd e43b 885d d2bb
00000090: dd4b 47bc 8395 9ebb 6d5a 273c 467a fd3c
000000a0: f9e1 143c 704e 80bc b2cc 47bd e6fe a7bc
000000b0: a986 a03c 81dd edbc 37f7 0939 0831 78bd
000000c0: f7f8 9bbb a828 b2b9 35bf ecbc ff1d cbbc
000000d0: 4c7c b03c 60b0 443b a6b5 acbc 617c eebc
000000e0: 7856 223c b34a 04bc 8ad4 2cbb 19ed 4b3c
000000f0: 4336 d53b 9257 04bc c34f 97bc b542 82bc
00000100: 191a 553c 7561 e83c 8cf6 11bd 2863 543c
00000110: 5c3c da3b daf5 383d 6f71 57bd e577 68bc
00000120: 8c56 96bc f9b3 c6bc 55e2 063c ac4c e3bc
00000130: 3473 683c 9670 6b3a 426c 0f3c 5183 513c
00000140: da36 6d3b 7d30 a53d 4f35 acbc 09e6 94bc
00000150: 6327 563c 23da 8d3d da82 713b b32a c7bc
00000160: 13a4 26bc 7eff c6bc 5363 353c 800b 8e3b
00000170: a8f4 44bc 53fa 5e3c ce50 d63b d91b 8e3c
00000180: 4d18 d0bb 95e8 043c d313 babb 51aa 173d
00000190: 049b cd3c ab58 8ebc 52cf 683c a0a9 c93c
000001a0: 713a a63c 9631 fabc 2f3e dbbc d08c 9dbc
000001b0: cff2 153d a9a0 15bd 8d50 d5bb 437a 893c
000001c0: 43e5 c5bc 996b 15bd 582b 2bbb 0723 01bd
000001d0: df26 10bd b505 acba 1fa7 31bd 577d 9e3c
000001e0: 865a 9d3c 8674 73bc c63f 2e3b 73f3 8cbc
000001f0: c43e 10bb 0f77 333c 2f01 0b3d 98e3 403c
00000200: 49b9 e4ba ad29 92bc 1e81 afbc 8314 ac3c
00000210: 7d7c 98bc d1d7 72bd 050a 4a3b 9d09 2ebc
00000220: 2116 e7bc c4cb ecbc 2c7b 0fbd 0172 2bbd
00000230: 9ff7 d83c e573 123c a516 0e3d 769c af3c
00000240: 8b07 5bbd 4852 cebc 3c0b 353d c807 cebb
00000250: 5a7a 01bc 8518 3d3c bd88 acbb 949f 433c
00000260: 0a7e 7c3d 036e 7cbc 57c5 223b 0f68 95bc
00000270: dda9 81bc f925 68ba 089a df3c 0c86 b13b
00000280: ab5b 773c 31c4 8dbc f095 cbbc 03fc e6bc
00000290: 22f0 5a3b d334 19bd 3b5f aa3c a9f3 a239
000002a0: 8a3a 6fbc ad3e 143c 4418 b03b a587 083c
000002b0: 86f7 8a3b 73d5 333b 92a9 0f3c 8f4f 23bc
000002c0: 078f 1dbb 20f4 563d 4ac3 9dbb 5838 ddbb
000002d0: a359 8c3a 7af6 583d 7553 ffbb 0038 653b
000002e0: b857 3ebc bfed 8a3d 25f5 663c 9fdb 8a3c
000002f0: 86c1 963c 89c8 cd3c bcf5 0c3d 58ba 863c
00000300: 6780 9fbc d0e4 ccbb 4794 03bd 09f8 1d39
00000310: 450f 243d eb73 d8bc 6ea2 123d fee2 5a3c
00000320: b95d 5d3c 658f 19bc 93f3 2f3c 3dae e53b
00000330: c8ec 893d 02c1 ba3c 2327 fd3a 431b d83a
00000340: b4f7 033c 7265 cc3c 667c 95bb 3ab0 ffbc
00000350: f93b 703d 2e17 b8bc 45b5 98bc b65d 8ebc
00000360: 89ab b43c 2f4a 183b bd41 debb 30eb 72bc
00000370: f5fc 933c f8a0 483c 056c 3c3d 27fd 51bb
00000380: 0d71 8e3c 476b 0a3d 7273 2cbc da90 b4b9
0.0023387682 -0.029801842 -0.0067667225 0.0062753498 -0.0053030555 -0.008469395 -0.004972596 0.015220476
0.031808287 0.0087064905 -0.022104127 -0.023953782 -0.017706428 0.010986667 -0.015068217 0.0031098926
-0.039006952 0.019818945 0.028442398 0.0216609 -0.00895236 -0.019971373 -0.02502967 -0.017221907
-0.014235638 0.0013426008 0.026263058 -0.024109533 0.0137017025 -0.0039752647 -0.024124907 -0.02475796
0.02541611 -0.00950515 0.0069806273 -0.006419841 -0.012164083 -0.0048396005 0.01021443 0.030942094
0.009087079 -0.015662402 -0.048779197 -0.020507287 0.019595461 -0.029036285 0.00013157433 -0.060593635
-0.0047599035 -0.00033981097 -0.028899768 -0.024794577 0.021543644 0.0030012354 -0.02108271 -0.029112043
0.009908311 -0.00807445 -0.00263718 0.012446665 0.0065067126 -0.008077519 -0.01847065 -0.015900949
0.01300671 0.028366784 -0.035635516 0.012963094 0.0066600274 0.045156337 -0.052598413 -0.014188741
-0.018351816 -0.02425574 0.008232673 -0.027746521 0.014187623 0.0008981315 0.008753838 0.012787656
0.0036196024 0.08065889 -0.021021513 -0.018176096 0.013070914 0.06926372 0.0036851675 -0.024312353
-0.010170954 -0.02429175 0.011071044 0.004334867 -0.012021221 0.013609487 0.0065403944 0.017347263
-0.006350553 0.0081120925 -0.0056786328 0.03702766 0.025098331 -0.017376265 0.014209585 0.024617016
0.020291539 -0.030541223 -0.02676305 -0.019232184 0.036608513 -0.03653017 -0.0065098465 0.016781932
-0.024157172 -0.036479566 -0.0026118364 -0.031527545 -0.03519332 -0.001312426 -0.04337227 0.019346876
0.019208204 -0.014859324 0.0026588305 -0.01720593 -0.0022010067 0.010953679 0.033936676 0.011773013
-0.0017450239 -0.017842138 -0.021423873 0.021005874 -0.018614048 -0.05928785 0.0030828726 -0.010622409
-0.028208794 -0.028905757 -0.035029575 -0.04185677 0.026485262 0.008938764 0.034689564 0.021436911
-0.05347399 -0.02518572 0.044200167 -0.0062875487 -0.007902706 0.01154149 -0.005265324 0.011939902
0.061643638 -0.015407088 0.0024836862 -0.018238096 -0.015828067 -0.0008855756 0.027295128 0.005417591
0.015097539 -0.017305465 -0.02485177 -0.02819634 0.003340729 -0.037403893 0.020797363 0.0003108059
-0.014601359 0.009048146 0.0053739864 0.008333121 0.004240933 0.0027440458 0.008768456 -0.009967699
-0.002404155 0.05247891 -0.00481454 -0.0067511015 0.0010707866 0.052969433 -0.0077919313 0.0034976006
-0.0116175935 0.06783628 0.014096533 0.016950427 0.018402826 0.025120037 0.034414038 0.016446277
-0.019470407 -0.0062528625 -0.03212383 0.00015065087 0.040053625 -0.026422461 0.035799436 0.013359783
0.013511115 -0.009372567 0.010739225 0.007009296 0.067346156 0.022797111 0.0019314032 0.0016487617
0.0080546625 0.024950717 -0.0045619486 -0.031211961 0.058650944 -0.02247199 -0.018641124 -0.01737867
0.02205445 0.0023237576 -0.006782739 -0.014826581 0.018064955 0.012245409 0.046001453 -0.003204176
0.017387891 0.033793714 -0.010525571 -0.00034440198

network_body.linear_encoder.seq_layers.0.weight f4 [228, 11]
00000000: d5b2 043e 6574 8d3d ef68 99be 166e ffbe
00000010: ebd6 3bbe ec7d 92be 3f8c f83e 1591 d23d
00000020: 4be5 083e 1611 2cbf c0e2 43bd d557 c7bd
00000030: 263c 3ebe ce62 bc3d cbd6 09be cf11 f9be
00000040: 6097 1bbf e9ff 303e 016f 023f d0e2 3e3e
00000050: d6bd 1abd 6f1d e8be 0700 bfbe 4e2e 0fbd
00000060: f9b8 013e 21ac ecbe 0815 8abd e955 b23e
00000070: 128c b5be e8d2 c43e 3ef4 09be 11a9 a53e
00000080: d607 0e3f 1a0a af3e ca3f 083f 0a7d d13e
00000090: 3148 c7be 467d f73e 7cea 0b3e 38fc f63e
000000a0: b391 f3be 02db 49be a6e0 a93d 4607 343e
000000b0: b215 c73d 9331 14bf 5d68 c8be 321b 37be
000000c0: 2154 853e 21e4 a33d 8aac 1c3e 0708 4dbd
000000d0: 3f97 e9be bc6b ebbe c2b5 fb3d da59 993e
000000e0: 713f 4a3e 76c6 c3be 0a3e 54bd 4c54 a73e
000000f0: 9850 003e 6097 aa3e 5acf e0be 1114 553e
00000100: 7641 5ebe 0b2e 82be 7670 583e 6e1d c13e
00000110: 7b3b 7b3d bd4e 6fbe 343f 46be c476 bfbe
00000120: 7320 ce3d bb67 7e3e 1c01 e33e 17e0 eabe
00000130: 5ec7 8b3e 245f 6a3d 9d4a 05be 1d50 c03d
00000140: 2684 24bf a61b 123f 0135 94bc a652 30be
00000150: e3df e63e 99b6 cc3e 8492 beb9 5c74 813d
00000160: ae61 813e 79e5 5bbd ce93 05be beff bdbe
00000170: 3b7c 213d 74aa bf3c 23cf b83e 903a f0ba
00000180: 7c83 d43d b947 9dbc 7be5 e33d 9cde 073e
00000190: 24eb b53b 6cde 603e 6d6f 0bbf 3a3d f0be
000001a0: 48c4 0e3e 92e7 b03e c346 f23d e67a 003e
000001b0: 8ad6 103e a304 2cbf 12bc f9be 2ef0 193d
000001c0: 900b 6b3e c712 94bd e737 a4be c16f 3c3f
000001d0: 262b 2f3e 7e8b 243f b8b3 f03e 6607 953e
000001e0: 9c6f 11be 428a c93c 7fd2 3bbe f3c6 863e
000001f0: 826d 2fbe a2ae 7f3e 1b96 f33e fd5d bbbd
00000200: bc11 4bbd 757c adbe 504f acbe d13c 8bbd
00000210: 821d 003f 9037 99bd a654 5fbd 8e97 0b3f
00000220: 7664 1a3f f199 9c3d 4caf c8be dad7 6b3e
00000230: 5e14 b33e 768c ff3c bf8f 453f 0b66 e03d
00000240: a776 5abe e6fe eb3e 1529 c3be bc13 983c
00000250: ccb7 b33c 6806 4dbe 9508 743e f0f9 7bbe
00000260: d72d 973c 0557 7f3d 9a2b 483e 3cd1 9b3e
00000270: 5c48 a0be a045 a6be 514a b83e 253e 0a3e
00000280: 1ed2 b63e 9845 11be 938d 7d3e 735f ad3e
00000290: 97bc 8fbd 1cf8 59bc 5f47 9c3e 0cb5 4e3e
000002a0: 880d 123f 4b69 b83e 8305 a4be 6eef a13e
000002b0: a3fd 443e 8db7 c93d cf95 6a3e 3c36 86be
000002c0: 7d8c 27be 6c5a 073e cc7e 7fbd 2400 cfbd
000002d0: 319d 8dbe 619d 9f3e 61bd ec3e f804 a03d
000002e0: 50b6 febb bfa8 dcbe c6a2 1dbf cbc5 c03e
000002f0: 2b93 863e 1335 dc3e 2ea7 273e 2c07 c63e
00000300: 07d8 73be f4cc 063f d51b 823e bad0 0dbf
00000310: 3b6d 08bf f3c8 b9be 9d38 dfbd 402e f6bd
00000320: 87b5 06be 803a 2c3e e13a f73d 830f 46be
00000330: b3a3 a1be f3fe afbd 2d0d 623e b607 ab3e
00000340: 07f2 913d 1434 573e ea0e 1c3e a49b 583e
00000350: a87d 6ebe 0860 3ebf 61a4 2dbc 37bf cdbe
00000360: 3fb3 213f 1f12 92be e591 8f3b 7ab9 f03d
00000370: 1400 853d 8c79 3ebb 2848 9cbe 05f2 263f
00000380: dc3f 103f b4d7 9bbd 2e75 aabe 0cd9 a83d
00000390: 1af8 38bc 3339 cabe 3dc4 dfbe b864 6bbe
000003a0: 0931 5bbd 367b 65be ad38 d93d 1a98 603e
000003b0: 6911 5e3e 55ae c43e 26e1 583d 9e59 b43e
000003c0: 1b58 d13e 0882 90be f407 22be 86f5 b6be
000003d0: 8d29 f4bd 1866 6dbd 2710 043d 3385 8d3e
000003e0: 4d45 5d3e 0a35 a43d 1e83 ccbe cf61 f83d
000003f0: 5578 cabb 7b6e 76bd bc28 62bd 6ce7 c9bd
0.12958844 0.06906966 -0.2996287 -0.49888676 -0.18343703 -0.28611696 0.485445 0.102815785
0.13368718 -0.6721357 -0.047823668 -0.097335495 -0.18577632 0.09198533 -0.13460843 -0.486464
-0.60777855 0.17285122 0.5095063 0.1864121 -0.037778698 -0.45334956 -0.37304708 -0.03495627
0.12668218 -0.46225074 -0.06742293 0.3483117 -0.35458428 0.3844216 -0.13472077 0.3235555
0.55480707 0.34187394 0.53222334 0.4091571 -0.38922265 0.48337764 0.13663667 0.48239303
-0.47572097 -0.19712451 0.082948014 0.175809 0.09720935 -0.57888144 -0.39142123 -0.17881468
0.26040748 0.080024965 0.15300193 -0.050056484 -0.45623204 -0.45980632 0.12290527 0.29951364
0.19750763 -0.3823735 -0.051816978 0.326815 0.12530744 0.33318615 -0.43908197 0.20808436
-0.21704659 -0.25425753 0.2113665 0.37717766 0.061336022 -0.2336988 -0.19360048 -0.37395298
0.10064783 0.24844258 0.44336784 -0.45874092 0.27300543 0.05721964 -0.13016744 0.093902804
-0.6426414 0.5707344 -0.01809168 -0.17219028 0.45092687 0.3998306 -0.00036348787 0.06321022
0.25269836 -0.05368564 -0.13044664 -0.37109178 0.039425116 0.023396708 0.36095533 -0.0018328
0.10376641 -0.01919924 0.11127754 0.13268512 0.0055517126 0.21959847 -0.544669 -0.46921712
0.13942063 0.34551674 0.11829903 0.12546882 0.1414434 -0.67194575 -0.487763 0.03758257
0.2295363 -0.07230144 -0.320739 0.7360802 0.17106304 0.6427535 0.47012115 0.29107207
-0.14202732 0.02460206 -0.18342017 0.2632366 -0.17131618 0.24968961 0.4757546 -0.09148786
-0.04957746 -0.33884016 -0.3365426 -0.06798709 0.50045025 -0.07481301 -0.054524086 0.5452813
0.6030954 0.076465495 -0.3919624 0.2303156 0.34976476 0.031194907 0.77172464 0.10956963
-0.21334325 0.4609291 -0.3811728 0.018564098 0.021938227 -0.20021975 0.23831399 -0.24607062
0.018454475 0.062338848 0.19547883 0.3043307 -0.31305206 -0.32474995 0.359942 0.13500269
0.35707182 -0.14186704 0.24761038 0.33861884 -0.070183925 -0.013303783 0.30523202 0.20186251
0.570519 0.36017832 -0.32035455 0.31627983 0.1923738 0.09849463 0.2290871 -0.26213253
-0.16362186 0.13218087 -0.062376782 -0.10107449 -0.2765899 0.31174758 0.46238235 0.07813448
-0.007773198 -0.43097493 -0.615765 0.37650904 0.26284155 0.43009242 0.16372368 0.38677347
-0.23812877 0.52656484 0.2541186 -0.55396616 -0.5329167 -0.36286125 -0.1089947 -0.1202054
-0.13155185 0.16819191 0.12071777 -0.19341855 -0.31570205 -0.085935496 0.22075339 0.3340432
0.07126241 0.2101596 0.15240064 0.21153122 -0.23290122 -0.7436528 -0.010598273 -0.40184948
0.6316413 -0.2852945 0.0043814057 0.11754127 0.064941555 -0.0029064147 -0.305238 0.6521304
0.5634744 -0.076095015 -0.33292526 0.082445234 -0.011289621 -0.39496765 -0.43704405 -0.2298764
-0.05351356 -0.22410282 0.10606513 0.21933022 0.21686329 0.38414255 0.052949093 0.35224622
0.40887532 -0.28224206 -0.15823346 -0.35734195 -0.11921988 -0.057958692 0.032241967 0.27640685
0.21608467 0.08017929 -0.39943784 0.121280305 -0.0061788955 -0.060163956 -0.05521463 -0.09858593

network_body.linear_encoder.seq_layers.2.bias f4 [228]
00000000: 5e3b 51bb a364 dcbc ef5a 8fbd 212b 0fba
00000010: aee8 bcb9 d064 b53b 3968 73bb 39dd 883b
00000020: c07e 17bb f08e 9fbb da6c 72bc 33ef d8bc
00000030: 962c 203a a690 00bc 708c 053d a291 1abc
00000040: e6f3 88bc 4ab9 2e3c a2ed e0bc ed46 11bd
00000050: fb9a 4bbc 8bd7 633c b7a5 b13b 4bba 783c
00000060: b69c b4bc 0ebf c0bc ea74 3dbc 8798 cdbc
00000070: 9a2e 91bc 5b6b cdba a789 293c 5a6f d8bc
00000080: 298b 133d ea50 643b c6e3 053c 8aa9 49bc
00000090: cb5a 893d 25f2 723c b2c6 54bc 1346 11bc
000000a0: e391 633c bc92 4fbc 5abf b73c 0353 00bd
000000b0: 6029 1b3c ea5e 1f3b 0998 6abd b942 003b
000000c0: faa2 a8bc 0009 85bc 2588 5b3b a0f2 9f3c
000000d0: 70a3 b8bc 2054 69bb 7c72 a7bc d4f9 ba3b
000000e0: 4018 43bb f4a1 4e3c 6449 44bc 684e f9bc
000000f0: b469 4c3c 02f2 f7bb 0fac 39bb 48c4 38bb
00000100: 80af cebc b8bb f8ba 0c37 553c 083d 58bc
00000110: 8692 a2bb 36c3 2ebc 5d13 2bbb da56 17bd
00000120: a8d5 bcbc 855b 523c 1713 1e3b 4862 b1bb
00000130: 5398 44bc 428c a13a 3676 5bbc 5e05 ec3b
00000140: 301f 013d bd6a 7abc bc1a 72bc f806 303c
00000150: c711 1fbc 9491 3b3b 2611 c9bc 61e4 fa3b
00000160: b35a 2aba 00f5 8bbc 9a3d 81ba a7b1 38bd
00000170: 94dc d239 b4bf 1cbc e8c6 bc3b 333f 5ebc
00000180: 1081 e3bb 08b5 adbc 90ae 47bc 912f c8bb
00000190: 68cc 2f3c e35d 37bc dca6 29b9 b820 e7bb
000001a0: 2bb3 63bd 2878 0fbd f702 d339 d89a 34bc
000001b0: a573 2ebd 1bc4 e5bb 4486 9dbc cf34 97bc
000001c0: ca17 50bc 78d8 7d3b bc4b 1e3c b925 7bbc
000001d0: ea3d 7fba f92f e9bb 60bf 493c 9c32 a739
000001e0: 9bac 61bc 87f2 3fbd 6a39 023c 2d00 3c3c
000001f0: 3660 59bc f79d 12bc 0a71 10bc 36ca a63c
00000200: ae7b 18bc 8e14 6ebc b36b b2bb bc5a b6bb
00000210: e3e0 a33c 6b99 abbc 19da 9ebc 6fac f43c
00000220: a97e 18bd 5b8a ef3c 5dd5 debb 0c3b b0bc
00000230: 104c 73bc c781 9e3c e3b2 d8bb 4d78 9e3c
00000240: b1ff f2bc 383f 16bc d17a 09bd ebad 2cbd
00000250: a4f1 94bc b107 763a a024 01bc 62cd ebbb
00000260: 1ccd 8b3b 6c19 07bd be39 8ebc db0a 743c
00000270: 5966 4dbc 8c97 8b3b 49f2 36bc 1843 593c
00000280: c25a 573c 5b12 3bbc 94e2 e3bc da21 a6bc
00000290: d8cc f63b 4a61 38bc cb15 a1ba 4fd9 0ebc
000002a0: 0cf9 cfbc 16b9 d93c 1383 653d 07f5 35b9
000002b0: 3236 88bc 9070 9b3c 8b13 65bb ac76 e0bc
000002c0: cc25 993c 5a8b d2bb 8090 a23c cf7e 463c
000002d0: 0335 cdbc 4e4a 7e3b 37ba b03b b6aa 1fbc
000002e0: 5c70 0dbb a37d 96bc b669 003b 022b b83b
000002f0: 908b efbb db19 c5bc f5ce f73b c8c6 76bc
00000300: 5a51 04bd b65b bd3c 8de4 34bb 802b 703b
00000310: c6df 03bc 53ab eebc d4cb 043d 3c91 49ba
00000320: 2106 5cbc c329 1b3c 3942 1bbc ffae 783a
00000330: cbb0 0cbc ce76 cdbb 77db 9ebc f8b7 3cbc
00000340: 7845 363a 5e0f 5abc 8d19 93bc a6ef dfbc
00000350: 5f58 313c 922a 503c 88ea cfbc eaa1 a3bc
00000360: 8e82 ba3c f36d 8bbc 747a 3939 8e9a bcbc
00000370: 19aa f9ba 02a6 fa3a cea7 063c 3904 45bc
00000380: 5b9c a7bb ffd9 8abb 5922 253b 3193 81bc
-0.0031926255 -0.026903456 -0.06999766 -0.0005461444 -0.00036031514 0.0055356994 -0.003714098 0.0041767624
-0.002311632 -0.0048693344 -0.01479646 -0.026481247 0.00061101594 -0.007846987 0.032604635 -0.009434136
-0.016717862 0.010664294 -0.027457062 -0.03546803 -0.012427087 0.01390637 0.005421366 0.015181134
-0.022047382 -0.023528602 -0.011563519 -0.025097145 -0.017722417 -0.0015672253 0.01034776 -0.026420284
0.036021385 0.0034838268 0.008171981 -0.012308488 0.067067705 0.01482824 -0.012986826 -0.008866805
0.013889763 -0.012669262 0.02243011 -0.031329166 0.009470314 0.0024318048 -0.0572739 0.001957102
-0.020585526 -0.016239643 0.0033497897 0.019524872 -0.02253887 -0.003560312 -0.020440333 0.0057060514
-0.0029769093 0.012611855 -0.011980388 -0.030432895 0.012476373 -0.0075666914 -0.0028331315 -0.0028193165
-0.02523017 -0.0018976843 0.0130136125 -0.013198145 -0.0049613146 -0.010666659 -0.002610407 -0.036948062
-0.023051098 0.012839203 0.0024120265 -0.0054133274 -0.011999208 0.0012325125 -0.013394883 0.0072027883
0.031523883 -0.015284237 -0.014776882 0.010743849 -0.009708828 0.0028620707 -0.02454431 0.0076566194
-0.00064985006 -0.017084599 -0.0009860278 -0.045091297 0.00040218665 -0.00956719 0.005761016 -0.013564873
-0.0069428757 -0.021204486 -0.012187615 -0.006109186 0.010729887 -0.011191818 -0.00016179256 -0.007053461
-0.05559079 -0.0350267 0.00040247265 -0.011023246 -0.042590756 -0.007011903 -0.019229062 -0.018457798
-0.012700984 0.0038733762 0.009661611 -0.015328818 -0.0009736704 -0.0071163145 0.012313694 0.0003189043
-0.0137740625 -0.04686215 0.007948259 0.011474651 -0.013267567 -0.008948795 -0.008816013 0.020360094
-0.009306831 -0.014531268 -0.0054449677 -0.0055650156 0.020004695 -0.020947179 -0.019391106 0.029867379
-0.037230168 0.029240778 -0.006800337 -0.02151253 -0.014849678 0.019348992 -0.006613122 0.019344473
-0.029662939 -0.009170346 -0.033564392 -0.04215805 -0.01818163 0.00093853014 -0.007882267 -0.0071961144
0.0042663943 -0.03298323 -0.017361518 0.014895166 -0.012536609 0.004260009 -0.011166164 0.013260625
0.013144197 -0.0114179505 -0.027818002 -0.020279814 0.0075317435 -0.011253664 -0.001228982 -0.008718803
-0.02538731 0.026577514 0.056033205 -0.00017352785 -0.016627405 0.018974572 -0.0034954275 -0.027400337
0.01869478 -0.0064253034 0.019844294 0.012115194 -0.025049692 0.0038801613 0.0053932923 -0.0097452905
-0.0021581864 -0.018370455 0.0019594259 0.0056203613 -0.0073103383 -0.02406018 0.007562513 -0.015062042
-0.032304145 0.02311502 -0.0027602047 0.0036647022 -0.008048957 -0.029134428 0.03242095 -0.0007689183
-0.013429196 0.009470406 -0.009476238 0.00094865257 -0.008587073 -0.006270266 -0.019391758 -0.011518471
0.00069531007 -0.013309328 -0.01795652 -0.027335953 0.010824292 0.012705462 -0.025380388 -0.019974668
0.022767331 -0.017020201 0.00017688592 -0.023022916 -0.0019047885 0.001912296 0.008218719 -0.012024933
-0.0051150746 -0.004237413 0.0025197475 -0.015817257

network_body.linear_encoder.seq_layers.2.weight f4 [228, 228]
00000000: e49e c1bc 06a6 80bc fffd 663e 8203 8dbd
00000010: a214 8cbc d005 b3bd c8d6 db3d 694f 58bd
00000020: 33f1 88bd ab5a 7dbd 614e 9ebc a0a8 193d
00000030: 4a46 853c a82f 5b3d 5b95 723d 1e49 e73b
00000040: cd97 1e3c d02d c5bd b062 76bd bfe4 d6bd
00000050: 8fb2 273d 98b9 693c 918d ec3c 626f fabd
00000060: c74c ccbc c2e8 5dbd d6bc 963d 835a 39bc
00000070: d9d8 15bc bd8a d1bd 00d4 0ebe 388b 833d
00000080: 0c86 6dbd eb8f c03c 5897 cd3c 4612 923d
00000090: 3266 c5bc fe18 d73c 2771 12be a6ff 33bd
000000a0: 2ac3 8f3b ed7d 363d 41d1 ffbd 959c 5a3d
000000b0: 30c9 30be cbde 0dbd a7ec 0b3d 8961 b33c
000000c0: 064b 2a3d d942 d4bc 7cf3 afbc 9435 4d3e
000000d0: 23e4 dabc d129 cc3d c956 343d 3db3 d93d
000000e0: dfc9 703b 7cac 97bb d11f a5bd bd09 9f3d
000000f0: fb6f d1bc 2989 033d 64c6 4fbd ad63 373c
00000100: e506 153c 7c1a e23c 706b e43c 8277 8cbd
00000110: 7bcb 3dbe 7a3b 793d 237a 87bd d559 ad3c
00000120: 9c7b 363d d6e5 8d3d d7be 00be d13e e03b
00000130: c097 933d 9270 16bd 7e87 6e3d 8032 763d
00000140: 0976 363d 000e 67bd 918c 96bd e6c1 703d
00000150: 2f15 bbbc 627a 8cbc 2de0 92bc 76af d03d
00000160: 2f2e 39bd 7e1e ff3d a6ea e6bc 6483 be3d
00000170: 0018 08bd dd39 813d 63b5 953c 50c5 dcbd
00000180: fd6e 623d 473f 18bd 76d4 803c 52b1 f13c
00000190: 1c33 5bbd 8d0f 24bd e324 e4bd 2341 31be
000001a0: f789 12bd 59b6 c0bb b4a8 833b 4c2c d1bd
000001b0: da38 5fbe 7128 6c3d 898c 503c 3f87 203b
000001c0: 6ae6 133c 3ab5 7cbd ab25 96ba eb5f 183d
000001d0: 0619 38be f87f fcbd 3720 c2bd 3c75 b43d
000001e0: 58ea ad3d f191 173e 3cfb 233d 0e30 f53c
000001f0: eb45 09bc 4220 9b3d 2ec4 b7bd 7a62 96bd
00000200: 5f63 f7bd 00db e3bd e346 d83c 4edd 183d
00000210: ab6a cfbd e487 0fbd 5584 5a3d e3dc dcbc
00000220: 2225 da3d add0 2b3c b24b 1ebd 3b52 e73c
00000230: 7eb5 45bd 718a e4bd ddf5 12bb 1d1c dabd
00000240: 0716 02bd 4580 9c3d 2b3a b13d a026 acbd
00000250: 1609 bcbd 8ccf 65bb 5936 14bc 77e8 3f3d
00000260: 0a5f eabd 9fb6 a9bd bc7b 043d 2c75 9d3d
00000270: 121a 86bc c118 25bd 7627 a2bc 8700 0e3d
00000280: ef81 a03d 5fe7 b43d 3ca6 fb3c 96de 3fbd
00000290: 1bbb cd3d adb5 b63c 2509 303d 6335 e63d
000002a0: b808 0dbd fad3 c3bd d50a dabd da9c 033d
000002b0: d3b3 46bd 2016 d3bc 6550 e03d 6873 033c
000002c0: 2ea6 0b3e a143 39be 48c2 1fbd fa62 7e3d
000002d0: 08c0 da3c 8531 dcbd 1114 a63d 692a 05be
000002e0: 0088 203c 65be 44bc 46d6 57bd 8260 18be
000002f0: c306 55bd 06fc cfbd d404 83bd 53d8 1bbd
00000300: 9674 3e3e b0f6 023c 0f3f e83d 6200 9b3d
00000310: 70b6 cbbc aa11 d73b 5a6f b7bd 2620 96bd
00000320: 36b8 ea3c 59b8 7ebd 6c46 9bbc e8b8 3abd
00000330: 9e9c 45be 982f 1fbd 72a5 153d ef89 dcbd
00000340: 5d93 61bb 90ab 0c3b 6a80 c7bd 9d16 8cbc
00000350: 5d2a b2bd 3711 ee3c ad85 18bd 79d5 783d
00000360: ee90 1a3d 9f64 02be ae0e d0bd 2a96 ac3c
00000370: f2e2 dbbd 4c0e 2c3e 0310 b0bd 8bf7 ad3c
00000380: 663a 73bd 5bae 02bd 0de6 38bc 518b 7cbd
00000390: 006a d1bc 24a8 04bb 4dd0 853d 9e35 fc3b
000003a0: 0f9d 41be 7e48 b93c 8d0c 543d f3c5 9d3d
000003b0: 29cf 1fbd 44d1 8e3d e678 c9bc f072 16bb
000003c0: dbbd 96bd 1c86 593c 286a 773d 879b 9e3d
000003d0: 1089 b83d 22b7 c7bd 5dbc 52bd 9f07 02bd
000003e0: d489 85bd ef5b 403d a094 81bd 457b 61bc
000003f0: f035 293e 205c 13be 7dd8 babd bed1 52bd
-0.023635335 -0.015704166 0.2255783 -0.06885435 -0.017099682 -0.08741343 0.10734326 -0.052810106
-0.0668663 -0.061854046 -0.019324483 0.03751433 0.016268868 0.053512245 0.059224468 0.007058277
0.009679747 -0.09627879 -0.06015271 -0.104928486 0.04094177 0.01426544 0.028876098 -0.12228276
-0.024938954 -0.054177053 0.07360236 -0.011313084 -0.009145939 -0.1023154 -0.13948059 0.06423038
-0.057989165 0.023506125 0.02509658 0.07132392 -0.024096582 0.026257034 -0.14300977 -0.043944977
0.004387279 0.044553686 -0.12491084 0.053371985 -0.17264247 -0.0346363 0.034161236 0.021897094
0.041575454 -0.025910782 -0.021478407 0.2003997 -0.026720112 0.09968913 0.044028077 0.1062989
0.0036741418 -0.004628716 -0.08062709 0.07765529 -0.025566092 0.032113228 -0.05072631 0.011193198
0.009095882 0.02760052 0.027883261 -0.06858732 -0.18534653 0.060847737 -0.066150926 0.021161
0.044551477 0.06928603 -0.125728 0.006843426 0.072066784 -0.03672845 0.058234684 0.060106754
0.04454616 -0.056409836 -0.0735103 0.058778666 -0.02283725 -0.0171482 -0.017929161 0.101897165
-0.04521006 0.12456988 -0.028188061 0.093024045 -0.033226013 0.06309865 0.018274968 -0.10779822
0.055281628 -0.03716972 0.01572631 0.029503498 -0.05351554 -0.040053893 -0.11139848 -0.17310004
-0.035776105 -0.0058811125 0.0040179137 -0.10213527 -0.21799031 0.057655755 0.012728819 0.0024494675
0.009027103 -0.06169627 -0.0011455318 0.03720085 -0.17978296 -0.123290956 -0.09478801 0.08811423
0.08491963 0.14801766 0.040034518 0.02993014 -0.008378486 0.07574512 -0.08972965 -0.07343002
-0.120795004 -0.11125755 0.026400989 0.037320428 -0.10127767 -0.035041705 0.053348858 -0.026960796
0.10651614 0.010486764 -0.038646407 0.028237453 -0.048268788 -0.11159218 -0.0022424378 -0.106498934
-0.03175929 0.07641653 0.08653673 -0.08405805 -0.091814205 -0.0035066335 -0.009046161 0.046852555
-0.114439085 -0.08286785 0.032344565 0.076883644 -0.016369853 -0.04030681 -0.019794207 0.03466847
0.07837283 0.08833193 0.030718915 -0.046843134 0.10045453 0.022303427 0.04297747 0.112406515
-0.034432143 -0.09561916 -0.10646597 0.032132007 -0.048511337 -0.025767386 0.10952834 0.00802312
0.13637611 -0.18092205 -0.03900364 0.06210611 0.026702896 -0.107516326 0.08109296 -0.1300446
0.00979805 -0.012008284 -0.05269458 -0.14880565 -0.0520084 -0.101554915 -0.06397405 -0.0380481
0.18599162 0.007993385 0.113401525 0.075684324 -0.024867266 0.006563385 -0.089567855 -0.073303506
0.028652292 -0.062187526 -0.018954478 -0.045586497 -0.19298026 -0.03886375 0.036534734 -0.10768496
-0.003442011 0.0021464564 -0.0974129 -0.017100627 -0.086994864 0.029060943 -0.03723686 0.06075046
0.037735872 -0.12733696 -0.1015905 0.021067698 -0.10736646 0.16802329 -0.08596804 0.021236202
-0.059381865 -0.03190456 -0.011285317 -0.0616563 -0.02556324 -0.0020241821 0.06533871 0.0076968214
-0.1890757 0.022617575 0.05176978 0.077037714 -0.039015923 0.06973508 -0.024593782 -0.0022956692
-0.07360431 0.013276603 0.060403973 0.07744508 0.090105176 -0.09751727 -0.05144917 -0.03174555
-0.06520429 0.046962675 -0.06327176 -0.0137623 0.16524482 -0.14390612 -0.09123323 -0.051469557

network_body.linear_encoder.seq_layers.4.bias f4 [228]
00000000: 0ea4 f83b 4374 b5bb 0acb 883b 304a bcbc
00000010: b268 c3bb d1dc 85bc 6666 99bc 20eb 663c
00000020: 96c9 0dbc 9db7 7e3c ee04 7bbc 9da0 b33b
00000030: 0a3c dbbc 496c fbbc 7e92 81bc 65b5 383c
00000040: 459c 44bb fad6 f6bc ec79 07bb 9b44 b43c
00000050: 39eb a73b 7886 04bb a558 b5bc d240 a4bc
00000060: a56e 0e3c 90e2 38bc 4fbd 993b 75fa a93c
00000070: 6f0b f7bb c0a4 053c d108 d7bc ad24 34bc
00000080: db11 a8bc f569 333c 5dc8 61bc 6e9e 0b3c
00000090: 798f 89bc 77c5 1d3c c2d9 2bbc c783 c13c
000000a0: a37c 903b 2285 ceba d7fa 17bd 4e8b a5bb
000000b0: 70cd 65bc d9ce d33a c20f 27bc 62a2 553b
000000c0: 8d5e 6b3c 16f7 debb 6f64 8ebb 3019 2fbc
000000d0: 1b3f efbb 0098 0ebb 0732 d5bb 7c4e a5ba
000000e0: 64e6 d4ba 2fbc b6bb 98b7 6b3b ca53 78bc
000000f0: 96f5 73ba 6b70 dc3c 78e0 cbbc 279c 44bb
00000100: b7b9 42bc 5bb0 0ebc 28a6 13bc 61ad afbc
00000110: 0c6b 97bb 9d67 0ebc 5101 d7bb ddfe 403c
00000120: e5cb c1bb 1383 f43c 74d2 fb3c c870 13bc
00000130: 487a f0ba 4419 703c 16f3 b6bc 45ad 3abb
00000140: cdbb 97bc 621a ffbc ca23 633c c75b 75bb
00000150: cddd 3d3c c458 fcbb 1032 b8bc 2901 d0bc
00000160: 035a bebb 4c3a 5cbc 9f3e 563b 309d 01bc
00000170: 4542 0dbb f901 c83c fe5b 11bc aad3 573d
00000180: 2980 8cbc 9e61 0bbc d9b6 c6bc 0c52 bcbc
00000190: c27a bb3b 550f 42bb cb64 273c adc5 73bc
000001a0: 05a6 82bc ef47 82b7 31a9 2ebc 70de d9bb
000001b0: ac1b 123c 9169 e1bb a63f 5ebb 7016 22bc
000001c0: a9d3 353b 90ce c33b af58 333a 221c 273b
000001d0: 4253 a3bc 4ee1 9d3a 7101 a5bc 756f 91bc
000001e0: 8c7c 23bd 3aef 9dbb 7b31 eabc baa7 db3b
000001f0: 7da4 c63b a9e2 0ebc 0a26 e2bc 05d8 013d
00000200: fde0 b7bc 68ae 0cbc b5eb 123b 5cc6 083c
00000210: 7e85 33bb 95f1 ba3a c681 13bd 4669 90bc
00000220: b69d 58bb 54b1 6abc e03b ae3c e05f 79b9
00000230: 3a9f d03b 8bd1 dcbc 01c2 533c 919a 44bc
00000240: c4bb 8c3c fc41 7bbc 5bdc 58bc f81b 553c
00000250: 6815 323d 8fd3 f2bc c9ea 3cbc bd9a 0ebc
00000260: 2d4a 8bba 1943 22bc 39e8 97ba b595 2a3c
00000270: bd22 9cba 65e2 103d d4b4 9f3c c787 13b9
00000280: 8692 b5bb d15e 1b3c 8431 e6bb 4cf8 babb
00000290: 12ad 4bbc 9dd9 303b c270 4dbc 4423 ccbc
000002a0: 58e8 2fbc d1b5 01bd 7af2 27bc 227d 21bc
000002b0: 1001 76bc e091 94b9 d8a8 afbc 9504 2c3c
000002c0: b3fc c6bc db0b 603b 69dc 4e3b 18b1 eebb
000002d0: 89cd 4cba 8cdd 29bb 40a6 323b 30ba 69bc
000002e0: 883f 4ebc 70e9 543c 6157 133d c6a6 99bc
000002f0: e5d9 96bb 9970 9cbb 86fa 28bc 8146 933c
00000300: 5f90 c8bc ac16 0f3a 5f41 3e3c 4390 87bc
00000310: 9d0f 43bc d91e 74bc f69c 7639 5f23 62bc
00000320: 4a85 e0ba 2c03 50bc a13b fcbc 6348 35bb
00000330: c48f f73b 8f15 bb3a 3ac2 3f3b b882 c93a
00000340: ea2a f9bb 81dd e03a 428d a13b 191f 8ebc
00000350: 23b8 48bd 1cba ffbc 33f5 00bc 2a17 c23b
00000360: eb37 d13b 04b4 10bc c99e 93bc db27 b9bb
00000370: 762e 9cbb 896c 75bc 1918 9d3d df57 dbbb
00000380: 22bd bbb9 661e 95bc 746e aabc 48c2 0cbc
0.007587916 -0.005537541 0.004174595 -0.022984594 -0.0059634084 -0.016340645 -0.018725585 0.014094144
-0.008654019 0.0155467065 -0.015321 0.005481793 -0.026762027 -0.030691283 -0.015816923 0.011273717
-0.003000037 -0.030131806 -0.0020672036 0.02200537 0.0051244763 -0.0020221751 -0.022136996 -0.02005044
0.008693372 -0.011284485 0.004691757 0.02074931 -0.007539205 0.008156955 -0.026249321 -0.010995072
-0.020516327 0.010950555 -0.0137806805 0.008521659 -0.016792046 0.009629599 -0.010488929 0.023622407
0.004409389 -0.0015756229 -0.037104454 -0.005052007 -0.014026031 0.0016159668 -0.010196628 0.0032598008
0.014365804 -0.0068043573 -0.0043454687 -0.0106871575 -0.007301224 -0.002175808 -0.006506208 -0.0012611891
-0.0016242978 -0.0055766325 0.0035967585 -0.015156696 -0.00093063095 0.026909074 -0.024887308 -0.00300003
-0.011885098 -0.008709039 -0.009011783 -0.021444978 -0.0046209153 -0.0086916955 -0.006561436 0.011779514
-0.0059141987 0.029847657 0.03074 -0.008999057 -0.001834699 0.014654461 -0.02233271 -0.0028484624
-0.018522168 -0.03114051 0.013863513 -0.0037438737 0.011588526 -0.0077010114 -0.02248481 -0.025391178
-0.00580907 -0.013441633 0.0032691134 -0.007911012 -0.0021554392 0.024415003 -0.00887203 0.052692093
-0.017150955 -0.0085071605 -0.02425711 -0.022988342 0.005721421 -0.002961119 0.010216902 -0.014878673
-0.015948305 -1.5530704e-05 -0.010660456 -0.006648831 0.00891773 -0.0068790396 -0.003391245 -0.009893045
0.0027744567 0.005975552 0.0006841523 0.0025498946 -0.019937161 0.0012045295 -0.020142289 -0.017753342
-0.0399137 -0.004819778 -0.028588047 0.006703344 0.006062089 -0.008721032 -0.027606029 0.031700153
-0.02244615 -0.008586504 0.0022418324 0.008348074 -0.00273928 0.0014262671 -0.036012433 -0.017628323
-0.0033052987 -0.014324505 0.021268785 -0.00023782207 0.0063666375 -0.026955387 0.012924672 -0.011999742
0.017179377 -0.015335556 -0.013236131 0.013007157 0.043477446 -0.029641895 -0.0115305865 -0.008703885
-0.0010626965 -0.009903693 -0.0011589593 0.0104116695 -0.0011912208 0.035372157 0.019495405 -0.00014069593
-0.0055411486 0.009483055 -0.0070249457 -0.005705869 -0.0124314 0.0026985176 -0.012539091 -0.02491916
-0.010736547 -0.031667534 -0.010250682 -0.009856494 -0.015014902 -0.00028337445 -0.021442816 0.010499139
-0.024290418 0.0034186754 0.003156448 -0.007284295 -0.00078126095 -0.0025919406 0.0027259737 -0.014265582
-0.012588389 0.012995109 0.035972003 -0.018756282 -0.004603612 -0.004774165 -0.010313636 0.017977955
-0.024482904 0.00054583955 0.011612265 -0.016548282 -0.011905578 -0.014899933 0.0002351886 -0.013802378
-0.0017129567 -0.012696069 -0.030790152 -0.0027661554 0.00755498 0.0014273393 0.0029260055 0.001537404
-0.0076039927 0.0017155857 0.0049301693 -0.017348813 -0.04900373 -0.031216674 -0.00787096 0.0059231715
0.00638484 -0.008831982 -0.01802005 -0.005650503 -0.0047662808 -0.01497949 0.07670612 -0.0066938247
-0.00035808334 -0.018202972 -0.020804621 -0.008591242

network_body.linear_encoder.seq_layers.4.weight f4 [228, 228]
00000000: 769e 823d eb61 c5bc 0eec 653b 2a35 17bd
00000010: 8eb7 403d ab0b a93d 8c3c ab3c 30ed 21bd
00000020: 8688 993d 8b63 8ebd bad7 b83c 04e9 b63c
00000030: c891 3b3d 7176 b0bd 7542 453d 29e4 d1bd
00000040: 282f 1e3e f1d5 a03d dae9 94bd 34a6 8f3d
00000050: 0ba0 96bd 330c 96bd 5198 c93c 0abb 7dbe
00000060: 952e a33c 33cd 98bd 7cd4 3abd 180a b13d
00000070: b66d 41bc e5c4 f6bc 36a6 72bd 8829 e43d
00000080: d256 abbd 96ff 92bd f1cb 1f3b 4a3d 483d
00000090: 3165 22be 3265 c23c 6f1d 58bd 8158 38bd
000000a0: d5ce 86bd d465 3a3d 128c 493d fc86 e5bc
000000b0: d64c 87bd df4e 843d 46f6 973c c6dd c83d
000000c0: 71e0 05be a1d0 fabc e78a 56bd c364 b4bd
000000d0: ccb6 2e3d 13d2 f73d 72ca fc3d a782 a53c
000000e0: ac33 91bc 5d9c 98bd 194c 14be 31ee d83b
000000f0: 0f05 53bc 0e2a aabd 28bf 37bd ae63 e33d
00000100: 2a87 963c 5610 b63d b810 63bd 1f1c 263d
00000110: 686e 9e3d e666 903d 815b b33c ec87 453b
00000120: 4edb 893d b98b 2abc 7b80 efba f213 693d
00000130: 971e b23d be8a 38bd e9bc 81ba 7142 983b
00000140: 1427 fcbd 3ef6 0e3e c2f4 5cbd 5588 b93c
00000150: 82ee 483c 25df 7c3d 62b2 173e a3a9 ff3d
00000160: e3de d0bd 527e 95bd 3c2a 9ebd 8370 e03c
00000170: aebc d03b d7e6 e63c fadc 42bd fc0a 23bc
00000180: da71 123e 5111 493d 9e55 fbbc 121e 30bd
00000190: 64ca a63d 79a4 183d 384b 2bbb 87c2 a9bd
000001a0: 4bfc 16bd edbf 723c 6bea 43bc ccc7 6e3c
000001b0: 44d5 24bc bda6 2d3c 8045 96bd 408f 88bc
000001c0: 8273 393d 7af1 19bd ef39 4abd cbf7 ffbd
000001d0: 0a65 7dbc 0203 fb3d 2aad 89bd 32b9 7dbc
000001e0: dd39 983b bdf3 a83d 8c75 1e39 b886 c6bd
000001f0: 1334 d8bd 0d2f e73d 6b8f 1cbe ce18 dd3d
00000200: ad48 8c3d 5161 b2bd 51a8 0a3d 41b7 02be
00000210: 03c6 41bd 493b 003e fee4 633d 9f0d 06bd
00000220: 28c3 b63c ef53 a3bd 6df3 25ba b28d 94bc
00000230: ac9d 36be 7feb a7bd 597c 853c 2d17 b1bb
00000240: 85cd b8bb f2a3 803d dc61 a6bb 5ff8 a7bd
00000250: 3979 ce3b 4160 be3d 03d3 be3c fe3d 3bbd
00000260: 6115 28bd 3a2e 943c 356d 5ebd 196e 733c
00000270: 4a5b 3d3d 4558 adbd b0bc 6c3d 943b 7abd
00000280: f7a2 febc 63fa 35bd f088 4d3b 03bf 2dbc
00000290: 148d 663d d89f a8bc fcc1 99bb 3c8a 03be
000002a0: 40d1 be3a 1b94 243c 68e2 c8bc 9b87 943c
000002b0: b8a4 c23d c228 9f3c 1c69 243d 0d58 813c
000002c0: 3059 0dbc caa1 c2ba ca17 203d e339 08be
000002d0: 1176 8e3d fcdb 2ebd 9366 b4bd bb0c 3d3d
000002e0: 9a83 3fbe dcb9 b3bd e778 873c 5fe4 0f3c
000002f0: 316b 343e 7392 3abc 928e ef3d e25a 183d
00000300: 6aee 0fbd c0f5 37bd 8cca ddbd 09bc 63bd
00000310: cc9f 2c3d 160d 933d 7ca6 89bd d3ab b33d
00000320: ff2d 043e a989 783d 1392 423d cd93 593b
00000330: c8c8 1abc 8d80 b8bd c66b 5bbd 7f79 d5bc
00000340: 9612 32bd adef 6d3a 30dd 063e dd63 aa3c
00000350: 6402 c0bc b0bb 2d3d f6d5 b6bd 83e3 41bd
00000360: 5d6f 903d 6dc6 6cbd 47a8 053d cdaa 4ebc
00000370: 6cc4 10bd 39a3 46bb 2c10 99bc 5071 bfbc
00000380: ee2c 3dbd 3022 b5bb e551 23bd c0c4 d33c
00000390: acf2 5ebd cf85 ba3d 4575 aebd b69e ccbd
000003a0: cc37 563d e47c ae3d fa6b d43c 41f8 553c
000003b0: cd5d b43d 88aa 433d e122 45bd 9024 89bd
000003c0: cb8b e5bd 1be2 6fbe 3425 f8bc 0c3f edbc
000003d0: f278 43bc 6052 8d3d 5889 a7bd b64b ab3d
000003e0: c98e cc3c c1de 98bd 8b81 b7bc fe49 55bd
000003f0: fd8a f5bb 3e09 993d 3436 543d d868 ba3d
0.0637788 -0.024094542 0.0035083327 -0.036915936 0.04705005 0.082541786 0.020902894 -0.03953284
0.07496743 -0.0695258 0.022563804 0.022327907 0.045793325 -0.08616341 0.04815908 -0.10248596
0.15447676 0.07853306 -0.07271166 0.070141226 -0.073547445 -0.073265456 0.024608763 -0.24778381
0.019919673 -0.07461014 -0.045612797 0.08644503 -0.011805942 -0.030123184 -0.059240542 0.11140734
-0.08366169 -0.071776554 0.0024383033 0.048886575 -0.15858914 0.023729894 -0.052762445 -0.04500628
-0.06582419 0.045507267 0.049205847 -0.028018467 -0.06606452 0.06460356 0.01855005 0.09807925
-0.13073899 -0.03061706 -0.05237856 -0.08808281 0.042654797 0.12100615 0.12343301 0.020203901
-0.017724834 -0.07451699 -0.14482154 0.0066201915 -0.012879624 -0.083088025 -0.044860035 0.11102997
0.018374998 0.088898346 -0.055435866 0.040554162 0.07735902 0.07050876 0.021894218 0.003014083
0.06731282 -0.010409289 -0.0018272543 0.056903787 0.08697241 -0.04505419 -0.0009898219 0.0046465923
-0.12312141 0.13961121 -0.053944357 0.022648016 0.012263896 0.061736245 0.14814141 0.124835275
-0.10198762 -0.07299484 -0.07722899 0.0273974 0.0063701486 0.028186245 -0.04757402 -0.009951349
0.14301243 0.04908878 -0.030680474 -0.042997427 0.08144072 0.03726623 -0.0026137363 -0.08289056
-0.0368617 0.0148162665 -0.011957745 0.0145740025 -0.010060612 0.010598836 -0.07337475 -0.01666987
0.045276172 -0.037583806 -0.049371656 -0.12498435 -0.015465984 0.12256433 -0.067224815 -0.015486049
0.0046455697 0.082496144 0.00015111844 -0.09693664 -0.10556807 0.11288271 -0.15289085 0.10795747
0.06849799 -0.08709968 0.033851925 -0.12765218 -0.04730798 0.12522615 0.055638306 -0.032727834
0.022309855 -0.079749934 -0.0006330524 -0.018133972 -0.17833585 -0.08199214 0.016294645 -0.005404374
-0.005639734 0.0628127 -0.0050775837 -0.0820167 0.006301072 0.09295703 0.023293978 -0.045713417
-0.041036014 0.018088449 -0.054303367 0.014857792 0.04622964 -0.08464102 0.057797134 -0.061091974
-0.031083567 -0.04442824 0.0031362139 -0.010604623 0.056286886 -0.020584032 -0.004692314 -0.12845701
0.0014558211 0.010045077 -0.024522021 0.018131068 0.09504074 0.019428615 0.040139303 0.015789056
-0.008627221 -0.0014849242 0.039085187 -0.13303332 0.06956113 -0.042690262 -0.08808627 0.04615472
-0.18702546 -0.08775684 0.016537143 0.008782475 0.17619015 -0.011387455 0.11697115 0.037196048
-0.03513948 -0.0449121 -0.108296484 -0.055599246 0.04214458 0.0718023 -0.067212075 0.08773007
0.12908171 0.060678158 0.04750259 0.0033199668 -0.009447284 -0.09008894 -0.053569578 -0.02605891
-0.043474756 0.0009076547 0.13170314 0.020799572 -0.02343864 0.04241532 -0.089275286 -0.047336113
0.07052491 -0.05780642 0.032631185 -0.012613964 -0.035343572 -0.003030969 -0.01868447 -0.023369461
-0.046185426 -0.005527757 -0.039873023 0.025850654 -0.05443065 0.09107553 -0.08518461 -0.09991209
0.052299306 0.08519915 0.025930393 0.013059677 0.088069536 0.047770053 -0.048128966 -0.06696427
-0.11208304 -0.23426096 -0.030291177 -0.028960727 -0.011930691 0.069004774 -0.08180493 0.0836405
0.024970429 -0.07464362 -0.022400638 -0.052072518 -0.0074933753 0.07472466 0.051809505 0.091020286

network_body.linear_encoder.seq_layers.6.bias f4 [228]
00000000: 4f30 c8bb c388 e3bb 80fd 9e3a 8f33 acbc
00000010: 2d94 ba3b 8bcc 6fbc 9565 5a3c 15d9 79ba
00000020: 97e1 b2bb a115 bdbc e6a2 a7bc 8b49 a1bc
00000030: df09 bfbb 51f0 f8ba 8696 aebb 888b 17bc
00000040: c069 c03b 6068 a13a 3ca2 a1bc 17de 98bc
00000050: 552c e6bb 04c1 163c a559 14bc 602c aabb
00000060: 9d29 4f39 af9e 90bb f386 b8bc 4124 e8bc
00000070: ab78 483c 5569 0cbc bf34 8cbb 4098 54bb
00000080: 6826 32bc 2699 973b a5b8 31bc 38e3 53bb
00000090: 51f7 09bc d463 883c c710 c8bc 1512 55bc
000000a0: a6dd 3f3b 0f7c 8b3c 6e28 77bc 3c86 a8bc
000000b0: 66d7 76bc 31de c6bc b839 90bc 0840 80bc
000000c0: db8d 283c d6c6 81bc 6710 91bc efe1 c739
000000d0: 59ab cabb b629 95bb 1d19 24bd 153c 7ebc
000000e0: cc02 a23c d0cb 81bc d147 9cbc f4bd 57bc
000000f0: 420e 93bc ece5 223b 8e62 bb3b 011b 9abc
00000100: 8e50 8abc c9b3 05bd 3671 a8bb 8e03 a83c
00000110: c462 f0bc ac25 d4bc 9ca6 8e3b bbe4 b5bb
00000120: d362 403a 57dd 403c 5a0e 98bc 6fa9 c839
00000130: 744b e5bc 0841 da3a 8bd6 173c 3372 fabb
00000140: b1ed b2b9 4724 7abb c7dc 81bb 00bf a4bc
00000150: b320 373c 35c4 26bc 0629 4e3c 9bf4 73bc
00000160: 2467 abbc a31d 5c3c ff49 a6bc adc4 fdbb
00000170: 364b e6bc 4448 eb3b 9044 53bb 2c04 5ebc
00000180: a28a e6bb f634 073c fde5 f1bb 7294 31bb
00000190: 086c 6ebc 23dd 6b3c 8441 dfbc f12c e5bc
000001a0: b5e0 7b39 5dd8 bbbc 3097 12bc f173 c13b
000001b0: 4c48 363c f658 d6bc c8da 373d 5fd7 00bc
000001c0: 6176 7ebc 3f59 40bc 9fba 64bc 651e 95bb
000001d0: 40c2 bd3b b838 223b 87fb 0fbc 5a21 aabc
000001e0: 1c48 22bc eedd a23a 727a efbc 6867 c8bc
000001f0: cf5b 5c3b 14fc fc3b bf75 cdbc 4584 3ebc
00000200: 0a22 6abb a632 fb3c b078 8abc fcae ac3b
00000210: 92d4 29b9 df30 88bc 85ba 05bc 2fe2 f2bb
00000220: 1fcd e73b a177 143b b588 1a3b 2118 0ebd
00000230: be8c de3b 4303 7abc ab2f dc3b bd91 80bc
00000240: d7c9 b9bc 5c6a 663c abda aebb 4d77 f4bb
00000250: 3a47 0d3c 625d 35bc a301 89bc b832 953c
00000260: 00a8 0dbc b54d 993c 8a7c febb ec9f 6fbc
00000270: 4e0a 90bc 0528 e7bc ba8f d4bb 987e c9bb
00000280: 7429 acba 19f8 803c 3340 c0bc a69d b53b
00000290: 3e67 e83a e580 fd3c a499 033b b059 fabc
000002a0: 893b c13b e593 03bc 21db e23b 99d6 0cbd
000002b0: f3a4 a9bc f712 83bb 2082 fbbc 2c22 063b
000002c0: 2bf8 07bc 328c 1a3c 3687 053b b413 7c3b
000002d0: 7972 633c fc16 ac3c d92b 9d3a d601 1ebc
000002e0: aa44 71bc 10b7 25bb f70b 7ebc 1312 ccbc
000002f0: 3f1f d83c 0064 86bb c320 21bc 7ad9 26bd
00000300: 3735 97bb ee83 d3bc 8849 02bb e75d f9bb
00000310: f048 523c cbbf b6ba f0be 93bc 834c b93b
00000320: 0b44 593c 7cd3 203a 5505 f53b 6ffb faba
00000330: c97c cabc 9c16 b5bc de45 e5bb 769c 753c
00000340: 74b6 1abb 05d7 46bc a5ef 403b 39de 29bc
00000350: 3563 2fbc 30da 87ba 3e90 273a 9b9b e0bb
00000360: a710 583c 4d16 aabc 5957 1a3c 990c 963c
00000370: 1579 6d3c a700 94bc 69f9 60bc 4615 133c
00000380: 9deb a5bc 2195 793b 6902 50bc 626c 8dba
-0.0061092745 -0.0069437935 0.0012129992 -0.021020679 0.0056939335 -0.014636169 0.013329883 -0.0009530944
-0.0054590213 -0.023081603 -0.020463418 -0.019688388 -0.005830034 -0.0018992518 -0.0053280024 -0.009249575
0.0058719814 0.0012314431 -0.01973068 -0.018660588 -0.0070243278 0.009201292 -0.009054576 -0.005193278
0.0001975656 -0.004413448 -0.022525286 -0.0283376 0.012235801 -0.008570035 -0.0042787488 -0.003243938
-0.010873415 0.004626411 -0.010847245 -0.0032331478 -0.008420781 0.016649164 -0.024422063 -0.013004799
0.00292764 0.01702693 -0.015085323 -0.02057182 -0.015066003 -0.024275871 -0.017605647 -0.015655532
0.010287727 -0.015841883 -0.017708017 0.0003812457 -0.006184977 -0.0045520915 -0.040063012 -0.015517254
0.019776724 -0.015844256 -0.019077213 -0.013167847 -0.017951135 0.0024856282 0.0057185357 -0.018811705
-0.016884115 -0.03264216 -0.005140449 0.020509508 -0.02934397 -0.02589687 0.0043533575 -0.0055509484
0.00073389447 0.0117715215 -0.01856153 0.0003827321 -0.02799008 0.0016651461 0.00926746 -0.007643008
-0.000341279 -0.0038168596 -0.0039630863 -0.020110607 0.01117723 -0.010178615 0.012583023 -0.014889861
-0.020923205 0.0134348 -0.020298956 -0.007744393 -0.028112035 0.0071802456 -0.0032236911 -0.013550799
-0.0070355693 0.008252373 -0.007382153 -0.0027096537 -0.014552124 0.014395985 -0.02725292 -0.027975531
0.00024020935 -0.022930318 -0.008947179 0.005903714 0.011125635 -0.026165467 0.04488638 -0.0078638485
-0.015531153 -0.011740028 -0.01396051 -0.0045507425 0.0057909787 0.0024753045 -0.008787996 -0.020767856
-0.0099048875 0.0012425759 -0.029233191 -0.02446337 0.0033624058 0.0077204797 -0.02508056 -0.011628215
-0.0035725855 0.0306638 -0.016903251 0.005269883 -0.00016196285 -0.016624866 -0.0081621455 -0.007412217
0.007074013 0.0022654312 0.002358002 -0.03469098 0.00679168 -0.015259567 0.0067195497 -0.015694493
-0.022679253 0.014063444 -0.005336126 -0.007460511 0.008622939 -0.0110696275 -0.016724413 0.018212661
-0.008646011 0.018713811 -0.007766311 -0.014625531 -0.017583039 -0.028217325 -0.00648686 -0.0061491244
-0.0013134913 0.015743302 -0.023468113 0.005542475 0.0017730964 0.03094525 0.002008059 -0.030560344
0.0058969897 -0.008030866 0.006923095 -0.034384344 -0.020708537 -0.0040000635 -0.030701697 0.0020467145
-0.008298914 0.009432839 0.0020374781 0.0038463892 0.013882273 0.021007054 0.0011991217 -0.009643992
-0.014725843 -0.0025286116 -0.015505782 -0.024910962 0.026382087 -0.0041012764 -0.009834471 -0.040734746
-0.004614498 -0.025819745 -0.0019880254 -0.007610071 0.0128347725 -0.0013942657 -0.018035382 0.005654873
0.013260852 0.0006135029 0.0074774423 -0.0019148419 -0.024717705 -0.022105508 -0.006996854 0.0149909165
-0.0023607286 -0.012136226 0.0029439714 -0.010367923 -0.010704805 -0.0010364708 0.0006392038 -0.006854487
0.013187564 -0.020762587 0.009420239 0.018316554 0.0144942 -0.018066717 -0.013731339 0.00897724
-0.02025395 0.0038083273 -0.012695887 -0.0010789747
