Assets/rigid1.onnx (onnx, 850588 bytes, 11 tensors)

action_model._continuous_distribution.mu.weight f4 [1, 228]
0.02994301 0.0029268519 -0.01812316 0.029470932 0.011741282 0.005867845 0.019437043 -0.008612996
0.005611754 0.005669951 0.019148074 0.01752012 -0.00013475001 0.023272054 -0.00017761167 -0.021057054
-0.007944532 -0.009328344 0.012034919 -0.005846494 0.0055409544 0.013412492 -0.0033089058 -0.0019910252
-0.0060815727 -0.01140941 -0.009855354 0.0077806897 -0.01980299 -0.026907472 0.0030773052 0.0045064846
-0.014421161 0.040572498 -0.025484124 -0.0007370794 -0.0024813751 0.0032011913 0.0069258017 0.00978497
0.002271434 0.0021787796 -0.0024668663 0.0045000394 -0.018717417 -0.004828114 -0.053624433 0.023236902
-0.0052544298 -0.0070420783 -0.012342276 -0.0051526055 -0.006862076 0.01748648 0.036068138 -0.0024614458
-0.0010992292 0.0065184236 -0.022337297 -0.0112030115 0.0063058315 -0.023993691 0.04909586 -0.0064796656
0.003352339 0.03730265 0.014210441 0.003891641 -0.0037307339 0.008103992 0.009953748 0.017481796
0.0072201896 0.024861522 0.0040376047 0.0048806337 0.0063132416 -0.007980138 0.0101307165 -0.0019725321
-0.0072543714 0.008526034 0.0002448284 -0.008757066 -0.018546095 -0.03070571 0.0013711536 0.0052324296
-0.0019566207 0.0009195723 0.023643486 -0.002888365 -0.004133219 -0.037940808 -0.013000656 0.0073430575
0.021822762 -0.0033571657 0.0050240657 -0.022152811 -0.022322727 0.019981852 0.000944725 -0.023941876
0.018576492 -0.013071869 0.015921442 0.0050297044 -0.017176 -0.0055410326 -0.019685967 0.026214983
0.028455667 0.012548297 -0.030410387 -0.017960168 -0.0021043983 -0.023897635 -0.0061020125 -0.020864436
-0.020503478 0.003568314 -0.01104402 0.026213925 -0.0013196676 -0.01585894 0.0034374755 0.018430106
0.0023742465 0.004742238 0.037427157 -0.00066125276 -0.039369762 0.0057133897 -0.05757606 -0.039102875
-0.0427363 0.029950721 -0.018386675 0.014073922 -0.011514037 -0.010735885 -0.022444254 0.0015809449
-0.04443199 0.028194671 -0.004486119 0.012228167 -0.018672286 -0.018211743 0.004666454 -0.0017156464
0.003453489 -0.037521057 0.013600479 -0.0076375715 -0.02933277 -0.0058225975 -0.0031178861 0.015223014
0.012240871 -0.020246243 0.005571635 0.014921047 -0.0019940205 -0.008775689 -0.015104509 -0.03315261
-0.01445115 0.0067207534 -0.0058476957 -0.008027934 0.01839342 -0.020684827 -0.0011045876 0.0023588494
0.0074597327 -0.00129043 -0.0064795944 -0.012433653 0.014775572 0.012345525 0.016712265 -0.010479993
-0.019470943 0.0022801268 0.027687432 0.005298527 -0.00016661307 0.0044380617 -0.012230406 0.037023272
0.010593623 0.018685116 -0.019969063 0.0015784036 0.0021392037 0.0014079381 -0.0048408615 -0.014115531
0.005784215 0.001330136 -0.007561023 -0.010466422 -0.006397256 -0.0029278656 -0.012713775 0.026734145
-0.019180052 -0.0041733105 -0.020822512 -0.025835125 0.019317333 0.031050716 0.0145527115 0.03669844
-0.023764439 -0.0015224856 -0.001976398 -0.0072070267 0.0034274468 -0.033088833 0.015552308 0.018083077
0.006569779 -0.03489903 -0.0042419517 -0.011136127
00000000: 0b4b f53c 6dd0 3f3b 0577 94bc 066d f13c
00000010: 825e 403c 0d47 c03b 6f3a 9f3c 861d 0dbc
00000020: cee2 b73b ffca b93b 6cdc 9c3c 5b86 8f3c
00000030: ae4b 0db9 09a5 be3c 453d 3ab9 d87f acbc
00000040: c829 02bc e9d5 18bc 1c2e 453c f293 bfbb
00000050: e590 b53b 12c0 5b3c 3ada 58bb dc7b 02bb
00000060: ee47 c7bb 89ee 3abc 5a78 21bc 28f5 fe3b
00000070: e139 a2bc 0f6d dcbc 9dac 493b 22ab 933b
00000080: bc46 6cbc 592f 263d 15c4 d0bc 9038 41ba
00000090: 919e 22bb 14cb 513b d6f1 e23b 2451 203c
000000a0: 57dc 143b dbc9 0e3b 26ab 21bb 1175 933b
000000b0: 4555 99bc 2835 9ebb 4ba5 5bbd 515b be3c
000000c0: 5a2d acbb 3cc1 e6bb 4237 4abc 30d7 a8bb
000000d0: 44db e0bb ce3f 8f3c 2fbc 133d 3550 21bb
000000e0: 0314 90ba 8098 d53b b5fc b6bc d68c 37bc
000000f0: 26a1 ce3b 6b8e c4bc be18 493d 6053 d4bb
00000100: eab2 5b3b aaca 183d e9d2 683c e70a 7f3b
00000110: 547f 74bb 9bc6 043c 0c15 233c fc35 8f3c
00000120: 5797 ec3b 64aa cb3c e24d 843b b9ed 9f3b
00000130: 4fdf ce3b 20bf 02bc 4efb 253c 9945 01bb
00000140: 14b6 edbb c7b0 0b3c 505c 8039 cc79 0fbc
00000150: fbed 97bc 8b8a fbbc 48b8 b33a cd74 ab3b
00000160: a63a 00bb 740f 713a fcaf c13c b94a 3dbb
00000170: f46f 87bb d267 1bbd b400 55bc 089e f03b
00000180: a6c5 b23c e503 5cbb eba0 a43b d079 b5bc
00000190: 27de b6bc fbb0 a33c 6ca7 773a c121 c4bc
000001a0: ba2d 983c 642b 56bc af6d 823c 38d0 a43b
000001b0: afb4 8cbc 8d91 b5bb 7744 a1bc cec0 d63c
000001c0: dc1b e93c 5f97 4d3c 341f f9bc 3421 93bc
000001d0: f2e9 09bb f9c4 c3bc 64f3 c7bb e5eb aabc
000001e0: e9f6 a7bc 60da 693b faf1 34bc 96be d63c
000001f0: b2f8 acba 9cea 81bc 4547 613b bcfa 963c
00000200: 3f99 1b3b c764 9b3b 384d 193d ec57 2dba
00000210: 3042 21bd 6337 bb3b e0d4 6bbd 562a 20bd
00000220: 420c 2fbd 375b f53c a79f 96bc 4f96 663c
00000230: 5fa5 3cbc 91e5 2fbc 03dd b7bc b537 cf3a
00000240: 51fe 35bd 83f8 e63c 4b00 93bb a658 483c
00000250: 9ff6 98bc cb30 95bc 0ee9 983b 8adf e0ba
00000260: ee53 623b aeaf 19bd 8bd4 5e3c 9844 fabb
00000270: 474b f0bc 7dcb bebb 7355 4cbb f369 793c
00000280: ef8d 483c 73db a5bc 4392 b63b 6877 743c
00000290: 1dae 02bb e8c7 0fbc e778 77bc 08cb 07bd
000002a0: 84c4 6cbc c439 dc3b 079e bfbb 9887 03bc
000002b0: ccad 963c 3a73 a9bc cfc7 90ba ed96 1a3b
000002c0: c670 f43b a523 a9ba c752 d4bb 85b6 4bbc
000002d0: 3e15 723c e344 4a3c 29e8 883c 47b4 2bbc
000002e0: 8781 9fbc 2e6e 153b c1d0 e23c 449f ad3b
000002f0: dbb4 2eb9 296d 913b 0a62 48bc b7a5 173d
00000300: e090 2d3c 8711 993c 2996 a3bc 70e2 ce3a
00000310: e231 0c3b 908a b83a 17a0 9ebb d444 67bc
00000320: 8389 bd3b f557 ae3a 75c2 f7bb 5b7b 2bbc
00000330: 13a0 d1bb 6fe1 3fbb 704d 50bc 9101 db3c
00000340: 7c1f 9dbc 44c0 88bb f993 aabc 2fa4 d3bc
00000350: 623f 9e3c 125e fe3c 7f6e 6e3c 1a51 163d
00000360: a4ad c2bc 248e c7ba 7586 01bb ec28 ecbb
00000370: 049f 603b 2888 07bd 1ccf 7e3c f622 943c
00000380: 4d47 d73b 49f2 0ebd 1200 8bbb 4d74 36bc

network_body.linear_encoder.seq_layers.0.bias f4 [228]
-0.02608316 -0.009623438 -0.014534321 -0.016367093 -0.005794379 0.0037846183 0.0017487523 -0.008020794
0.030221023 0.004586663 -0.013356997 -0.04460906 0.011256908 0.055516403 0.0014199521 -0.0024009042
-0.041889355 -0.0299762 0.0021015815 -0.018410157 -0.032340787 -0.010825626 0.023305964 0.0028394412
-0.014012147 0.0048168087 -0.016577767 0.0023978446 0.014638896 0.0067685023 0.013209161 -0.011856723
-0.0141182495 -0.019346658 -0.030849744 -0.013730258 -0.020622553 0.0032212804 -0.018399464 0.04478193
0.004103277 -0.0026044862 -0.0165761 -0.013038828 -0.013898783 -0.028859662 -0.00265496 0.002501963
-0.0060586864 0.0073756566 -0.023695087 0.002751213 0.01492439 -0.05461832 0.015640697 -0.016798768
0.014663795 -0.0060072746 0.015908856 -0.009106903 -0.026121257 0.0136215845 -0.01039849 -0.0036176478
-0.002181823 0.0091006765 -0.011440379 0.0117935175 0.017575858 -0.0154617 0.008028521 0.0005342465
0.0030686227 -0.015787171 -0.03022899 0.011230333 -0.006115265 -0.00014571048 0.01907312 0.013507004
-0.024520766 -0.024464592 -0.0115756355 -0.00953363 0.0023459287 0.02679882 -0.007529563 -0.0070093772
0.0084550325 0.010823728 -0.019212127 -0.0126024615 -0.007844494 -0.016139524 0.006673251 -0.031139275
-0.0114611145 -0.01281171 0.0054941378 -0.021504452 -0.019805769 -0.020854257 -0.022842444 -0.014475883
0.010547762 -0.016635673 0.034095053 -0.004216844 0.0047448697 -0.0039537386 -0.018242976 -0.037788384
0.0012368049 -0.00275577 -0.000683109 -0.010218696 -0.020725032 -0.012813168 -0.013658378 -0.02778826
-0.0011577543 -0.011508436 0.0009569993 -0.009773578 -0.0097293435 0.017918212 0.015571855 -0.03900026
0.0028585 0.0025205542 0.0021479242 -0.028661205 -0.012903794 -0.00014095334 -0.00015442107 -0.018578837
-0.008677263 0.043330986 -0.0063483347 0.009157656 -0.021084798 -0.00729463 -0.0068901107 0.0065658423
-0.023714725 0.033671185 -0.029472558 0.027112128 -0.022371016 -0.0050029047 0.009224374 0.0043902122
-0.011456553 -0.0045539993 -0.009947929 0.0062462464 0.0051263976 0.026626721 -0.011754929 -0.0060039638
0.011672298 0.00787525 -0.037268035 0.008953677 -0.006681952 0.008886702 -0.0040059336 -0.004474521
-0.0038695927 -0.025234733 -0.010551698 0.011855827 -0.0038355212 -0.005613044 -0.008614668 0.014470021
-0.004171932 0.00086861866 0.011175504 3.0946358e-05 -0.021157634 0.006732915 0.023987023 0.014013153
-0.0048652138 -0.008766731 -0.023705307 -0.006572771 -0.021764018 -0.011796105 0.000922855 -0.011615987
-0.017211143 -0.0036722305 0.023658834 -0.02932629 -0.0130125815 0.016592976 0.004006233 -0.009809438
0.014175792 -0.011093796 0.05020928 0.0044951816 -0.001330124 0.005030942 -0.01891138 -0.025489202
-0.02710672 -0.034475524 0.0068934057 -0.024367537 0.005268001 0.012085638 0.0095739355 -0.0024623044
-0.019636976 -0.0058674514 0.007571916 -0.0056153596 -0.030025292 -0.0066436958 -0.006661371 0.010031321
-0.014000283 -0.0015255635 -0.0066011013 -0.0177202
00000000: 5aac d5bc a0ab 1dbc 5c21 6ebc 4814 86bc
00000010: c6de bdbb 5c07 783b 6436 e53a a669 03bc
00000020: 1492 f73c b84b 963b 4ed7 5abc fdb7 36bd
00000030: e56e 383c 2b65 633d b01d ba3a 7d58 1dbb
00000040: 2c94 2bbd a690 f5bc b0ba 093b e6d0 96bc
00000050: c677 04bd f75d 31bc 26ec be3c eb15 3a3b
00000060: 3493 65bc 52d6 9d3b 19ce 87bc 2825 1d3b
00000070: fbd7 6f3c 50ca dd3b 3d6b 583c b342 42bc
00000080: 3b50 67bc e27c 9ebc 9ab8 fcbc e0f4 60bc
00000090: a1f0 a8bc 1e1c 533b 79ba 96bc 426d 373d
000000a0: c874 863b 07b0 2abb 9aca 87bc cfa0 55bc
000000b0: b9b7 63bc 196b ecbc d6fe 2dbb f9f7 233b
000000c0: f287 c6bb 7eaf f13b 331c c2bc b24d 343b
000000d0: 6e85 743c 76b7 5fbd eb20 803c 929d 89bc
000000e0: 6a40 703c acd8 c4bb 4a53 823c 1f35 15bc
000000f0: 3ffc d5bc 112d 5f3c 6e5e 2abc 0f16 6dbb
00000100: eafc 0ebb 011b 153c 6d70 3bbc 9939 413c
00000110: 3ffb 8f3c 1253 7dbc 0f8a 033c ad0c 0c3a
00000120: f21a 493b 1954 81bc c9a2 f7bc 6eff 373c
00000130: 9062 c8bb dcc9 18b9 3b3f 9c3c 7b4c 5d3c
00000140: c6df c8bc f869 c8bc bca7 3dbc f132 1cbc
00000150: 27be 193b 3389 db3c 8dba f6bb ebae e5bb
00000160: fa86 0a3c 0156 313c c062 9dbc 8e7a 4ebc
00000170: 3186 00bc 0937 84bc 49ab da3b cb17 ffbc
00000180: 66c7 3bbc 35e8 51bc 2b08 b43b 1b2a b0bc
00000190: b53f a2bc 8cd6 aabc 1420 bbbc 412c 6dbc
000001a0: 85d0 2c3c 8947 88bc 41a7 0b3d 742d 8abb
000001b0: da7a 9b3b 5d8e 81bb 4b72 95bc fec7 1abd
000001c0: 491c a23a 269a 34bb ab12 33ba 516c 27bc
000001d0: 8bc7 a9bc 52ee 51bc 64c7 5fbc 34a4 e3bc
000001e0: cabf 97ba e18d 3cbc 23df 7a3a 5b21 20bc
000001f0: d367 1fbc 37c9 923c 1821 7f3c bdbe 1fbd
00000200: ac55 3b3b e22f 253b 30c4 0c3b e7ca eabc
00000210: 6f6a 53bc e0cc 13b9 17ec 21b9 a532 98bc
00000220: 142b 0ebc d57b 313d b105 d0bb fe09 163c
00000230: 07ba acbc cb07 efbb 70c6 e1bb 4726 d73b
00000240: 6245 c2bc ccea 093d 6f70 f1bc 411a de3c
00000250: 6c43 b7bc 68ef a3bb d421 173c c5db 8f3b
00000260: 44b4 3bbc b739 95bb a3fc 22bc 50ad cc3b
00000270: 57fb a73b 4820 da3c bf97 40bc e6bc c4bb
00000280: 2b3d 3f3c 3107 013c 5ea6 18bd 71b2 123c
00000290: 47f4 dabb 8899 113c 3544 83bb 019f 92bb
000002a0: fe98 7dbb 12b9 cebc 07e1 2cbc f13e 423c
000002b0: 5e5d 7bbb a0ed b7bb 8924 0dbc ab13 6d3c
000002c0: b4b4 88bb 03b4 633a 7619 373c 66cc 0138
000002d0: c652 adbc c99f dc3b 6f80 c43c 6c97 653c
000002e0: 5f6c 9fbb 56a2 0fbc a231 c2bc 6660 d7bb
000002f0: 744a b2bc 7344 41bc c0eb 713a fb50 3ebc
00000300: 62fe 8cbc cea9 70bb 2cd0 c13c b03d f0bc
00000310: b932 55bc feed 873c b846 833b c4b7 20bc
00000320: 9541 683c c1c2 35bc 3fa8 4d3d 514c 933b
00000330: 8e57 aeba 9ada a43b 0aec 9abc bbce d0bc
00000340: e90e debc 3536 0dbd 14e2 e13b 6e9e c7bc
00000350: 329f ac3b d702 463c ffdb 1c3c 9d5e 21bb
00000360: b9dd a0bc c043 c0bb d61d f83b 0d01 b8bb
00000370: 9af7 f5bc 5cb3 d9bb a147 dabb 695a 243c
00000380: 7161 65bc 6bf5 c7ba 0d4e d8bb f429 91bc

network_body.linear_encoder.seq_layers.0.weight f4 [228, 11]
0.44626403 0.041465964 -0.11084953 0.45393398 -0.0027621703 0.7598541 0.15207806 0.06826861
0.3563039 0.0059293383 1.0513206 -0.07610683 -0.101567484 0.006724776 0.22664525 -0.41163415
0.16487773 -0.13260248 0.15705399 -0.21049151 0.30357465 -0.08711915 0.6569403 0.1912513
-0.1513742 -0.038279343 -0.10809411 0.15431371 -0.116809845 -0.3131193 0.502114 -0.00996171
-0.36308208 0.1982009 -0.45544472 -0.017933806 -0.20324835 -0.17928119 0.25189036 0.4997307
0.58832234 0.2315782 -0.1516067 0.3517473 0.11566025 0.3424428 -0.12234248 0.18392104
-0.19617341 -0.21034463 -0.50995517 -0.23303564 0.1115659 0.0066607604 -0.10289975 -0.19685218
-0.26875585 -0.62335896 0.07575526 -0.4655483 -0.13802215 -0.25891468 -0.023994276 -0.2322758
0.3087877 0.037344605 0.63255936 0.43596476 0.3001458 -0.10050276 -0.16379383 0.10570712
-0.43548232 0.1511983 -0.059194554 -0.033723522 0.07008543 0.32213598 0.28125283 0.286748
0.23439139 0.12843046 -0.45478857 0.32602364 0.16399011 -0.2259109 0.15393774 -0.25584477
0.29921514 -0.10890801 0.4077351 0.09417397 -0.25240856 -0.028110556 -0.41685393 0.0835724
-0.0058399076 0.26635283 0.1978606 0.32518026 -0.0008020403 0.19869392 0.45053843 -0.36823636
0.099959016 -0.37628537 0.8436458 -0.04111211 0.13859178 -0.2206243 -0.008595421 -0.003810303
0.3986086 -0.0526524 -0.07070903 0.26447845 0.573097 0.014365274 0.25748992 -0.44320104
0.21334119 -0.20257646 0.22039197 0.26696607 -0.16701941 -0.34064338 0.3728867 -0.55768645
-0.22267608 -0.03750536 0.08231092 -0.38737214 -0.0007715643 0.4564622 -0.22755688 0.4735219
0.051456105 -0.055977233 -0.60146135 0.17940895 -0.20590733 0.30550215 -0.035943143 0.39939213
-0.00947838 0.003340017 0.27110818 0.16742846 -0.22919288 -0.076441154 0.20690148 0.049810022
0.3912876 -0.23670174 0.5064042 -0.063177265 0.050985973 0.2623032 0.065128125 -0.14334796
-0.28731802 -0.15242566 0.08541274 0.6396028 0.55701005 0.15016197 -0.12841958 -0.34150243
0.20781517 -0.5431323 -0.03269189 -0.32301858 0.10773049 -0.24265021 0.2347267 -0.5656192
0.112941794 0.43459246 0.011281874 -0.17275192 -0.12361615 -0.3675803 0.24243449 -0.05187661
0.50677896 0.049588833 -0.11548451 -0.010526398 -0.57971346 0.20423129 0.015781518 -0.029008672
-0.18869503 0.24027167 -0.2506606 0.11092835 -0.2488385 -0.26485243 -0.33599824 -0.063086085
-0.26987273 0.0969874 -0.15844074 0.33119643 0.69635355 -0.5407479 -0.45092213 -0.5183415
0.34124044 0.6233211 -0.32147568 -0.66653436 -0.11018389 0.31250545 -0.16936879 0.33361602
0.1140467 0.7102299 -0.14571199 0.12823464 -0.2904961 0.34549287 -0.10453889 -0.05884377
-0.23737076 -0.46886742 0.008700148 0.087638326 -0.02135358 0.16150883 0.47213146 -0.12651841
-0.35796064 -0.45313016 -0.034497183 -0.43929887 0.035979133 -0.003763301 0.14029443 -0.0921769
-0.33798382 0.047041208 -0.5173375 0.57582366 -0.044813517 0.33155248 -0.29496822 -0.23579441
-0.3473661 0.003180227 0.08548025 -0.07244323 0.36584425 -0.12532353 -0.49354273 -0.12068974
00000000: b87c e43e 37d8 293d 1405 e3bd 096a e83e
00000010: 8705 35bb cc85 423f 5aba 1b3e 6ad0 8b3d
00000020: 776d b63e e54a c23b ac91 863f e6dd 9bbd
00000030: 9d02 d0bd 825b dc3b b115 683e b6c1 d2be
00000040: b5d5 283e f2c8 07be c3d2 203e 168b 57be
00000050: 236e 9b3e 866b b2bd 3d2d 283f 61d7 433e
00000060: d701 1bbe cdca 1cbd 7260 ddbd 6a04 1e3e
00000070: 003a efbd 2c51 a0be 8b8a 003f 7136 23bc
00000080: e5e5 b9be 2df5 4a3e 0d30 e9be ebe9 92bc
00000090: 5620 50be 7d95 37be c6f7 803e b4dc ff3e
000000a0: 4b9c 163f d622 6d3e c93e 1bbe 3918 b43e
000000b0: 48df ec3d aa54 af3e b28e fabd cc55 3c3e
000000c0: afe1 48be 9564 57be 6c8c 02bf e5a0 6ebe
000000d0: aa7c e43d 8242 da3b 1bbd d2bd 9e93 49be
000000e0: 5e9a 89be 7494 1fbf 9325 9b3d 595c eebe
000000f0: ae55 0dbe 7790 84be a58f c4bc b5d9 6dbe
00000100: 6c19 9e3e a8f6 183d 69ef 213f c636 df3e
00000110: b6ac 993e 64d4 cdbd 92b9 27be f97c d83d
00000120: 8af7 debe bad3 1a3e fd75 72bd ad21 0abd
00000130: f388 8f3d 02ef a43e 5f00 903e a2d0 923e
00000140: 4c04 703e 4683 033e 0cda e8be 92ec a63e
00000150: 06ed 273e 3055 67be dba1 1d3e 16fe 82be
00000160: ba32 993e 2a0b dfbd a8c2 d03e 48de c03d
00000170: b23b 81be 1c48 e6bc e16d d5be 0228 ab3d
00000180: b25c bfbb 665f 883e f89b 4a3e 077e a63e
00000190: 0340 52ba 6b76 4b3e f9ac e63e 7a89 bcbe
000001a0: 50b7 cc3d 7aa8 c0be 2cf9 573f 2c65 28bd
000001b0: 01eb 0d3e 56eb 61be cfd3 0cbc 47b6 79bb
000001c0: 6d16 cc3e 0baa 57bd e5cf 90bd b869 873e
000001d0: 7cb6 123f 545c 6b3c b8d5 833e 3feb e2be
000001e0: 1d76 5a3e 3470 4fbe 6fae 613e c7af 883e
000001f0: 2307 2bbe cf68 aebe 01eb be3e 8ac4 0ebf
00000200: 3305 64be 389f 19bd a192 a83d a455 c6be
00000210: ce42 4aba 6ab5 e93e ac04 69be 7671 f23e
00000220: a3c3 523d 6248 65bd 5ff9 19bf fbb6 373e
00000230: 5fd9 52be c76a 9c3e 1e39 13bd 207d cc3e
00000240: 354b 1bbc 30e4 5a3b b1ce 8a3e 5e72 2b3e
00000250: 8ab1 6abe 2e8d 9cbd fbdd 533e 9805 4c3d
00000260: d956 c83e f161 72be b5a3 013f 1563 81bd
00000270: abd6 503d 9b4c 863e e561 853d cfc9 12be
00000280: 591b 93be 7915 1cbe e0ec ae3d 02bd 233f
00000290: 3698 0e3f 0fc4 193e 6c80 03be 68d9 aebe
000002a0: 80cd 543e b80a 0bbf eee7 05bd b162 a5be
000002b0: cea1 dc3d 4c79 78be 325c 703e 6bcc 10bf
000002c0: 074e e73d e782 de3e 9cd7 383c e1e5 30be
000002d0: 772a fdbd 7c33 bcbe bf40 783e 917c 54bd
000002e0: 44bc 013f a91d 4b3d 2583 ecbd ea76 2cbc
000002f0: 1a68 14bf 0222 513e 3e48 813c 98a3 edbc
00000300: 4539 41be c709 763e 9656 80be 672e e33d
00000310: 85cf 7ebe bd9a 87be f607 acbe 4733 81bd
00000320: c22c 8abe 54a1 c63d 4a3e 22be 9492 a93e
00000330: 3a44 323f 746e 0abf 44df e6be 07b2 04bf
00000340: 11b7 ae3e f991 1f3f 7698 a4be ffa1 2abf
00000350: 17a8 e1bd b700 a03e 036f 2dbe b8cf aa3e
00000360: 5191 e93d a0d1 353f 8635 15be f14f 033e
00000370: e8bb 94be 71e4 b03e 7c18 d6bd 2a06 71bd
00000380: 5211 73be 640f f0be 118b 0e3c b97b b33d
00000390: b4ed aebc 9262 253e 37bb f13e 0b8e 01be
000003a0: 9e46 b7be ad00 e8be eb4c 0dbd c8eb e0be
000003b0: db5e 133d b7a1 76bb 58a9 0f3e 3ec7 bcbd
000003c0: 370c adbe 48ae 403d 3b70 04bf 2e69 133f
000003d0: 618e 37bd 3fc1 a93e 1306 97be 1774 71be
000003e0: f8d9 b1be 5b6b 503b 4510 af3d 1e5d 94bd
000003f0: f04f bb3e d054 00be a2b1 fcbe 2f2c f7bd

network_body.linear_encoder.seq_layers.2.bias f4 [228]
-0.011020891 -0.0075614187 -0.021341937 -0.008448674 0.012469175 0.005310102 -0.019280178 -0.017138446
-0.007288277 0.015527803 0.0151742045 0.0033024347 -0.021528106 -0.025003856 -0.019541027 0.0065434678
0.020515203 -0.017146492 0.010037255 -0.010575785 0.01989536 0.014798779 -0.0147434715 -0.0046410467
-0.013533572 -0.015242494 0.010203708 -0.019014042 -0.027110988 -0.007394831 0.007247467 -0.02031014
-0.009839113 -0.012559752 -0.01309438 -0.012858386 -0.0158546 -0.00020699692 0.0124150105 0.015762763
0.0114340335 -0.02399346 -0.009086624 0.008938225 -0.015937615 0.012184012 0.0014967942 -0.00049711677
0.005319337 -0.00017704422 -0.0067801895 0.025286425 -0.0040134704 -0.013272805 -0.009252847 0.008770281
-0.0038704225 -0.02495499 -0.00037006647 -0.0049978187 -0.00963445 -0.0076072006 -0.0008590766 0.0026630405
-0.011596515 -0.009418192 -0.009547786 0.00646105 0.014775977 -0.04918376 -0.018278066 -0.011568952
0.056463815 0.0059439447 -0.012575764 0.014149355 0.0060842372 -0.017510476 -0.0049968115 -0.011714636
-0.0036502304 0.00028835298 0.015942356 -0.004731084 0.029007828 0.008008334 0.014610042 0.014908876
0.0089568095 0.0021080908 -0.0023269267 0.00070467073 0.0024909722 -0.015290032 -0.0006262938 -0.02688814
-0.00067189796 0.00537688 -0.02127578 -0.005218093 -0.009678926 -0.020486947 -0.016136998 0.012004523
-0.0018364298 0.005971038 -0.0050670886 0.040055264 -0.0041137887 -0.0061176354 -0.011285851 -0.014428077
-0.02487596 -0.0075720428 0.03939099 0.009323404 0.008357428 -0.0073183207 -0.0016864979 -0.0038647717
-0.014981143 -0.008881136 0.028562149 -0.01804338 0.03669002 -0.012770326 -0.021433562 -0.011961589
-0.0035432207 -0.022838749 -0.008024606 -0.0101901535 -0.014310268 0.002584079 -0.012974979 -0.008389014
-0.0231246 -0.004839639 -0.022559535 -0.016000528 0.010326347 0.0010535747 -0.0046635317 -0.015305075
-0.017435977 -0.031882647 0.0024319426 -0.00058872515 0.00019336572 -0.017280139 -0.001183489 -0.01553569
-0.008721804 -0.033472378 -0.012624733 -0.013815671 0.008081296 -0.012996552 -0.002213282 -0.026116773
-0.00010162257 0.0091476105 -0.017602535 0.008305607 0.014630456 0.001540092 0.008882706 -0.00867144
0.037115004 0.0071019675 -0.01703791 -0.0017564347 -0.016104622 -0.009472826 -0.021409621 -0.010468221
0.0052530286 0.026214395 -0.013984978 0.0038728015 0.0026547806 -0.018372674 -0.0029112431 -0.005118459
-0.03126492 0.0047580893 -0.012950795 0.013569711 -0.013678339 0.0054311547 0.011051169 -0.01558242
-0.0023477927 -0.0110721225 -0.005157808 1.9659881e-05 -0.010050023 0.002641384 -0.0128777865 -0.014743803
0.0013840962 0.0022325665 0.004175639 -0.014637889 -0.016297404 -0.03325393 0.0072962744 -0.032283742
-0.0013204559 0.017747484 0.0038401352 -0.008245704 -0.004148242 -0.01674435 -0.023030419 0.0047275764
0.008270092 0.018503314 -0.011335533 -0.02170633 -0.008748481 0.010061634 -0.0070002447 0.006763123
-0.0016201289 0.0110516045 -0.010019491 -0.02395113
00000000: f890 34bc c7c5 f7bb 49d5 aebc 4f6c 0abc
00000010: 834b 4c3c 5d00 ae3b 77f1 9dbc ed65 8cbc
00000020: 80d2 eebb 5468 7e3c 3a9d 783c a96d 583b
00000030: b65b b0bc e3d4 ccbc 8114 a0bc 966a d63b
00000040: 800f a83c cd76 8cbc 4c73 243c 0f46 2dbc
00000050: 98fb a23c 9476 723c 9a8e 71bc ec13 98bb
00000060: eabb 5dbc a7bb 79bc 742d 273c 56c3 9bbc
00000070: dd17 debc 5750 f2bb 297c ed3b 7361 a6bc
00000080: 3b34 21bc 6bc7 4dbc cf89 56bc fbab 52bc
00000090: 82e1 81bc 500d 59b9 5468 4b3c e920 813c
000000a0: d055 3b3c ef8d c4bc 10e0 14bc a271 123c
000000b0: 9a8f 82bc 739f 473c 1430 c43a f150 02ba
000000c0: d54d ae3b f2a4 39b9 5a2c debb 7a25 cf3c
000000d0: 6e83 83bb 2e76 59bc 4199 17bc 3ab1 0f3c
000000e0: eaa6 7dbb 686e ccbc 7b05 c2b9 bec4 a3bb
000000f0: d0d9 1dbc d345 f9bb a833 61ba 6886 2e3b
00000100: 4fff 3dbc c34e 1abc 516e 1cbc 37b7 d33b
00000110: f016 723c e974 49bd e2bb 95bc b48b 3dbc
00000120: 9a46 673d 6cc5 c23b 940a 4ebc b2d2 673c
00000130: 485e c73b 2172 8fbc 4bbc a3bb bfee 3fbc
00000140: b438 6fbb 152e 9739 8b99 823c 3607 9bbb
00000150: d3a1 ed3c 6335 033c f55e 6f3c 5c44 743c
00000160: 95bf 123c e527 0a3b 5a7f 18bb a7b9 383a
00000170: 943f 233b 0b83 7abc de2d 24ba 8444 dcbc
00000180: 4f22 30ba 8a30 b03b 8b4a aebc 89fc aabb
00000190: 5c94 1ebc 3ed4 a7bc bd31 84bc 9eae 443c
000001a0: 5cb4 f0ba b2a8 c33b d209 a6bb fd10 243d
000001b0: f6cc 86bb 7276 c8bb 4ae8 38bc be63 6cbc
000001c0: abc8 cbbc e61e f8bb 7258 213d 31c1 183c
000001d0: 98ed 083c 86ce efbb 7b0d ddba 1c48 7dbb
000001e0: 7873 75bc 2f82 11bc 2bfb e93c b6cf 93bc
000001f0: 4648 163d a13a 51bc 7095 afbc 8afa 43bc
00000200: 6135 68bb 5418 bbbc a379 03bc 9af4 26bc
00000210: 9d75 6abc a759 293b 0295 54bc 1372 09bc
00000220: cd6f bdbc d695 9ebb c6ce b8bc 8a13 83bc
00000230: d72f 293c 1a18 8a3a 8ad0 98bb 23c2 7abc
00000240: e5d5 8ebc 6197 02bd 3a61 1f3b ad54 1aba
00000250: 37c2 4a39 148f 8dbc 4d1f 9bba 6889 7ebc
00000260: e6e5 0ebc 551a 09bd f8d7 4ebc 205b 62bc
00000270: 6a67 043c 7def 54bc b60c 11bb d8f2 d5bc
00000280: 341e d5b8 dcdf 153c 3133 90bc 3e14 083c
00000290: 95b4 6f3c eadc c93a c588 113c a812 0ebc
000002a0: e705 183d 9fb7 e83b 1693 8bbc 2b38 e6ba
000002b0: d7ed 83bc e933 1bbc 3b63 afbc e782 2bbc
000002c0: 9921 ac3b 92bf d63c 4021 65bc d4ce 7d3b
000002d0: d4fb 2d3b 4a82 96bc 8eca 3ebb bfb8 a7bb
000002e0: a50f 00bd bfe9 9b3b 922f 54bc 7e53 5e3c
000002f0: 1d1b 60bc d4f7 b13b f60f 353c 684d 7fbc
00000300: 6ddd 19bb d967 35bc d402 a9bb 46eb a437
00000310: daa8 24bc 121b 2d3b 5afd 52bc fe8f 71bc
00000320: 906a b53a 4050 123b ccd3 883b c2d3 6fbc
00000330: 2282 85bc 4635 08bd 9615 ef3b f53b 04bd
00000340: 2613 adba 2c63 913c c7aa 7b3b fd18 07bc
00000350: faed 87bb 722b 89bc 4aaa bcbc c9e9 9a3b
00000360: 487f 073c 4394 973c acb8 39bc 79d1 b1bc
00000370: ca55 0fbc 8dd9 243c 4f62 e5bb 309d dd3b
00000380: 815a d4ba ca11 353c cb28 24bc 2935 c4bc

network_body.linear_encoder.seq_layers.2.weight f4 [228, 228]
0.1136423 0.039766062 -0.033019256 0.011356745 0.090605125 0.080557145 -0.017231567 -0.17129189
-0.06519642 -0.022563871 -0.02053433 0.04870702 0.06630655 0.020538999 0.0058272243 0.11289538
0.069758296 0.05386179 0.0022040193 -0.02234811 -0.09832221 0.026826877 0.00239149 0.015095332
-0.03870712 0.005524132 0.04569286 -0.14399342 -0.11112852 0.0036881552 -0.023617318 -0.084186494
-0.035185043 -0.09085512 -0.04005725 -0.010168116 0.06216872 0.08452888 0.08321814 -0.05052565
0.07486612 -0.07516894 -0.06169774 -0.11392592 -0.027789652 0.032366667 0.0097699575 -0.023069683
0.039071452 0.021118617 0.0347089 0.0009713786 -0.0060021644 -0.017516544 0.031324193 0.061680917
-0.03680189 -0.13986547 -0.12578982 -0.060685292 0.08320673 -0.009720601 -0.07217855 -0.056297313
0.056695223 -0.04070847 0.071240105 -0.08961198 0.06360229 0.03017478 -0.05881475 -0.13404602
0.014598886 0.004092861 -0.014923366 0.060705956 -0.12272847 0.06494602 0.02496681 -0.088299915
-0.05914178 0.08163589 -0.03682175 0.090924285 0.0827355 -0.03375668 -0.009029276 -0.18363284
0.0045912834 -0.015760299 0.078301184 -0.0629237 0.04227531 0.15659007 -0.046774507 0.029432224
0.14158799 -0.039921615 -0.039657727 -0.037247576 -0.054347765 0.0810428 -0.043693457 -0.075824626
0.06679554 0.02866973 -0.08089486 -0.03649256 -0.07008762 0.08365593 0.109292045 -0.0886977
0.05932482 0.02420008 0.011123392 -0.091795854 0.042134438 0.07195312 0.010716274 -0.009050732
-0.09010685 0.015334257 0.07096311 -0.082860366 0.08121801 0.0185543 0.013885051 0.014911693
-0.029302135 -0.07548954 0.019734345 -0.047133517 0.06756995 -0.08746814 -0.009102877 -0.004675408
-0.097925276 -0.097633645 0.02982269 -0.009756615 0.09239403 0.07945358 -0.05143104 -0.0318359
0.029157573 0.037247017 -0.06774589 0.10943263 0.107260875 -0.050361868 0.050816014 0.08393013
-0.14511958 -0.008018251 -0.03524196 -0.057299595 -0.03924556 0.0063529955 0.08704019 -0.056704067
-0.029185921 -0.08671169 -0.0711779 -0.15800336 0.072984695 0.04754841 -0.0065840865 -0.056914393
-0.053174198 -0.014095152 -0.038357902 0.014965786 0.12990783 -0.067059994 0.09415146 0.067118496
0.001536404 -0.08925094 0.022578362 0.028560964 0.09815109 0.005858059 0.006961528 -0.11402675
-0.034050707 0.054009937 0.06175446 -0.048244856 -0.02433141 -0.013027855 -0.000465761 0.08063447
-0.030237447 0.0796199 0.07560474 0.11367698 -0.09449918 0.0024983287 -0.029026859 0.0438575
-0.06395517 0.042917907 -0.052975662 0.021285256 -0.0032600448 0.04742491 -0.0486454 -0.039192434
0.084241375 0.026327625 0.076221675 0.073691905 -0.082988314 0.05819372 -0.07391768 0.05198366
0.02444797 -0.058203585 0.07696716 0.06777433 -0.12554753 -0.01732948 -0.020780088 -0.017005354
0.08774803 -0.10499029 -0.08918784 -0.03985339 -0.05044154 0.011306812 -0.031302825 -0.02013244
0.03943359 0.029092034 -0.14086336 0.052754153 -0.13304858 -0.03765042 0.018532967 -0.0045772265
0.033368297 -0.0148746455 -0.009442079 0.007947631 -0.053570423 -0.043276377 -0.001153422 0.0019895674
-0.07168244 0.040555723 2.4285933e-05 0.0528162 -0.052024018 0.062270958 -0.1498064 -0.08978068
00000000: 4bbd e83d bde1 223d 333f 07bd a411 3a3c
00000010: 2e8f b93d 25fb a43d 3729 8dbc 2467 2fbe
00000020: b385 85bd ded7 b8bc 9c37 a8bc 0381 473d
00000030: bacb 873d 6741 a83c 4df2 be3b b135 e73d
00000040: 70dd 8e3d 2e9e 5c3d 4f71 103b 6213 b7bc
00000050: 285d c9bd 0ac4 db3c 8bba 1c3b 6952 773c
00000060: 5b8b 1ebd c703 b53b 7028 3b3d 0373 13be
00000070: 5997 e3bd fab4 713b 1b79 c1bc f869 acbd
00000080: 311e 10bd 4012 babd 1213 24bd 2b98 26bc
00000090: a1a4 7e3d 7a1d ad3d 466e aa3d fcf3 4ebd
000000a0: 6953 993d 2cf2 99bd c5b6 7cbd fe51 e9bd
000000b0: 20a7 e3bc e992 043d 2c12 203c a2fc bcbc
000000c0: 6309 203d f300 ad3c eb2a 0e3d 1da4 7e3a
000000d0: cead c4bb db7e 8fbc cc4d 003d 21a5 7c3d
000000e0: 94bd 16bd e538 0fbe 0ccf 00be 2491 78bd
000000f0: 4a68 aa3d 2843 1fbc 59d2 93bd 0398 66bd
00000100: 4039 683d edbd 26bd 55e6 913d 7c86 b7bd
00000110: eb41 823d 1a31 f73c bce7 70bd 5c43 09be
00000120: 2a30 6f3c 681d 863b 2281 74bc cfa6 783d
00000130: 1059 fbbd 6b02 853d 3287 cc3c 96d6 b4bd
00000140: a73e 72bd b830 a73d 67d2 16bd 8336 ba3d
00000150: 3b71 a93d 7244 0abd 87ef 13bc 3f0a 3cbe
00000160: 7a72 963b be1b 81bc 5f5c a03d 24de 80bd
00000170: e028 2d3d 2659 203e a096 3fbd d91b f13c
00000180: 71fc 103e d984 23bd 2470 22bd ea90 18bd
00000190: c39b 5ebd c4f9 a53d e9f7 32bd f149 9bbd
000001a0: 1acc 883d c8dc ea3c 34ac a5bd 3979 15bd
000001b0: 198a 8fbd cd53 ab3d 82d4 df3d 24a7 b5bd
000001c0: 95fe 723d 3f3f c63c e33e 363c 77ff bbbd
000001d0: 2995 2c3d 285c 933d 5093 2f3c 8549 14bc
000001e0: f189 b8bd 893c 7b3c 1b55 913d b2b2 a9bd
000001f0: a155 a63d 30ff 973c 207e 633c 2c50 743c
00000200: 080b f0bc 439a 9abd eca9 a13c 130f 41bd
00000210: 1d62 8a3d 7f22 b3bd 3c24 15bc 2a34 99bb
00000220: 0c8d c8bd 26f4 c7bd b74e f43c 36da 1fbc
00000230: 1539 bd3d 8fb8 a23d 5ba9 52bd 5c66 02bd
00000240: dddb ee3c 5490 183d 5bbe 8abd 371e e03d
00000250: 97ab db3d 3f48 4ebd 7424 503d 8fe3 ab3d
00000260: 3a9a 14be fb5e 03bc e059 10bd fbb2 6abd
00000270: f4bf 20bd ca2c d03b 2142 b23d 8642 68bd
00000280: 5017 efbc e695 b1bd b8c5 91bd a2cb 21be
00000290: 0079 953d 1fc2 423d 52bf d7bb 111f 69bd
000002a0: 30cd 59bd 5aef 66bc 2d1d 1dbd 0e33 753c
000002b0: 8f06 053e c056 89bd 7bd2 c03d 6c75 893d
000002c0: 2a61 c93a 32c9 b6bd 42f6 b83c aff8 e93c
000002d0: 7003 c93d f6f4 bf3b 881d e43b db86 e9bd
000002e0: c178 0bbd 8639 5d3d 3ff2 7c3d 669c 45bd
000002f0: aa52 c7bc c972 55bc 6231 f4b9 af23 a53d
00000300: 86b4 f7bc c20f a33d a8d6 9a3d 7acf e83d
00000310: c988 c1bd 00bb 233b bcc9 edbc eca3 333d
00000320: eefa 82bd b0ca 2f3d 02fd 58bd 6b5e ae3c
00000330: 7aa6 55bb 9f40 423d 6640 47bd 3f88 20bd
00000340: be86 ac3d 08ad d73c 1c1a 9c3d c8eb 963d
00000350: c7f5 a9bd 8a5c 6e3d 2762 97bd d1ec 543d
00000360: 1c47 c83c e266 6ebd f5a0 9d3d 45cd 8a3d
00000370: 888f 00be 8ef6 8dbc 013b aabc d04e 8bbc
00000380: 3db5 b33d 2605 d7bd 1da8 b6bd 4f3d 23bd
00000390: ca9b 4ebd 3540 393c 6437 00bd c9ec a4bc
000003a0: 1e85 213d 6b52 ee3c 7c3e 10be bd14 583d
000003b0: e33d 08be 5437 1abd 73d2 973c 8ffc 95bb
000003c0: 32ad 083d c9b4 73bc f3b2 1abc c836 023c
000003d0: a96c 5bbd 9242 31bd 6c2e 97ba 6763 023b
000003e0: 3ece 92bd c21d 263d a5b9 cb37 cd55 583d
000003f0: 2317 55bd d50f 7f3d d966 19be efde b7bd

network_body.linear_encoder.seq_layers.4.bias f4 [228]
-0.0076850047 -0.005849762 -0.021844378 -0.007197669 -0.023419037 0.0319794 -0.027746582 -0.01585714
0.009851695 -0.033785418 -0.0047152042 -0.0038658697 -0.017302766 -0.004275147 0.010200906 -0.010903916
-0.01394221 -0.015485433 -0.005088286 -0.0055344785 0.0025033827 0.013593731 -0.03992499 -0.0144425025
-0.011405648 -0.010907861 -0.017313061 0.022827465 -0.010787228 -0.0082994215 0.016071327 0.019550575
0.0056278887 -0.018193252 -0.052435216 -0.010044375 0.0059893825 -0.020018112 -0.029894311 -0.007120247
-0.0075933808 -0.006062954 -0.022661693 -0.0088621015 0.0030350243 0.0050146333 -0.0042079524 -0.022084525
0.022783553 0.0008270362 0.010546097 0.019443385 -3.746874e-05 -0.028553959 -0.017231224 0.0054417755
0.0013536167 -0.0012001336 -0.0178515 -0.0035119413 0.013040762 0.001121309 -0.0002661475 0.0018183263
-0.012677784 -0.011202058 -0.02144345 0.002692222 0.0032315473 0.018778618 0.0015195193 -0.0032161637
-0.038886417 -0.017614543 -0.02269539 -0.017584868 -0.0019068002 -0.012659799 -0.009384617 0.002582405
-0.0047398005 -0.018788433 -0.010201418 -0.007654365 -0.017371597 -0.00071988086 -0.009664166 -0.007814366
-0.022715652 -0.02521404 -0.006943547 -0.00029844354 -0.01324599 0.011107593 -0.011321913 -0.011543427
-0.010022148 -0.009214172 -0.026362522 -0.006968016 0.008005758 -0.0063147997 -0.0009649019 -0.005655415
-0.015574079 -0.00025433663 -0.008093001 0.020934036 0.008976677 -0.0039103483 -0.018368047 0.008286677
-0.0025671988 0.0032301683 -0.014613454 -0.038711544 0.024496831 -0.0009951025 -0.0074152383 -0.015269831
-0.002230527 0.003565026 -0.009269362 -0.0008926439 0.0034158113 -0.020666724 -0.019186962 -0.005641812
0.0016502406 -0.0019495448 -0.006001979 -0.02938758 0.00063762296 0.006547106 0.014946926 -0.031049417
0.000166388 -0.0019072933 0.020597696 -0.0027806852 0.0025344833 -0.0017062747 0.003314786 -0.013059957
-0.008612265 0.008115717 -0.0066542253 0.016869526 -0.007065318 -0.016272034 0.001253175 -0.027592778
-0.011812624 -0.011267883 -0.0028991115 -0.0014223809 0.0028462715 -0.003618493 -0.008959797 -0.003468341
0.0039020565 -0.013405226 -0.014598393 -0.034778528 -0.0005798332 -0.00032393567 -0.0020585726 0.004255604
-0.008945654 -2.533093e-05 -0.023060119 -0.015245157 0.034285333 -0.009827298 -0.007595815 -0.011160022
-0.005171406 -0.025183342 -0.003330918 -0.00032495116 -0.005332836 0.007131907 -0.019265085 0.0033678184
0.020903017 -0.005517542 -0.0017198443 -0.0063283863 0.01774034 -0.00037949777 0.004783129 -0.014801847
-0.008137246 0.0026160455 0.0048479065 0.001090558 -0.0032302476 0.008747359 0.014844471 0.004315073
0.019445471 -0.0024561116 0.022711 -0.002883071 0.0094247935 -0.0023912427 -0.0039716437 -0.00021090664
-0.009407586 -0.008919023 -0.0015252283 -0.006387593 -0.010893457 -0.0047355336 0.0010770262 0.015749648
0.008227045 0.012079026 -0.0035371012 -0.011535523 -0.015114104 0.009472972 -0.0230737 -0.0136224255
0.002896722 0.007399781 -0.043879632 -0.018278593
00000000: 7ed2 fbbb 5caf bfbb fbf2 b2bc 6cda ebbb
00000010: 48d9 bfbc d5fc 023d cd4c e3bc d5e6 81bc
00000020: 0169 213c 9462 0abd 0082 9abb 885a 7dbb
00000030: 88be 8dbc 8816 8cbb b321 273c 57a6 32bc
00000040: de6d 64bc 9db6 7dbc a3bb a6bb 925a b5bb
00000050: cb0f 243b 3eb8 5e3c 6388 23bd 3fa0 6cbc
00000060: c1de 3abc e3b6 32bc 1fd4 8dbc aa00 bb3c
00000070: eabc 30bc 4cfa 07bc 04a8 833c 8728 a03c
00000080: 276a b83b 040a 95bc 4fc6 56bd 2a91 24bc
00000090: 9542 c43b 06fd a3bc eae4 f4bc f650 e9bb
000000a0: e5d1 f8bb bfab c6bb 04a5 b9bc 5932 11bc
000000b0: 42e7 463b cb51 a43b dde2 89bb 9bea b4bc
000000c0: 93a4 ba3c 76cd 583a 89c9 2c3c bc47 9f3c
000000d0: c127 1db8 fee9 e9bc 7f28 8dbc ec50 b23b
000000e0: d76b b13a cd4d 9dba 4f3d 92bc 9928 66bb
000000f0: eca8 553c e3f8 923a b689 8bb9 e854 ee3a
00000100: 7bb6 4fbc d688 37bc 2daa afbc fd6f 303b
00000110: 5ec8 533b 9ed5 993c 9b2a c73a 46c6 52bb
00000120: 5d47 1fbd 604c 90bc afeb b9bc 240e 90bc
00000130: 99ed f9ba 0c6b 4fbc f0c1 19bc 913d 293b
00000140: 5450 9bbb 33ea 99bc d923 27bc 78d1 fabb
00000150: e14e 8ebc 63b6 3cba 7356 1ebc d407 00bc
00000160: 2d16 babc ad8d cebc b286 e3bb 6a78 9cb9
00000170: b505 59bc 9ffc 353c 8c7f 39bc a420 3dbc
00000180: ef33 24bc 0af7 16bc 37f6 d7bc f453 e4bb
00000190: 952a 033c 61ec cebb 78f1 7cba 0f51 b9bb
000001a0: 6c2a 7fbc 7c58 85b9 8298 04bc db7d ab3c
000001b0: ea12 133c 6122 80bb 9678 96bc d8c4 073c
000001c0: 733e 28bb 3bb1 533b 456d 6fbc ff8f 1ebd
000001d0: 94ad c83c 196e 82ba 87fb f2bb 502e 7abc
000001e0: 092e 12bb 36a3 693b 86de 17bc 5100 6aba
000001f0: cedb 5f3b 434d a9bc fa2d 9dbc f3de b8bb
00000200: e34c d83a de87 ffba 40ac c4bb 39be f0bc
00000210: 2726 273a 1b89 d63b f4e3 743c 595b febc
00000220: 7078 2e39 25fe f9ba 80bc a83c 283c 36bb
00000230: 9319 263b 14a5 dfba e13c 593b 6ef9 55bc
00000240: 751a 0dbc c9f7 043c b00b dabb f631 8a3c
00000250: 2f84 e7bb ee4c 85bc 9341 a43a 400a e2bc
00000260: bc89 41bc ed9c 38bc 05ff 3dbb 2f6f baba
00000270: 8388 3a3b 3d24 6dbb 1dcc 12bc 1b4d 63bb
00000280: a5b9 7f3b 98a1 5bbc 192e 6fbc ee73 0ebd
00000290: f3ff 17ba e9d5 a9b9 1ee9 06bb 9872 8b3b
000002a0: cb90 12bc c27d d4b7 93e8 bcbc d3c6 79bc
000002b0: c76e 0c3d ad02 21bc 51e6 f8bb 86d8 36bc
000002c0: e674 a9bb 4c4d cebc 884b 5abb 355e aab9
000002d0: 12bf aebb c6b2 e93b d0d1 9dbc 9eb6 5c3b
000002e0: ce3c ab3c 7fcc b4bb 666c e1ba 5a5e cfbb
000002f0: 3154 913c 54f7 c6b9 cbbb 9c3b 7283 72bc
00000300: 1552 05bc f671 2b3b 30db 9e3b 0ef1 8e3a
00000310: 90b2 53bb 1551 0f3c 3936 733c 7565 8d3b
00000320: 1c4c 9f3c b7f6 20bb 6b0c ba3c e8f1 3cbb
00000330: 736a 1a3c 65b6 1cbb 9024 82bb d226 5db9
00000340: 4722 1abc 1821 12bc 2bea c7ba 044f d1bb
00000350: 787a 32bc 892c 9bbb 012b 8d3a 6805 813c
00000360: baca 063c 1be7 453c b6ce 67bb 7eff 3cbc
00000370: 26a1 77bc 8634 1b3c 0e05 bdbc 9830 5fbc
00000380: eed6 3d3b dd79 f23b 21bb 33bd fdbc 95bc

network_body.linear_encoder.seq_layers.4.weight f4 [228, 228]
0.04381926 -0.07740939 -0.007884863 -0.11688745 0.0772089 -0.053081885 -0.036581144 0.027110333
-0.06135546 -0.040586557 -0.22740535 0.016460901 -0.04272896 -0.051948976 -0.0005044798 -0.03413854
0.010117571 0.009626121 0.047655724 -0.06503139 -0.053832427 -0.01318513 -0.06401336 0.030774232
-0.06047969 0.0006634855 -0.024155077 -0.037932046 0.0047788634 -0.041362558 0.046822034 -0.103772126
0.06060826 0.12230278 -0.06503515 0.023062102 0.056704763 -0.006793977 0.038399696 -0.07602089
-0.21635686 -0.092099786 0.008641227 -0.1185516 0.05657861 -0.026527544 0.00047314836 0.025083058
0.027559752 -0.014188649 0.012600589 0.0011536952 -0.051747054 0.0045832703 -0.04404173 0.051429354
-0.018798262 0.060160037 0.047554318 0.12938748 -0.05153511 0.10906934 0.08092938 0.028885901
-0.113929786 0.007183585 -0.0032071625 0.08670579 0.035636112 -0.056035396 0.03292511 -0.06609667
0.0777293 -0.029799849 0.010650843 -0.030224591 -0.060077585 -0.17119555 0.15094167 -0.010490186
-0.058754206 0.01002462 -0.009875824 -0.013657607 -0.062513396 -0.009064453 0.14052576 0.022284599
-0.07933119 -0.10014324 0.087422356 -0.12068255 -0.061947934 0.009787245 0.040662054 0.05466864
0.0063546067 -0.03858928 0.0059379893 0.00080760795 0.027784344 -0.03945841 -0.08098937 -0.15907225
-0.081930555 -0.029564003 -0.11345133 0.07093518 -0.09484076 0.04426614 -0.06971053 0.025823658
-0.005077773 0.13173112 -0.11151509 -0.17511785 0.04410939 0.05061368 -0.06271399 -0.008501571
-0.060661886 0.005404607 0.19533452 0.0629021 -0.011973716 -0.10420619 0.028764594 -0.04072309
0.14792173 -0.12814823 -0.0084518725 0.10854554 -0.053261526 0.003570786 0.04639683 -0.12753046
-0.0019765378 -0.027887667 -0.12968308 0.03296439 -0.022895027 -0.17992997 -0.04068807 0.00983486
0.105097495 0.0729087 0.04117408 0.11410025 -0.036779597 -0.059384096 -0.03798899 0.11396368
-0.06458755 -0.04122024 -0.026776116 -0.07154836 0.020182591 -0.0073394566 0.12532061 0.08166407
0.04390177 -0.08357965 -0.02620105 0.01247014 -0.061421536 -0.061443586 -0.008096311 0.06584855
0.03084689 0.096275166 -0.023262013 0.11458356 -0.01327975 -0.023580147 -0.1662099 0.13360196
0.12104719 -0.014361443 0.03772146 -0.005259003 -0.020225888 -0.08198684 0.040337034 -0.04179773
-0.0036887233 -0.044497106 0.026617924 -0.03151516 0.008055933 0.10813635 0.10804548 -0.033585355
0.07651274 0.0436109 -0.14167011 -0.056484386 -0.041302342 -0.0256536 0.024220845 0.018798972
0.08708097 -0.0073634638 -0.016272582 -0.058794145 -0.041434467 0.013468731 0.08320381 0.11064649
-0.020571519 -0.06282126 -0.098178074 -0.056726363 0.006409155 -0.011030522 0.110654615 -0.019813245
-0.018296476 0.0597831 0.07573377 -0.0037823045 0.11630121 -0.06423528 0.026170727 -0.02196119
-0.0014554507 -0.0032789118 0.04969475 -0.011535226 0.08030879 -0.015541503 0.062555104 0.11035927
-0.0868898 -0.13503525 -0.0051513836 0.008945961 0.019623332 -0.0020430589 0.11252821 -0.0069463085
0.041238062 -0.026991393 -0.08242587 0.08630746 -0.024134694 -0.1134233 -0.0074833734 0.10780118
0.08412349 0.0745744 0.049458474 0.07599517 -0.04396233 -0.02678168 0.025044046 -0.057452958
00000000: d37b 333d d088 9ebd 832f 01bc b062 efbd
00000010: b31f 9e3d 646c 59bd 1cd6 15bd 7d16 de3c
00000020: dd4f 7bbd 173e 26bd f3dc 68be 03d9 863c
00000030: 9004 2fbd 73c8 54bd 113f 04ba dbd4 0bbd
00000040: 2bc4 253c e1b6 1d3c a632 433d 2d2f 85bd
00000050: 647f 5cbd 7206 58bc 7019 83bd 3e1a fc3c
00000060: 8db9 77bd c2ed 2d3a dee0 c5bc a25e 1bbd
00000070: 0398 9c3b c96b 29bd 76c8 3f3d 7b86 d4bd
00000080: 5e40 783d e179 fa3d 2631 85bd bcec bc3c
00000090: 4143 683d 03a0 debb 0049 1d3d d7b0 9bbd
000000a0: a78c 5dbe d09e bcbd ef93 0d3c 2ecb f2bd
000000b0: f9be 673d 4b50 d9bc e610 f839 fc7a cd3c
000000c0: fdc4 e13c 8277 68bc b372 4e3c 9637 973a
000000d0: b8f4 53bd 422f 963b 1a65 34bd 96a7 523d
000000e0: d0fe 99bc 5f6a 763d 51c8 423d 277e 043e
000000f0: 7b16 53bd bf5f df3d 4ebe a53d 20a2 ec3c
00000100: 0554 e9bd 4764 eb3b 422f 52bb ce92 b13d
00000110: 2cf7 113d 5f85 65bd 7bdc 063d b15d 87bd
00000120: 8a30 9f3d d01e f4bc e080 2e3c 9099 f7bc
00000130: ea13 76bd e34d 2fbe 7490 1a3e 07df 2bbc
00000140: 40a8 70bd 4e3e 243c 35ce 21bc 28c4 5fbc
00000150: 0607 80bd 1283 14bc fce5 0f3e 318e b63c
00000160: 6478 a2bd e617 cdbd 7e0a b33d 6a28 f7bd
00000170: 1ebd 7dbd ae5a 203c 418d 263d 39ec 5f3d
00000180: 4e3a d03b cb0f 1ebd 7793 c23b a7b5 533a
00000190: fe9b e33c 249f 21bd c1dd a5bd d6e3 22be
000001a0: 35cb a7bd 3530 f2bc 2c59 e8bd 7746 913d
000001b0: df3b c2bd 6950 353d 65c4 8ebd 238c d33c
000001c0: 7263 a6bb 86e4 063e 0662 e4bd 1852 33be
000001d0: 0cac 343d 4a50 4f3d 3170 80bd 2c4a 0bbc
000001e0: 9978 78bd 2119 b13b c605 483e d1d2 803d
000001f0: 682d 44bc 0e6a d5bd baa3 eb3c 41cd 26bd
00000200: cb78 173e 4a39 03be b979 0abc 204d de3d
00000210: c228 5abd d903 6a3b 9a0a 3e3d 5897 02be
00000220: cd88 01bb ad74 e4bc a4cb 04be ab05 073d
00000230: 5a8e bbbc 903f 38be 89a8 26bd 6522 213c
00000240: 5b3d d73d 2851 953d 27a6 283d 64ad e93d
00000250: 34a6 16bd bd3c 73bd 589a 1bbd ca65 e93d
00000260: 7a46 84bd 8ed6 28bd 9659 dbbc f287 92bd
00000270: f655 a53c d37f f0bb 0c54 003e 7e3f a73d
00000280: 58d2 333d cf2b abbd 96a3 d6bc 8f4f 4c3c
00000290: 2695 7bbd 45ac 7bbd 64a6 04bc 9bdb 863d
000002a0: 9eb2 fc3c ea2b c53d fa8f bebc c9aa ea3d
000002b0: 4f93 59bc 272b c1bc ee32 2abe f4ce 083e
000002c0: 97e7 f73d 424c 6bbc d181 1a3d b753 acbb
000002d0: c3b0 a5bc b7e8 a7bd 7238 253d 1934 2bbd
000002e0: 82be 71bb 9942 36bd d50d da3c 0a16 01bd
000002f0: 08fd 033c 9776 dd3d f346 dd3d cc90 09bd
00000300: b6b2 9c3d 58a1 323d f811 11be 2c5c 67bd
00000310: a52c 29bd 8027 d2bc cb6a c63c 4d00 9a3c
00000320: 8257 b23d 3649 f1bb 144e 85bc 21d2 70bd
00000330: 30b7 29bd f4ab 5c3c c266 aa3d a09a e23d
00000340: 9a85 a8bc 6fa8 80bd 9611 c9bd e759 68bd
00000350: e403 d23b 5db9 34bc e39e e23d 634f a2bc
00000360: 7ee2 95bc 20df 743d 4f1a 9b3d 8ae0 77bb
00000370: 542f ee3d c98d 83bd fe63 d63c f4e7 b3bc
00000380: d2c4 beba 03e3 56bb b98c 4b3d 3ffe 3cbc
00000390: ef78 a43d caa1 7ebc e41c 803d 0a04 e23d
000003a0: 48f3 b1bd ae46 0abe f0cc a8bb 1492 123c
000003b0: 1cc1 a03c d7e4 05bb 3175 e63d dc9d e3bb
000003c0: 3ee9 283d 0e1d ddbc e5ce a8bd f7c1 b03d
000003d0: 1fb6 c5bc 7a4a e8bd 1637 f5bb ddc6 dc3d
000003e0: f048 ac3d 77ba 983d f894 4a3d 5ba3 9b3d
000003f0: d811 34bd 4165 dbbc 2c29 cd3c cb53 6bbd

network_body.linear_encoder.seq_layers.6.bias f4 [228]
-0.0035348076 0.00010405004 -0.021834899 -0.003992242 0.0029234337 -0.002018876 -0.009087852 0.0021499558
-0.017985603 -0.025367387 -0.046872035 0.01426622 -0.0050194864 -0.00322788 0.016255585 -0.021597119
-0.007558255 -0.016739797 0.010955135 0.010358175 -0.031257458 0.0024062444 -0.021395395 0.0066522774
-0.013188277 -0.028272849 -0.010397487 -0.0101417955 -0.009030371 -0.0021094854 -0.005825709 -0.005548153
-0.007049863 0.0001410545 -0.0056609754 -0.0007642869 -0.0049201543 0.00827417 0.004015546 0.0018593749
0.009236186 -0.015940256 0.021041341 -0.008289169 0.01599069 -0.0062550185 0.0090200715 -0.0009351399
-0.013579321 0.03118741 -0.006318505 -0.01292574 0.018741827 -0.012790195 0.0014249927 -0.003122092
-0.0035932134 -0.017252954 -0.013443491 -0.009091744 -0.010071008 -0.014628658 -0.019090956 0.0077196322
0.014177528 -0.014624518 -0.026756918 -0.0028346765 -0.00526496 -0.0028484643 -0.006291383 -0.013231623
0.016010284 -0.000407558 0.00091722497 -0.01570936 -0.0071300166 0.006942439 -0.005143181 -0.01725828
-0.010367559 -0.01956248 0.010346617 0.006900475 0.008385526 -0.011067323 -0.028200375 -0.006514189
-0.012651276 0.0023695147 0.018548114 -0.030401729 -0.022388788 -0.0131381145 0.01761483 -0.026028717
0.005824738 -0.016566578 0.0141588 -0.0075760884 -0.013878218 -0.00870015 -0.005021336 0.0029901112
-0.020091128 -0.01720637 0.027686294 0.009556869 -0.014521551 -0.00026490333 0.009251269 0.030021101
0.004277928 0.0024727646 -0.0056364196 -0.018169103 -0.010865084 0.017501444 0.0031823947 -0.00078543887
-0.019388525 0.0018931626 -0.020566091 -0.021430867 -0.00425607 -0.004059142 -0.003206653 -0.008171329
0.0044841715 0.0025464264 -0.009365403 -0.0117488615 -0.010259182 -0.006869346 -0.026864916 0.00854851
-0.018910745 -0.0019332941 0.0069372947 -0.008449021 0.018117454 0.021798013 -0.019204272 -0.0040524974
0.00741273 -0.0112522 -0.015396442 0.0017872234 -0.022101443 -0.0046337377 -0.017426433 -0.013020653
0.0035143506 -0.009761831 -0.0119917635 0.00474505 0.011897084 -0.011169873 0.0014564246 -0.0313587
0.008987962 -0.012765864 -0.013110575 -0.028354459 0.008080637 0.017412849 0.004666472 -0.027345298
0.010707539 0.014885554 0.0010970719 -0.0245166 0.023526706 0.013534862 -0.0044291527 0.017840771
0.01649356 -0.028066019 -0.004691083 0.0028088738 -0.010481462 -0.029356882 -0.027476585 0.011162952
0.008110812 -0.013431799 0.00040875515 -0.011259213 -0.010015366 0.0052677216 -0.0064593665 -0.008526323
0.015442287 -0.004697937 -0.018503215 0.022134885 -0.0032738433 0.0052194493 -0.01476448 -0.02066496
-0.008501257 0.014799083 -0.015006628 0.012509381 0.0049353023 -0.0024876206 -0.008676083 -0.011833573
-0.009478083 -0.007907472 -0.0011708995 -0.008915021 0.0050279764 -0.009722922 -0.02543798 0.009184021
-0.0015422227 0.01579254 0.018508201 0.0071008336 -0.012726056 -0.020870667 -0.015333963 -0.007938075
-0.010333333 -0.004347037 0.009258771 -0.02312346
00000000: 3ba8 67bb 7135 da38 1adf b2bc 5ad1 82bb
00000010: 1497 3f3b 1e4f 04bb 37e5 14bc 46e6 0c3b
00000020: 8b56 93bc 44cf cfbc e4fc 3fbd ddbc 693c
00000030: 817a a4bb d78a 53bb 6f2a 853c 71ec b0bc
00000040: 3dab f7bb e621 89bc 2b7d 333c 56b5 293c
00000050: d207 00bd 15b2 1d3b 6545 afbc 59fb d93b
00000060: a513 58bc 769c e7bc 395a 2abc c629 26bc
00000070: 1ff4 13bc 4b3f 0abb 97e5 bebb 48cd b5bb
00000080: 8a02 e7bb 07e8 1339 b47f b9bb 6d5a 48ba
00000090: 3f39 a1bb 6290 073c d794 833b 45b6 f33a
000000a0: 5f53 173c 2495 82bc e45e ac3c 4bcf 07bc
000000b0: e8fe 823c e6f6 ccbb ecc8 133c 2d24 75ba
000000c0: cd7b 5ebc bd7c ff3c 760b cfbb 7cc6 53bc
000000d0: 7688 993c f78d 51bc d2c6 ba3a 039c 4cbb
000000e0: 1e7c 6bbb 1156 8dbc 1742 5cbc 8af5 14bc
000000f0: de00 25bc 0aad 6fbc a364 9cbc f8f4 fc3b
00000100: dd48 683c ad9b 6fbc 5331 dbbc fbc5 39bb
00000110: b085 acbb 4dad 3abb f227 cebb 73c9 58bc
00000120: 0028 833c 82ad d5b9 ed71 703a eab0 80bc
00000130: eaa2 e9bb 667d e33b 2188 a8bb 3d61 8dbc
00000140: b2dc 29bc 7e41 a0bc db84 293c 611d e23b
00000150: 7263 093c b853 35bc 7904 e7bc fa74 d5bb
00000160: 4c47 4fbc dc49 1b3b 37f2 973c 0c0d f9bc
00000170: b168 b7bc 3f41 57bc fa4c 903c 2d3a d5bc
00000180: 72dd be3b a2b6 87bc 50fa 673c d640 f8bb
00000190: 7761 63bc 138b 0ebc 058a a4bb bef5 433b
000001a0: 2696 a4bc 60f4 8cbc 5ece e23c 6a94 1c3c
000001b0: cdeb 6dbc b9e2 8ab9 a292 173c d0ee f53c
000001c0: dc2d 8c3b 1b0e 223b b7b1 b8bb 5fd7 94bc
000001d0: 7703 32bc 305f 8f3c b98f 503b e9e5 4dba
000001e0: afd4 9ebc ff23 f83a 387a a8bc c98f afbc
000001f0: 8176 8bbb 8d02 85bb b626 52bb 0ae1 05bc
00000200: f5ef 923b f2e1 263b 5971 19bc 4c7e 40bc
00000210: 2116 28bc 4018 e1bb d013 dcbc 0d0f 0c3c
00000220: b5ea 9abc 9666 fdba 3f52 e33b c36d 0abc
00000230: 0e6b 943c bf91 b23c 4752 9dbc d0ca 84bb
00000240: 7ce6 f23b 265b 38bc 5c41 7cbc 4441 ea3a
00000250: 160e b5bc 9cd6 97bb e1c1 8ebc 9454 55bc
00000260: 0551 663b 16f0 1fbc 1a79 44bc 5d7c 9b3b
00000270: fdeb 423c d801 37bc 80e5 be3a fb71 00bd
00000280: 3f42 133c ea27 51bc bdcd 56bc 9c47 e8bc
00000290: a664 043c 64a5 8e3c 34e9 983b 3f03 e0bc
000002a0: ac6e 2f3c 8ae2 733c a0cb 8f3a 09d7 c8bc
000002b0: 14bb c03c 53c1 5d3c 6d22 91bb cf26 923c
000002c0: 811d 873c b5ea e5bc a8b7 99bb 1515 383b
000002d0: 70ba 2bbc d87d f0bc 9316 e1bc d0e4 363c
000002e0: 36e3 043c 0c11 5cbc 304e d639 9078 38bc
000002f0: 7d17 24bc da9c ac3b 18a9 d3bb feb1 0bbc
00000300: a501 7d3c 27f1 99bb 0e94 97bc 3854 b53c
00000310: fa8d 56bb ea07 ab3b b8e6 71bc 9049 a9bc
00000320: db48 0bbc da77 723c 5cde 75bc 26f4 4c3c
00000330: 51b8 a13b 5907 23bb 2126 0ebc 9ae1 41bc
00000340: f649 1bbc 578e 01bc de78 99ba 4f10 12bc
00000350: b9c1 a43b e44c 1fbc 5063 d0bc 9378 163c
00000360: 6824 caba 5b5f 813c 839e 973c 1cae e83b
00000370: f380 50bc f6f8 aabc 4d3b 7bbc b30e 02bc
00000380: 244d 29bc 9771 8ebb 1ab2 173c 696d bdbc
