Assets/Viborin.onnx (onnx, 71919 bytes, 5 tensors)

action_model._continuous_distribution.mu.weight f4 [1, 128]
0	0xbd38bff2	-0.04510493
1	0xbca00cba	-0.019537318
2	0xbd320ddb	-0.043470245
3	0xbd605d9e	-0.05477678
4	0xbd3e4e12	-0.046461172
5	0x3ade2ec8	0.0016951198
6	0xbda4c633	-0.08045616
7	0x3c904577	0.017611248
8	0xbd6dc852	-0.05805237
9	0x3b9bbf9b	0.0047530658
10	0xbd55eb75	-0.052226502
11	0xbc9a2a70	-0.018819064
12	0xbd6ce971	-0.057839815
13	0xbc572bb4	-0.013132978
14	0xbcb6eabd	-0.022328729
15	0xbd2d08b0	-0.042244613
16	0xbd11b8b5	-0.03557654
17	0x3cddbb7d	0.02706694
18	0xbcf6868e	-0.030093458
19	0x3d132bda	0.035930492
20	0xbce00816	-0.027347606
21	0xbc8cc7f0	-0.017185181
22	0x3c18c508	0.00932432
23	0xbd570ed3	-0.05250437
24	0xbb5f58f6	-0.0034080124
25	0xbd157103	-0.03648473
26	0xbd3eea83	-0.046610367
27	0x3ce4741f	0.027887402
28	0xbd689a6d	-0.056787897
29	0x3a25a67a	0.00063190574
30	0xbd773236	-0.06035062
31	0x3ca7e1be	0.020493384
32	0xbcc23b65	-0.023709962
33	0xbd776165	-0.060395617
34	0xbd669d82	-0.056302555
35	0xbcabbe6a	-0.02096482
36	0xbd5a441e	-0.053287618
37	0xbc9b977e	-0.018993136
38	0xbd13a4d5	-0.036045868
39	0xbd6f18cf	-0.05837327
40	0xbd2994a5	-0.041401524
41	0xbd13fde3	-0.036130797
42	0xba78b21d	-0.000948699
43	0x3b465784	0.0030264566
44	0xbd0ee3e0	-0.034885287
45	0xbd2a8266	-0.041628264
46	0xbc0bb4bb	-0.008526976
47	0xbd5da16e	-0.05410903
48	0xbce86b73	-0.028371548
49	0x3cd6b1f1	0.026207896
50	0xbcb030ca	-0.02150764
51	0xbc32d4d0	-0.010914996
52	0xbd4b2a04	-0.049600616
53	0x3d11ca01	0.035593037
54	0xbd6df17f	-0.058091637
55	0xbd65e3de	-0.056125514
56	0xbd358746	-0.04431846
57	0xbd72ee2c	-0.05930917
58	0xbc9b5e85	-0.018965969
59	0xbd91a6c4	-0.07111886
60	0xbd4930cc	-0.049118802
61	0xbd2532a9	-0.040331516
62	0xbc3e4434	-0.011612941
63	0xbd00d225	-0.03145041
64	0xbd41fb79	-0.047358964
65	0xbd68795d	-0.056756366
66	0xbc6b414b	-0.014358829
67	0xbd191b91	-0.037379805
68	0xbd71cc7a	-0.059032895
69	0xbd28b42c	-0.04118745
70	0xbc8d5d0c	-0.017256282
71	0xbd4b5bf9	-0.04964826
72	0x3d44b2f3	0.04802222
73	0xbd70a5a7	-0.05875173
74	0xbcf5a712	-0.029986892
75	0xbcdaa74b	-0.0266911
76	0xbcb39f4c	-0.021926545
77	0xbc8c8667	-0.017153932
78	0xbc10d633	-0.008840132
79	0x3d8aaade	0.067708716
80	0xbd0dbafa	-0.034602143
81	0xbd2bd01d	-0.04194652
82	0xbd35a7e5	-0.04434957
83	0xbd1e324f	-0.038622197
84	0xbc9c111c	-0.019051127
85	0xbd737748	-0.059439927
86	0xbc0f80f2	-0.00875877
87	0xbd25fc11	-0.040523592
88	0xbd4de87c	-0.050270543
89	0xbd5c322b	-0.05375878
90	0xbd5375cb	-0.051626008
91	0xbdae9fd6	-0.0852658
92	0x3ad691a6	0.0016370311
93	0xbc52fdd0	-0.012877896
94	0xbce83bc8	-0.028348818
95	0x3ad19953	0.0015991129
96	0xbd17cffd	-0.037063587
97	0xbcf5248d	-0.029924655
98	0x3d5fb01f	0.05461132
99	0x3d040e0d	0.032239962
100	0x3d0f169b	0.034933668
101	0x3cca67b0	0.024707645
102	0xbd0aa209	-0.033845935
103	0xbda8a862	-0.082352415
104	0x3d37bead	0.044859577
105	0xbd23158c	-0.03981547
106	0xbcac5d0c	-0.021040462
107	0xbcf42534	-0.029802896
108	0xbce26947	-0.02763809
109	0xbce39f26	-0.027785849
110	0xbd86d544	-0.06583646
111	0xbd75d80d	-0.060020495
112	0x3c921e76	0.01783679
113	0xbb7cf901	-0.0038600566
114	0xbceaf024	-0.028678961
115	0xbd5a0790	-0.05322987
116	0xbd57e53c	-0.05270885
117	0xbd0942fa	-0.03351114
118	0xbd8e3c0c	-0.06945047
119	0xbd807b98	-0.06273574
120	0x3c85d7b1	0.016338201
121	0xbd38124a	-0.044939317
122	0xbd70c038	-0.058777064
123	0x3c111e46	0.008857315
124	0xbd20bf33	-0.03924484
125	0xbcb3587a	-0.021892775
126	0xbd5a42fe	-0.053286545
127	0xbc0a5475	-0.008442988

network_body.linear_encoder.seq_layers.0.bias f4 [128]
0	0xbdb09d45	-0.08623747
1	0xbe0eb511	-0.13936259
2	0xbd50b3b6	-0.050952636
3	0xbdb0a884	-0.08625892
4	0x3b308508	0.0026934762
5	0xbde059b7	-0.10954612
6	0xbe006e14	-0.12541991
7	0xbd87cf09	-0.06631286
8	0xbd935d84	-0.07195571
9	0xbd5e51b6	-0.054277144
10	0xbdb8f8be	-0.09031819
11	0xbd3cd07d	-0.046097267
12	0xbc707b5f	-0.014677851
13	0xbded48c3	-0.11586144
14	0xbda12b6f	-0.078696124
15	0x3c003314	0.007824678
16	0xbdb38ccd	-0.0876709
17	0xbd167924	-0.036736622
18	0xbb686f14	-0.0035466598
19	0xbc9c7780	-0.01909995
20	0xbd807bcb	-0.06273612
21	0x3c4577ca	0.012052486
22	0xbdc28868	-0.09498674
23	0xbd28f791	-0.041251723
24	0xbd509245	-0.050920743
25	0xbce66376	-0.028123599
26	0xbdbec474	-0.09314814
27	0xbcb79da9	-0.022414045
28	0xbd36d19f	-0.044633504
29	0xbdca20e2	-0.09869553
30	0x3bdae544	0.0066801626
31	0xbaf7c897	-0.0018904385
32	0xbc952259	-0.018204855
33	0xbd12ef02	-0.035872467
34	0xbd39a080	-0.04531908
35	0x3d4a8519	0.049443338
36	0xbd7a0c32	-0.061046787
37	0xbcc9feba	-0.024657596
38	0x3ce6b2e5	0.028161475
39	0xbdb3662b	-0.08759721
40	0xbbdb605f	-0.006694838
41	0xbcf312cd	-0.02967205
42	0xbdb50fc3	-0.08840897
43	0x3c2b15f2	0.010442244
44	0xbd8c6e92	-0.06857027
45	0xbdeeda8c	-0.11662778
46	0xbd5fc1d8	-0.054628223
47	0xbcfe42c2	-0.031037692
48	0xbcdb7253	-0.026787912
49	0xbc732d84	-0.014842395
50	0xbd36705c	-0.044540748
51	0xbd9f3a89	-0.077748366
52	0xbd8d3b45	-0.068960704
53	0xbdb075a1	-0.08616186
54	0xbcb1a7df	-0.021686492
55	0xbd224f4a	-0.039626397
56	0x3a81f030	0.00099135
57	0xbd0d7bda	-0.034541942
58	0xbb6b49bc	-0.0035902103
59	0xbd8fe696	-0.07026403
60	0xbd34a9ff	-0.044107433
61	0x3c90c0c8	0.01767005
62	0xbd291c43	-0.041286718
63	0xbd9b83cb	-0.07593497
64	0xbcb90a60	-0.022587955
65	0xbd9143c3	-0.07093003
66	0xbca5b013	-0.02022556
67	0xbdbb0993	-0.091326855
68	0xbdb5fd30	-0.08886182
69	0xbd3ffcd8	-0.04687199
70	0x3cc1bfc9	0.02365102
71	0xbd652c3f	-0.0559504
72	0xbdf9bdda	-0.121944144
73	0xbd1e7fa9	-0.038695965
74	0xbe21c758	-0.157987
75	0xbdab18c7	-0.08354335
76	0x3d2f63cd	0.042819787
77	0xbb90649a	-0.004406524
78	0xbd02c7d4	-0.031928852
79	0xbc20cd26	-0.009814536
80	0x3b017713	0.0019754812
81	0xbd8f7c72	-0.07006158
82	0xbda06611	-0.078319676
83	0xbcf7917d	-0.030220741
84	0xbcee80bc	-0.02911412
85	0xbd4e066b	-0.05029909
86	0xbdeed4c0	-0.116616726
87	0xbd0697fb	-0.032859784
88	0xbdc3b0c2	-0.09555198
89	0xbe02e121	-0.12781192
90	0xbd2dccd7	-0.04243168
91	0xbdc6d080	-0.09707737
92	0xbd29bd3f	-0.041440245
93	0xbd7efd1c	-0.062253103
94	0xbdf38e49	-0.11892373
95	0xbd51f79b	-0.051261526
96	0xba0c42c7	-0.0005350527
97	0xbd8b56d9	-0.06803674
98	0xbc2ea0f3	-0.0106584905
99	0xbe1aabe4	-0.15104634
100	0xbccd9d41	-0.025099399
101	0xbdde5888	-0.1085673
102	0xbd32bae6	-0.04363527
103	0xbda0de58	-0.07854909
104	0xbd5b4b7f	-0.053538796
105	0xbd4a3f94	-0.04937704
106	0xbdc84e84	-0.09780601
107	0x3bb9befe	0.00566852
108	0xbd9c1181	-0.07620526
109	0xbd4031ab	-0.046922367
110	0xbdaac4b6	-0.08338301
111	0xbcca55d8	-0.024699137
112	0x3ac58087	0.0015068211
113	0xbd9cb107	-0.07650953
114	0xbd63fb66	-0.055659674
115	0xbdaeb685	-0.085309066
116	0xbd4c4e8c	-0.049879596
117	0xbb27274f	-0.0025505607
118	0xbc047803	-0.008085254
119	0xbdbbc253	-0.09167924
120	0xbd9beabb	-0.07613131
121	0xbd2a3179	-0.041551087
122	0xbd87cb57	-0.06630581
123	0xbd020c78	-0.031750172
124	0xbced364e	-0.028956559
125	0xbc8418d4	-0.01612512
126	0xbe31d62f	-0.17366861
127	0xbbf08b6a	-0.007340838

network_body.linear_encoder.seq_layers.0.weight f4 [128, 5]
0	0xbee5572b	-0.44793066
1	0xbe4718d7	-0.1944307
2	0xbdeffe86	-0.11718468
3	0x3ee166ab	0.44023642
4	0x3e44191e	0.19150206
5	0x3f047f2e	0.5175656
6	0x3e5a88ba	0.2134122
7	0xbf2958b6	-0.6615099
8	0x3e487114	0.19574386
9	0xbe6ba73c	-0.23013014
10	0x3e12b0c1	0.14325239
11	0x3e22e657	0.1590818
12	0xbeb9da5e	-0.36299413
13	0xbe75c349	-0.24000277
14	0x3ee8e787	0.4548914
15	0x3f2016bb	0.62534684
16	0x3eccd087	0.40002844
17	0xbcfc97bd	-0.030834073
18	0x3f243e90	0.6415796
19	0xbf061d06	-0.52388036
20	0x3e46fa4f	0.19431423
21	0xbe00ba65	-0.12571104
22	0x3f0d12de	0.55106914
23	0xbe195567	-0.14973985
24	0x3f10bab6	0.565349
25	0x3e23ea2d	0.160073
26	0xbf547c74	-0.830024
27	0x3f353091	0.7077723
28	0x3dcfab30	0.10140073
29	0xbc83426f	-0.016022889
30	0x3eceb013	0.4036871
31	0x3e2003bc	0.15626425
32	0x3ea7fb47	0.32808897
33	0xbd176057	-0.03695711
34	0xbe1d6b77	-0.15373026
35	0x3e0c54a8	0.13704169
36	0xbf10b746	-0.56529653
37	0xbe5c54c4	-0.2151671
38	0x3f886b79	1.0657798
39	0x3e80e163	0.25171956
40	0x3f0d5f5e	0.55223644
41	0xbed91ad4	-0.4240328
42	0xbef7b037	-0.4837663
43	0x3c2bd211	0.010487095
44	0x3ebc8858	0.36822772
45	0xbefe9f64	-0.4973098
46	0x3f14a8d2	0.580701
47	0x3ec8791d	0.39154902
48	0xbe7a5662	-0.24447015
49	0xbea8a65f	-0.3293943
50	0xbe4d09e4	-0.20023304
51	0xbe7389e4	-0.2378307
52	0x3e273a10	0.16330743
53	0xbeadd80b	-0.3395389
54	0xbe56dfa7	-0.20983754
55	0xbe9e10ba	-0.30872136
56	0x3e6b29c0	0.22965145
57	0x3eec4f1a	0.461541
58	0xbf51a727	-0.8189568
59	0xbf507c1c	-0.81439376
60	0xbf4e6ada	-0.8063179
61	0x3ec29265	0.38002315
62	0x3f4ab1c9	0.7917753
63	0x3f747864	0.954962
64	0xbf98fff2	-1.1953108
65	0xbf1a1a44	-0.6019633
66	0x3f10bfeb	0.56542844
67	0x3d96705f	0.07345652
68	0xbee0a7b8	-0.4387796
69	0x3e089f8f	0.13342117
70	0x3f649699	0.89292294
71	0xbf00b272	-0.50272286
72	0xbeebaa7a	-0.460285
73	0xbee19f4f	-0.44066855
74	0xbecfa182	-0.40552908
75	0xbeae1cb1	-0.34006265
76	0xbe41745f	-0.18892048
77	0x3f31a612	0.6939403
78	0xbc9a1f0c	-0.018813632
79	0x3f7ab5c0	0.9793358
80	0x3e59d435	0.21272357
81	0x3e91f9ed	0.2851099
82	0xbe9ff610	-0.31242418
83	0xbc33d40b	-0.010975848
84	0x3d6e3194	0.05815275
85	0xbe1f5713	-0.1556056
86	0x3f1f6f8f	0.622796
87	0x3ef78008	0.48339868
88	0x3f441fe6	0.76611173
89	0x3f6b030c	0.91801524
90	0x3e3fe7bb	0.18740742
91	0x3e99eccc	0.30063474
92	0xbeeb6f10	-0.4598317
93	0x3eacf030	0.33777
94	0xbecda5df	-0.40165612
95	0xbe65a6cb	-0.22426908
96	0xbe68c3b5	-0.22730906
97	0xbdc09509	-0.09403426
98	0x3f21c120	0.6318531
99	0xbe394264	-0.18091732
100	0xbf0fd458	-0.56183386
101	0x3f9a24d4	1.2042489
102	0x3edd341c	0.4320382
103	0xbdbc5238	-0.091953695
104	0xbf31bb3b	-0.69426316
105	0xbe28fdf9	-0.16503133
106	0x3ee69a88	0.45039773
107	0x3e4fa243	0.20276742
108	0x3eef6da6	0.46763343
109	0xbd190645	-0.037359495
110	0x3edd5d2b	0.43235144
111	0x3e4c9bd7	0.19981323
112	0xbeab24b4	-0.3342644
113	0x3d4e0004	0.050292984
114	0x3f498d94	0.78731656
115	0x3f43c041	0.7646523
116	0x3e8f1881	0.27948382
117	0x3d5231e3	0.051317107
118	0xbf2f01a1	-0.6836186
119	0x3e2a7a5e	0.16648242
120	0x3e90a52b	0.28251013
121	0xbe2d1678	-0.16903102
122	0x3f0ea15f	0.5571498
123	0xbf1d64b2	-0.61481774
124	0xbe88d636	-0.2672593
125	0x3f4433ef	0.76641744
126	0x3e95be38	0.29246688
127	0xbf1dd0e5	-0.6164687
128	0x3f5775f7	0.84164375
129	0xbecbae9f	-0.39781663
130	0xbe56ab5c	-0.20963806
131	0xbe93f42e	-0.28897232
132	0x3e296ac7	0.16544639
133	0xbdc4e2ad	-0.096135475
134	0xbf4cc988	-0.7999501
135	0xbf281dd6	-0.65670526
136	0xbe31061c	-0.17287487
137	0xbeeb4142	-0.45948225
138	0x3e9e67a6	0.30938452
139	0xbe4a8dac	-0.19780606
140	0xbe10b86d	-0.14132853
141	0x3ec6c2e6	0.3882057
142	0xbeefec75	-0.4686009
143	0x3f402700	0.7505951
144	0xbd59d6d3	-0.053183388
145	0x3ed0998e	0.40742153
146	0x3e77c9be	0.24198052
147	0x3e01ffd3	0.12695245
148	0xbe086733	-0.13320617
149	0xbf2057c9	-0.6263395
150	0xbddf68c0	-0.10908651
151	0xbef572d3	-0.47939166
152	0x3e6261f0	0.22107673
153	0x3ef792a4	0.48354065
154	0x3edba697	0.42900535
155	0x3de06d43	0.1095834
156	0x3e39065c	0.18068832
157	0x3e87a803	0.2649537
158	0x3f0fc520	0.56160164
159	0x3f0f607d	0.56006604
160	0x3dbad125	0.091219224
161	0x3d756937	0.059914794
162	0xbf3b6ee6	-0.7321609
163	0x3f1ea318	0.6196761
164	0x3c27ac7c	0.010233995
165	0x3d7e3bba	0.06206868
166	0xbf0e4b2b	-0.5558345
167	0x3ed6bd2e	0.41941208
168	0xbf236683	-0.63828295
169	0xbed1c6c4	-0.4097196
170	0xbe9711eb	-0.29505858
171	0xbd1a4f8d	-0.03767352
172	0xbec4e68c	-0.38457143
173	0x3f3c3fea	0.73535025
174	0xbe1d0113	-0.15332441
175	0x3e29f815	0.16598542
176	0x3ddbda2b	0.107349716
177	0x3c858e52	0.016303215
178	0x3e73a6f1	0.23794152
179	0x3d240162	0.04004038
180	0x3e84d274	0.25941813
181	0xbf7cec5c	-0.98798156
182	0xbf15f220	-0.5857258
183	0xbe53d7ed	-0.20687838
184	0xbd1f5b5b	-0.038905483
185	0x3f721678	0.94565535
186	0xbee6792a	-0.45014316
187	0x3e5cb0e7	0.21551858
188	0xbe3c6a86	-0.1840001
189	0xbf1c705c	-0.61108947
190	0xbd584596	-0.052800737
191	0x3e95a0ab	0.29224142
192	0xbeb57e63	-0.35447988
193	0x3ea01b88	0.31271005
194	0xbee3b824	-0.44476426
195	0x3f01f659	0.5076652
196	0x3eae0696	0.339894
197	0x3eb49d4f	0.35276267
198	0xbe6a82f1	-0.22901513
199	0x3e86d57e	0.26334757
200	0x3f6e0f97	0.9299254
201	0x3eca0acc	0.39461362
202	0xbf223093	-0.6335537
203	0xbd5ccc66	-0.053905867
204	0x3dd61600	0.10453415
205	0xbe853ce3	-0.26023015
206	0x3df6191c	0.12016508
207	0xbf64607b	-0.8920972
208	0xbe5f1558	-0.21785486
209	0xbf40e9eb	-0.7535693
210	0xbee4e5fa	-0.44706708
211	0x3e1a79ce	0.15085527
212	0x3ec40b62	0.38289934
213	0xbe6882e8	-0.22706187
214	0xbeddfb41	-0.43355754
215	0x3d20da79	0.03927085
216	0xbec9c4fc	-0.394081
217	0xbf04c482	-0.5186235
218	0xbea89032	-0.32922512
219	0xbe883e82	-0.2661019
220	0xbdab6beb	-0.08370193
221	0xbe7e5432	-0.24836805
222	0xbf2d21e2	-0.67629826
223	0xbf684cbf	-0.90742105
224	0x3e41e6d0	0.18935704
225	0xbe4b9fad	-0.1988513
226	0x3f0f18e8	0.5589738
227	0xbed5115b	-0.41614804
228	0xbef30d4b	-0.4747108
229	0xbee70122	-0.45118052
230	0xbd08d76c	-0.033408567
231	0x3f05de94	0.5229275
232	0x3c5e5ed0	0.01357241
233	0xbd296369	-0.04135457
234	0xbef18521	-0.47171882
235	0xbc8b62c9	-0.017014878
236	0x3de81447	0.113319926
237	0xbfceb60c	-1.6149306
238	0xbe88ec5c	-0.26742828
239	0x3f7f683e	0.99768436
240	0x3da80cf0	0.08205593
241	0xbe483418	-0.19551122
242	0x3ee532ea	0.44765407
243	0xbe9bc0f5	-0.30420652
244	0xbf605e40	-0.87643814
245	0x3e661df8	0.2247237
246	0x3f21aeb9	0.6315723
247	0xbd47712f	-0.048691925
248	0xbe94e2a5	-0.29079166
249	0x3e8d742d	0.27627698
250	0x3f1109a1	0.5665532
251	0xbecb2d1b	-0.3968285
252	0xbece9bce	-0.40353245
253	0xbcab8641	-0.02093804
254	0xbf43a2e1	-0.7642041
255	0xbe0a2863	-0.13491969

network_body.linear_encoder.seq_layers.2.bias f4 [128]
0	0x3b9d31bf	0.00479719
1	0xbd5f9b75	-0.054591615
2	0xbc087dba	-0.008330757
3	0xbd59032d	-0.052981544
4	0xbd5173b1	-0.051135723
5	0xbded2d98	-0.11580962
6	0xbd2953b2	-0.041339584
7	0x3d0de04b	0.03463773
8	0xbd2f43c1	-0.042789225
9	0xbd50582c	-0.050865337
10	0xbd4e2b96	-0.050334536
11	0xbd2fa0bb	-0.042877894
12	0x3d72a446	0.059238695
13	0x3c450846	0.012025898
14	0xbd7d37e7	-0.06182089
15	0xbd7974c5	-0.060902376
16	0xbc828e8d	-0.015937114
17	0x3d92d092	0.07168688
18	0x3d247b65	0.04015674
19	0xbc2a1ebf	-0.010383307
20	0xbdd1ae79	-0.10238356
21	0x3c012aad	0.00788371
22	0xbdc91e0c	-0.09820184
23	0x3ca9b763	0.020717328
24	0xbda941d8	-0.08264512
25	0xbbd7849e	-0.0065770885
26	0xbc6f5d87	-0.014609701
27	0x3ba2d200	0.0049688816
28	0xbd3e483e	-0.046455614
29	0xbd565f3f	-0.052336928
30	0xbbad7dde	-0.0052945456
31	0xbca4b2c3	-0.020104771
32	0xbc92a175	-0.017899254
33	0xbc90c580	-0.0176723
34	0xbd108b59	-0.035289142
35	0xbbf50ffa	-0.007478711
36	0xbd499c23	-0.04922117
37	0xbd83fb59	-0.06444425
38	0xbc0e7fbb	-0.0086974455
39	0x3c0e5eeb	0.008689622
40	0xbd707fca	-0.05871562
41	0xbb1f9a90	-0.00243536
42	0xbdd2e104	-0.102968246
43	0xbdeb2bef	-0.11482989
44	0xbd0ff032	-0.035141177
45	0xbd0707e4	-0.03296651
46	0xbd395516	-0.04524716
47	0xbc963cc7	-0.018339528
48	0xbd74d526	-0.059773587
49	0x3cbdd172	0.02317116
50	0xbd811927	-0.063036256
51	0xbd06cdaf	-0.032911
52	0xbd145011	-0.03620917
53	0x3d30eb54	0.043193176
54	0xbd925d89	-0.07146747
55	0xbcce60b8	-0.025192603
56	0xbc8ca4a6	-0.017168354
57	0xbbb8be63	-0.0056379302
58	0xbd9146dd	-0.07093594
59	0xbd9926e5	-0.07478122
60	0xbbc4eaad	-0.006009421
61	0xbd682f83	-0.056685936
62	0xbd1f108d	-0.038834143
63	0xbd73bc78	-0.05950591
64	0xbdc95016	-0.09829728
65	0x3d054c40	0.03254342
66	0xbd19d9f8	-0.037561387
67	0xbd2d2464	-0.042271033
68	0xbc94efea	-0.018180806
69	0xbd7a7433	-0.061145972
70	0xbc7b6881	-0.01534474
71	0xbc1d80b7	-0.009613208
72	0x3d453fa1	0.048156384
73	0xbd0617ac	-0.03273742
74	0xbd31c408	-0.04339984
75	0xbd9f8134	-0.077883154
76	0xbd9f9cf6	-0.0779361
77	0x3cc4472d	0.02395972
78	0xbde32729	-0.110914536
79	0x3d68c332	0.056826778
80	0xbd6f284c	-0.05838804
81	0xbd5f741c	-0.05455409
82	0xbc10babe	-0.008833585
83	0xbd91bf66	-0.071165845
84	0xbd7c49bd	-0.06159376
85	0x3a8d4808	0.0010778913
86	0xbd68aad3	-0.056803536
87	0xbda16fdd	-0.07882664
88	0xbcfde64f	-0.030993609
89	0xbc5dd8e4	-0.01354048
90	0xbcffc193	-0.031220233
91	0x3c08702a	0.008327523
92	0xbd8464a8	-0.06464511
93	0xbca5feaf	-0.020263044
94	0xbd3739b7	-0.044732776
95	0xbd974eab	-0.073880516
96	0xbd464813	-0.04840858
97	0xbd3af8d3	-0.045647454
98	0x3bee8d90	0.007280059
99	0x3d84e5a8	0.06489116
100	0x3c075c0c	0.008261692
101	0xbda988e5	-0.08278064
102	0xbd84d379	-0.06485648
103	0x3d2e77b8	0.04259464
104	0x3bd0bcda	0.006370169
105	0xbc05c3b5	-0.008164336
106	0xbd22e3ae	-0.039767914
107	0xbd865467	-0.06559067
108	0xbd5ca62c	-0.05386941
109	0xbb6ee29a	-0.0036450983
110	0xbd631dc4	-0.05544831
111	0xbd9124f1	-0.07087124
112	0xbb60abf5	-0.0034282182
113	0xbc595c8c	-0.013266694
114	0xbd262c27	-0.04056945
115	0xbc17a72b	-0.009256165
116	0xbd562b1c	-0.052287206
117	0xbda3724e	-0.07980786
118	0xbcff4660	-0.031161487
119	0xbd4c60bf	-0.04989695
120	0xbcc69ff4	-0.024246193
121	0xbc839eba	-0.016066898
122	0xbd010347	-0.031497266
123	0xbcd616ec	-0.026133977
124	0xbd8f7de4	-0.070064336
125	0xbd0c900f	-0.034317072
126	0xbd0d24cf	-0.03445893
127	0xbd98fbd8	-0.074699104

network_body.linear_encoder.seq_layers.2.weight f4 [128, 128]
0	0x3d85ff98	0.06542891
1	0x3d82db66	0.06389503
2	0xbe324504	-0.1740914
3	0xb92f5c07	-0.00016723583
4	0x3c597c0d	0.013274205
5	0x3d82ccee	0.063867435
6	0xbdbea8b1	-0.09309519
7	0xbe273b66	-0.16331252
8	0x3c200531	0.009766863
9	0x3e29a31d	0.16566129
10	0x3e89c174	0.26905406
11	0x3db4c8ce	0.08827363
12	0x3d0c629d	0.034273732
13	0x3dc5eb78	0.09664053
14	0xbc33016e	-0.010925634
15	0x3d20f83e	0.039299242
16	0xbe123cf3	-0.14281063
17	0xbdf4a03a	-0.11944623
18	0xbdf161fa	-0.11786266
19	0x3c3e859f	0.011628537
20	0xbe014323	-0.12623267
21	0xbd143639	-0.036184523
22	0xbce1b7aa	-0.027553398
23	0x3cba4f29	0.022742825
24	0x3dd7e45a	0.105416015
25	0xbdfb8b13	-0.12282386
26	0x3e1b6775	0.15176184
27	0xbdcf8179	-0.10132117
28	0xbe13a971	-0.14420106
29	0xbe4b2781	-0.19839288
30	0xbe2a5334	-0.16633302
31	0xbe25678c	-0.16152781
32	0xbe1c67a4	-0.15273911
33	0x3bbed60a	0.0058238553
34	0xbd92a6cb	-0.071607195
35	0xbdec2052	-0.11529602
36	0xbd52cb04	-0.051463142
37	0x3d25d9be	0.04049086
38	0xbd33c53c	-0.04388927
39	0xbe0883cb	-0.13331525
40	0x3e2ca300	0.16859055
41	0xbd9ecec5	-0.07754282
42	0xbe0b0e92	-0.13579777
43	0xbe4d76af	-0.20064805
44	0x3d7bdbf4	0.06148906
45	0xbdb3e89d	-0.08784602
46	0x3c851e7c	0.016249888
47	0x3d9e2b15	0.07723061
48	0xbe07cea9	-0.13262428
49	0xbd8a01de	-0.067386374
50	0xbdde8f8b	-0.108672224
51	0x3e846be0	0.25863552
52	0xbdc95c97	-0.09832113
53	0xba1b60de	-0.0005927215
54	0xbe0531a6	-0.1300722
55	0xbb8c624f	-0.0042841802
56	0x3dd45457	0.10367649
57	0xbd5217c2	-0.05129219
58	0xbd835af9	-0.06413836
59	0xbe789f09	-0.24279417
60	0xbd3d9c55	-0.046291668
61	0xbe6af272	-0.22944048
62	0xbe581235	-0.21100695
63	0xbdc96074	-0.0983285
64	0xbaac66c3	-0.0013153184
65	0xbda2e4c9	-0.079537936
66	0x3ccee536	0.02525578
67	0x3c12b0db	0.008953298
68	0x3db16a6d	0.08662877
69	0x3c5906bd	0.013246235
70	0x3d1cea93	0.038309645
71	0xbd37adea	-0.04484359
72	0xbd178a08	-0.03699687
73	0xbceab316	-0.028649848
74	0xbd45ca2e	-0.048288517
75	0xbd2aef7c	-0.041732296
76	0xbd651d15	-0.055935938
77	0xbdd6dc47	-0.10491233
78	0x3c0ff590	0.008786574
79	0xbde1c2e3	-0.110235
80	0x3cdc4357	0.026887579
81	0x3e08309c	0.13299793
82	0x3d929a85	0.071583785
83	0x3d03fe36	0.032224856
84	0x3a54da77	0.0008119712
85	0x3d0661d0	0.032808125
86	0x3c638f4b	0.013889144
87	0x3e1e3984	0.15451628
88	0x3c5dd452	0.013539391
89	0x3cc0c16b	0.023529729
90	0xbd4849f1	-0.04889864
91	0xbd7d926c	-0.061907217
92	0xbe3716e2	-0.17879823
93	0xbe003fe6	-0.12524375
94	0x3dc5deba	0.09661622
95	0xbe0384c5	-0.12843616
96	0x3d0da45d	0.034580577
97	0xbd68dac1	-0.056849245
98	0x3c8a98ee	0.016918626
99	0xbaf4064e	-0.0018617602
100	0xbdce599e	-0.10075687
101	0xbd670616	-0.05640229
102	0xbd574361	-0.052554492
103	0xbd19e881	-0.03757525
104	0xbbfc71c6	-0.0077039925
105	0xbe80f16e	-0.25184196
106	0xbd451d8f	-0.048123892
107	0x3c91359c	0.017725758
108	0x3c08556d	0.008321148
109	0xbde95637	-0.11393397
110	0xbdc7e0c5	-0.09759668
111	0x3e2d1a95	0.16904671
112	0x3b03dc4a	0.0020120316
113	0x3d94ef15	0.07272164
114	0xbca6585a	-0.020305801
115	0xbe3c7381	-0.18403436
116	0xbdf701e9	-0.12060911
117	0xbc8ca0bb	-0.017166486
118	0xbdfe7cea	-0.12426169
119	0xbd54d897	-0.05196437
120	0xbdfada40	-0.12248659
121	0xbdd8493c	-0.10560843
122	0xbc7518fc	-0.01495957
123	0x3d26cb5c	0.040721282
124	0xbda427a4	-0.08015373
125	0x3da16c45	0.07881979
126	0x3d7dc3f0	0.06195444
127	0xbe4868a6	-0.1957117
128	0xbdb1acf8	-0.08675569
129	0xbcf8094b	-0.030277869
130	0xbd1a8baa	-0.03773085
131	0xbda88fe3	-0.08230569
132	0x3dc9fb42	0.09862377
133	0xbdcaa4fd	-0.0989475
134	0xbe2ee18a	-0.17078224
135	0x3c7afc4f	0.015318944
136	0xbe843681	-0.25822833
137	0xbdfb067b	-0.122570954
138	0xbc6b7812	-0.014371889
139	0xbdac793c	-0.08421561
140	0x3dbebd1c	0.093134135
141	0xbe510733	-0.20412903
142	0x3d8bbdd7	0.068233185
143	0xbdf2fa75	-0.11864177
144	0xbe5b1fc7	-0.21398841
145	0x3caa9edd	0.020827705
146	0x3b4d74e5	0.0031350192
147	0x3dcc6f65	0.09982184
148	0xbe40241d	-0.18763776
149	0xbe4063fe	-0.18788144
150	0x3d470bcb	0.04859523
151	0x3d812304	0.06305507
152	0xbd005943	-0.031335127
153	0xbe5bfa01	-0.21482088
154	0xbdfb59ce	-0.12272988
155	0x3e5d646c	0.21620339
156	0x3d20c5b7	0.039251056
157	0x3ddb6dcd	0.10714302
158	0xbda54b25	-0.08070973
159	0xbc2d91dd	-0.010593859
160	0xbdcd2051	-0.100159295
161	0xbd2bef1f	-0.04197609
162	0xbd276d68	-0.040875822
163	0x3d2a5295	0.041582663
164	0xbe1b9683	-0.15194134
165	0xbe0f9340	-0.14021015
166	0xbdbd856d	-0.092539646
167	0xbcbc047d	-0.022951359
168	0xbe0438cd	-0.12912293
169	0xbc122f0e	-0.0089223515
170	0xbe1c2884	-0.1524983
171	0xbd53495b	-0.05158363
172	0xbddd0273	-0.10791483
173	0xbdbb6021	-0.091491945
174	0x3dbf6f8c	0.09347448
175	0x3d3ee265	0.046602625
176	0xbbba8ce5	-0.0056930655
177	0x3d2b226c	0.041780874
178	0xbd9c09f3	-0.07619085
179	0xbd58f7a4	-0.052970544
180	0xbdd587cd	-0.104262926
181	0xbd8abd80	-0.067744255
182	0xbe23f4f3	-0.1601141
183	0xbe1e2f3b	-0.15447704
184	0xbc8d441d	-0.017244393
185	0xbbfd29b8	-0.0077259205
186	0xbe5dd2fd	-0.21662517
187	0xbe2c5767	-0.16830216
188	0xbd34477c	-0.044013485
189	0x3dfbf505	0.12302593
190	0x3e11750e	0.14204809
191	0xbe192006	-0.14953622
192	0xbc1bdd42	-0.009513201
193	0x3d20dcee	0.039273195
194	0xbe555aeb	-0.20835464
195	0x3dab63da	0.083686545
196	0xbe14a621	-0.14516498
197	0xbc6363f0	-0.013878807
198	0x3d3bef0c	0.04588227
199	0x3dbe0ca0	0.09279752
200	0xbd88acdf	-0.066735975
201	0x3dd0a043	0.101868175
202	0x3bab5bb7	0.005229439
203	0xbdb28e35	-0.0871853
204	0xbcedff84	-0.029052503
205	0xbc88d764	-0.016704269
206	0x3d4f2951	0.05057651
207	0xbe18f55c	-0.14937347
208	0x3df3fa9e	0.11913036
209	0xbe5c623b	-0.21521847
210	0xbd8ce2ad	-0.068791725
211	0x3cd0f034	0.025505163
212	0xbd7ac244	-0.061220422
213	0x3d99f7ec	0.075179905
214	0xb9f007b5	-0.0004578211
215	0x3d7d25a6	0.061803482
216	0x3ca163c4	0.019700892
217	0xbdb37f3b	-0.08764502
218	0xbe3c74ba	-0.18403903
219	0xbb8d7c0c	-0.004317766
220	0xbd175691	-0.03694779
221	0xbe0fd63d	-0.14046569
222	0xbe0faf22	-0.14031652
223	0xbd710289	-0.05884031
224	0x3c9f955c	0.0194804
225	0x3d3516cf	0.044211205
226	0xbe3d4ebd	-0.18487068
227	0xbdb9a152	-0.090639725
228	0xbdc21ffe	-0.09478758
229	0xbdd93d25	-0.106073655
230	0xbd1337b1	-0.035941783
231	0x3d6d0332	0.057864375
232	0x3caad308	0.02085258
233	0x3d17d2f0	0.0370664
234	0xbda452c8	-0.08023602
235	0x3bce5201	0.0062963967
236	0x3deb2a51	0.114826806
237	0xbd8f8dbf	-0.07009458
238	0xbdec0bd9	-0.11525697
239	0x3d93609b	0.071961604
240	0x3cb06cac	0.021536194
241	0xbe5e2be2	-0.21696427
242	0xbda9099c	-0.08253786
243	0xbd96b700	-0.07359123
244	0xbd8187c9	-0.06324727
245	0x3d0381d4	0.032106236
246	0xbdcae958	-0.09907788
247	0xbd3babd4	-0.045818165
248	0x3abfbd03	0.0014628473
249	0xbe9847e1	-0.2974234
250	0x3c103e0d	0.008803857
251	0xbd52156b	-0.051289957
252	0xbc79e797	-0.015252969
253	0x3d9e98dc	0.07743999
254	0xbe85a0cf	-0.2609925
255	0x3da91242	0.082554355
