Assets/Viborin5.onnx (onnx, 71919 bytes, 5 tensors)

action_model._continuous_distribution.mu.weight f4 [1, 128]
-0.006209274 0.010001439 0.022141244 -0.0013547381 -0.015319244 -0.05712308 -0.019225467 0.0028215
0.025549268 0.064076185 0.010048102 -0.0084105525 -0.021483263 -0.008846395 0.031138185 0.018344836
-0.044184107 0.040555704 -0.039909028 -0.0121421795 0.0100290375 0.016740646 -0.0045150956 -0.024347657
0.008766762 -0.056736104 -0.01333908 0.02119683 0.031302936 -0.0076700733 -0.021456366 0.018848887
-0.042665746 0.019528136 -0.07722804 0.0033424746 0.03357952 -0.02062388 -0.03560303 0.019294137
0.021485934 -0.033946343 -0.0038268014 -0.020541195 -0.015982844 0.046617687 0.0035446351 0.029590957
0.0034564869 -0.01744001 -0.01916769 -0.003632477 -0.04681952 -0.034948435 0.0021722054 -0.011940967
-0.0101358425 -0.020089582 -0.045657035 0.039964724 0.007495111 -0.010471803 0.033187732 -0.011972957
0.037841037 -0.014570368 -0.0170599 -0.025027739 0.0017938368 0.01498799 -0.01958077 0.047169555
-0.0019725028 0.027703956 -0.060659114 -0.025607338 0.013222142 0.030592462 -0.024652202 0.0104719605
0.00023301905 -0.028740507 0.01194334 -0.0030199052 0.0047029266 -0.024853041 0.0032775577 -0.014672675
0.00011665656 -0.03336815 0.01811323 0.023816299 -0.0152188055 0.005756918 0.038871016 0.03144029
0.013036857 -0.019827705 -0.016836954 -0.04932121 -0.03102999 -0.027068082 0.0012594074 -0.03517704
-0.012609998 -0.0058609094 0.037876803 -0.009674648 0.012599796 0.0072748023 0.02942825 -0.0011494521
-8.227082e-05 0.0214832 -0.032215014 0.030271396 0.056268264 0.032552347 -0.025919471 0.050763037
0.021535506 -0.05235478 0.0023997214 -0.015657602 0.0044700997 0.00026252287 -0.01695116 0.013663113
00000000: 2a77 cbbb 13dd 233c 8e61 b53c 7891 b1ba
00000010: 91fd 7abc e4f9 69bd ba7e 9dbc eae8 383b
00000020: b34c d13c 603a 833d cba0 243c 6acc 09bc
00000030: abfd afbc 78f0 10bc 8215 ff3c e947 963c
00000040: 65fa 34bd bd1d 263d a677 23bd feef 46bc
00000050: d550 243c ae23 893c 5ef3 93bb bd74 c7bc
00000060: 77a2 0f3c 1e64 68bd 288c 5abc f9a4 ad3c
00000070: 8237 003d 3d55 fbbb 43c5 afbc fb68 9a3c
00000080: 47c2 2ebd 78f9 9f3c bc29 9ebd 6b0d 5b3b
00000090: ae8a 093d 69f3 a8bc 7cd4 11bd bd0e 9e3c
000000a0: 4503 b03c 520b 0bbd 13cb 7abb 0246 a8bc
000000b0: 74ee 82bc 30f2 3e3d 1c4d 683b bc68 f23c
000000c0: 3a86 623b 5ade 8ebc 8f05 9dbc da0e 6ebb
000000d0: d3c5 3fbd 1726 0fbd 8f5b 0e3b 0ca4 43bc
000000e0: ce10 26bc e892 a4bc df02 3bbd 0db2 233d
000000f0: 8c99 f53b ed91 2bbc dcef 073d 392a 44bc
00000100: 34ff 1a3d 8eb8 6ebc 34c1 8bbc f906 cdbc
00000110: 2d1f eb3a 3090 753c da67 a0bc dd34 413d
00000120: 1b45 01bb 68f3 e23c b175 78bd 7bc6 d1bc
00000130: afa1 583c 0b9d fa3c 6af3 c9bc 9692 2b3c
00000140: 9356 7439 3671 ebbc 00ae 433c 9ae9 45bb
00000150: 021b 9a3b 9b98 cbbc 4bcc 563b a965 70bc
00000160: 84a5 f438 0bad 08bd 3262 943c 661a c33c
00000170: 4c58 79bc 87a4 bc3b 3737 1f3d 89c7 003d
00000180: 8b98 553c b66d a2bc a7ed 89bc 0905 4abd
00000190: 9b32 febc e2bd ddbc b312 a53a cd15 10bd
000001a0: 2a9a 4ebc df0c c0bb b524 1b3d 6a82 1ebc
000001b0: 606f 4e3c 7761 ee3b 8313 f13c 36a9 96ba
000001c0: cf88 acb8 89fd af3c e4f3 03bd b8fb f73c
000001d0: 8d79 663d 9c55 053d 1255 d4bc e7ec 4f3d
000001e0: 3b6b b03c f771 56bd a544 1d3b 5f44 80bc
000001f0: ea79 923b 39a3 8939 29dd 8abc 40db 5f3c

network_body.linear_encoder.seq_layers.0.bias f4 [128]
-0.015704406 0.010731332 -0.016069153 -0.01855001 -0.04929791 -0.09218602 0.013338042 -0.064849526
-0.04173851 -0.07954589 -0.00020065997 -0.025853831 -0.00038566356 -0.04570158 -0.016368426 -0.025832184
-0.03386665 -0.090344265 0.06060916 -0.0024722493 -0.03955744 0.037705068 -0.021083977 -0.10709285
-0.060124926 -0.041558597 -0.0022561366 -0.011683912 -0.021440523 0.026834754 -0.03351884 -0.038974047
-0.0842463 -0.0040924135 -0.048818093 0.004592487 -0.03648058 -0.068626456 0.003437685 -0.0010439486
-0.010916216 -0.062134057 -0.017690564 -0.058902115 -0.08422748 -0.009028826 -0.08332983 -0.056548506
0.03144902 -0.017926546 -0.08345382 0.008332077 -0.024207976 0.018176794 -0.012280401 -0.040997773
0.018227672 -0.016698753 -0.009302723 0.016244255 -0.0038809616 -0.0015420616 0.020649053 0.023566633
-0.016703464 0.0012092061 -0.07292397 -0.031727724 -0.05934403 -0.08592426 0.015780663 0.021134622
-0.05931634 0.012000402 -0.019692067 -0.058631152 -0.08022872 -0.05390537 -0.030598734 -0.0061412677
-0.038531482 0.008605156 0.036999397 -0.035033707 -0.0518463 0.019222924 -0.032612707 0.0252849
-0.0068684053 -0.07972582 -0.033469636 -0.0080832355 -0.07097043 -0.075574666 -0.00013453505 -0.057182353
-0.017672906 -0.021874806 -0.106588475 0.019483874 0.015292406 -0.037656564 -0.06723705 -0.08459275
-0.008934606 -0.020718893 -0.0012696262 -0.019554319 -0.013857939 -0.043579817 0.01402647 -0.08535643
-0.0028761232 -0.029321969 0.019643797 0.0002726637 -0.057919595 -0.037477024 0.03561119 -0.000709932
-0.0062594763 0.010174397 -0.049447857 0.025387004 -0.08948269 -0.047427423 -0.022374101 0.02523927
00000000: 87a6 80bc 78d2 2f3c 75a3 83bc 31f6 97bc
00000010: 9bec 49bd 06cc bcbd ce87 5a3c d4cf 84bd
00000020: 00f6 2abd f5e8 a2bd 4068 52b9 6acb d3bc
00000030: e332 cab9 9431 3bbd 1417 86bc 049e d3bc
00000040: c2b7 0abd 6a06 b9bd 5041 783d 7605 22bb
00000050: fb06 22bd a170 1a3d 4eb8 acbc 7f53 dbbd
00000060: 8e45 76bd 5939 2abd b1db 13bb e16d 3fbc
00000070: 09a4 afbc 8fd4 db3c 0d4b 09bd 40a3 1fbd
00000080: 5389 acbd a719 86bb 7bf5 47bd 937c 963b
00000090: a96c 15bd 078c 8cbd c94a 613b 1ad5 88ba
000000a0: eed9 32bc 4880 7ebd cdeb 90bc 5843 71bd
000000b0: 757f acbd a4ed 13bc d4a8 aabd 689f 67bd
000000c0: b0d0 003d b1da 92bc d6e9 aabd 4483 083c
000000d0: ce4f c6bc 80e7 943c bc33 49bc 48ed 27bd
000000e0: 3352 953c d3cb 88bc 736a 18bc ac12 853c
000000f0: bb57 7ebb 001f caba 3428 a93c d00e c13c
00000100: b4d5 88bc 397e 9e3a 2a59 95bd eef4 01bd
00000110: ba12 73bd 0ff9 afbd 7346 813c 8422 ad3c
00000120: b1f5 72bd 569d 443c 4251 a1bc 3827 70bd
00000130: f54e a4bd e1cb 5cbd 32aa fabc b03c c9bb
00000140: 30d3 1dbd a4fc 0c3c ae8c 173d 817f 0fbd
00000150: c95c 54bd 6579 9d3c e794 05bd 4722 cf3c
00000160: 5c10 e1bb 4a47 a3bd 7517 09bd 8c6f 04bc
00000170: f258 91bd e4c6 9abd fa11 0db9 0b38 6abd
00000180: c5c6 90bc cb32 b3bc 0f4b dabd a59c 9f3c
00000190: 008d 7a3c c53d 1abd 94b3 89bd f73e adbd
000001a0: 7462 12bc abba a9bc 9669 a6ba 6130 a0bc
000001b0: 690c 63bc c080 32bd 47cf 653c 5acf aebd
000001c0: 577d 3cbb a034 f0bc 07ec a03c 4df4 8e39
000001d0: 193d 6dbd 8281 19bd 0add 113d bb1a 3aba
000001e0: 4b1c cdbb 84b2 263c d689 4abd 68f8 cf3c
000001f0: b342 b7bd 4243 42bd e449 b7bc 96c2 ce3c

network_body.linear_encoder.seq_layers.0.weight f4 [128, 5]
-0.78514886 -0.21873763 -0.5636227 0.26123065 -0.424195 -0.25077936 0.028723205 -0.14234015
0.11399399 -0.5630273 0.46352595 0.34960368 -1.0638969 0.38613337 0.12492665 0.13587259
-0.005378538 -0.56583184 -0.2019157 0.24989638 -0.30822232 -0.3497837 -0.105456546 0.22087957
-0.0058912677 -0.09181675 1.0920389 0.88314134 -0.11667928 -0.24206728 -0.07414472 0.54208547
-0.06632458 -0.40126172 0.49272427 0.15865503 -0.24138631 -0.5483192 -0.42693862 -0.3885654
-0.9616698 -0.11771013 0.4071713 0.022493789 0.5377174 0.2265157 -1.0890114 0.7917062
0.17488502 0.03694447 -0.51898396 0.34290236 -0.28636762 -0.6782747 -0.29781213 -0.06918384
0.2329348 -0.5097939 0.76819956 -0.78408873 -0.66145575 -0.55780804 -0.34050104 -0.8166622
-0.11377157 0.0692323 0.57374763 0.11898629 0.044516068 -0.55746484 0.93053323 0.73209256
-0.6942375 -0.15473919 0.20412642 -0.04256794 0.1641631 -0.20498794 0.27622822 0.20510367
0.12971376 -0.2302728 -0.3012181 0.44748145 -0.6072685 0.22258434 -0.284663 -0.24868299
0.1024556 -0.08225441 -0.38896427 0.19517237 -0.015904713 -0.97761565 0.044762395 0.18296748
-0.35702056 0.042018496 0.00017006461 -0.14865704 0.13494444 0.46198717 0.74313927 -0.15973975
-0.21610373 -0.48159614 0.45945072 -0.29547542 -0.7166127 0.80355555 -0.26576793 0.27656174
-0.24095398 0.965142 -0.32758823 0.222941 0.12664342 -0.27336374 0.007771826 0.30537638
-0.43586984 0.54768443 0.049106404 0.61142296 -0.4872672 0.1895846 -0.37320784 -0.24895498
0.047151927 -0.47803104 -0.07535626 -0.5563489 -0.73237395 -0.3424522 -0.0021977965 -0.4569221
0.90079 -0.10113916 -0.1636793 0.3375054 0.26944527 0.66857255 -0.7742469 -0.68963134
0.1708517 -0.3869078 0.6528072 -0.42335293 -0.14339077 0.15431952 0.3776954 0.19864011
0.32499075 0.098849535 -0.18322352 -0.47700298 -0.28097633 -0.41381323 0.46312097 0.1510422
0.06681501 0.61917084 0.08346365 0.32372135 -0.40553203 0.14162588 -0.19422245 -0.25476545
-0.1707813 -0.8237503 -0.09598985 -0.54678905 0.57617766 0.037514634 0.58267075 0.06916306
0.14823556 -0.14926755 -0.30896515 -0.7431696 0.13322172 0.26893023 -0.28228846 -0.4625018
-0.29465568 -0.075954445 -0.41711387 -0.7943927 0.59336925 -0.14190552 -0.10679746 -0.6031481
0.58213824 0.13771151 0.11017642 0.3817524 0.56774807 -0.09237992 0.14349224 -0.093015075
-0.34627753 -0.012536012 0.5932265 0.37791362 -0.0010703123 0.02511194 -0.28076917 -0.17056285
0.15127793 -0.12010958 -0.15158348 0.65523666 -0.39746758 -0.6172716 -0.21396375 0.713363
0.22293036 0.13152082 -0.037497696 -0.28918028 -0.7391025 0.4366079 -0.12063841 0.4071402
0.2120614 -0.5790974 0.28077382 0.5008357 0.59718245 0.6636807 -0.24415389 -0.35665524
0.1562748 0.18624869 0.12272306 0.23718543 0.2537548 0.20881516 -0.29240203 0.1847162
-0.15379404 -0.18105066 -0.12308463 0.07396395 0.5458619 0.09523698 -0.28482854 0.7024288
-0.5705344 -0.4156003 -0.37882593 0.89119124 0.51793945 0.41561183 0.2789832 0.0825308
00000000: 84ff 48bf c2fc 5fbe 9449 10bf 06c0 853e
00000010: 1630 d9be 2766 80be ed4c eb3c 9ec1 11be
00000020: ae75 e93d 8f22 10bf 4653 ed3e 41ff b23e
00000030: c62d 88bf 46b3 c53e 8bd9 ff3d 2f22 0b3e
00000040: 723e b0bb 5bda 10bf fdc2 4ebe d6e4 7f3e
00000050: 51cf 9dbe d916 b3be 9af9 d7bd 412e 623e
00000060: 890b c1bb 6c0a bcbd eec7 8b3f 8d15 623f
00000070: 8cf5 eebd 7ce0 77be 30d9 97bd 1dc6 0a3f
00000080: 2ed5 87bd 2d72 cdbe 5b46 fc3e 7776 223e
00000090: f92d 77be a65e 0cbf b397 dabe 0bf2 c6be
000000a0: fe2f 76bf 0212 f1bd c278 d03e e544 b83c
000000b0: d9a7 093f bbf3 673e ba64 8bbf 42ad 4a3f
000000c0: 0f15 333e 1653 173d 22dc 04bf e690 af3e
000000d0: c79e 92be 69a3 2dbf d57a 98be 42b0 8dbd
000000e0: 7686 6e3e da81 02bf baa8 443f 0aba 48bf
000000f0: 2a55 29bf 82cc 0ebf 2756 aebe c610 51bf
00000100: 1201 e9bd aac9 8d3d 20e1 123f 16af f33d
00000110: 7b56 363d 04b6 0ebf 6d37 6e3f 6b6a 3b3f
00000120: 8cb9 31bf f373 1ebe 8406 513e b85b 2ebd
00000130: 5f1a 283e 5ce8 51be c96d 8d3e b206 523e
00000140: afd3 043e a2cc 6bbe 4239 9abe 4a1c e53e
00000150: f375 1bbf 26ed 633e 59bf 91be c1a6 7ebe
00000160: 3ed4 d13d 0075 a8bd 5326 c7be 44db 473e
00000170: 9a4a 82bc 0545 7abf c658 373d d45b 3b3e
00000180: 66cb b6be 961b 2c3d 5f53 3239 8d39 18be
00000190: e02e 0a3e 9589 ec3e 603e 3e3f d192 23be
000001a0: 4c4a 5dbe c593 f6be 203d eb3e 8e48 97be
000001b0: ee73 37bf d1b5 4d3f bc12 88be 8099 8d3e
000001c0: a4bc 76be 8c13 773f a5b9 a7be a54a 643e
000001d0: d0ae 013e 55f6 8bbe cdaa fe3b 4b5a 9c3e
000001e0: 552a dfbe 0c35 0c3f cc23 493d 3786 1c3f
000001f0: 167b f9be 7722 423e 1915 bfbe 0eee 7ebe
00000200: 6122 413d 7cc0 f4be 6254 9abd e26c 0ebf
00000210: dc7c 3bbf e555 afbe e808 10bb b2f1 e9be
00000220: 2c9a 663f 0c22 cfbd 8c9b 27be 82cd ac3e
00000230: bbf4 893e 9227 2b3f 0b35 46bf ae8b 30bf
00000240: bff3 2e3e c718 c6be 5f1e 273f b7c1 d8be
00000250: 08d5 12be f005 1e3e 4b61 c13e 5068 4b3e
00000260: 3065 a63e a071 ca3d f29e 3bbe bc39 f4be
00000270: 21dc 8fbe 54df d3be 311e ed3e ceaa 1a3e
00000280: 4fd6 883d fb81 1e3f fdee aa3d cebe a53e
00000290: e5a1 cfbe 6006 113e 40e2 46be 9e70 82be
000002a0: 4be1 2ebe 4de1 52bf 5496 c4bd 5efa 0bbf
000002b0: 6180 133f f2a8 193d e929 153f 5da5 8d3d
000002c0: 10cb 173e 98d9 18be ae30 9ebe 5d40 3ebf
000002d0: 466b 083e 39b1 893e 1d88 90be 09cd ecbe
000002e0: 1cdd 96be 018e 9bbd f38f d5be 525d 4bbf
000002f0: 0ce7 173f ae4f 11be a0b8 dabd ea67 1abf
00000300: 0307 153f 3f04 0d3e 2da4 e13d 0d75 c33e
00000310: f057 113f af31 bdbd a1ef 123e b07e bebd
00000320: 4a4b b1be d863 4dbc b1dd 173f e57d c13e
00000330: b949 8cba 8eb7 cd3c fac0 8fbe 07a8 2ebe
00000340: 9ae8 1a3e 03fc f5bd b338 1bbe 97bd 273f
00000350: df80 cbbe 8305 1ebf 5019 5bbe f59e 363f
00000360: db47 643e 65ad 063e 2f97 19bd 700f 94be
00000370: d235 3dbf 128b df3e 4511 f7bd ae74 d03e
00000380: a026 593e ba3f 14bf 96c1 8f3e c536 003f
00000390: f3e0 183f fae6 293f 7a03 7abe 849b b6be
000003a0: 8006 203e fab7 3e3e 3a56 fb3d bde0 723e
000003b0: 26ec 813e a4d3 553e b8b5 95be 3e26 3d3e
000003c0: 2f7c 1dbe 5865 39be cb13 fcbd 697a 973d
000003d0: 9bbd 0b3f 9b0b c33d 0cd5 91be 60d2 333f
000003e0: 8b0e 12bf 90c9 d4be 79f5 c1be 1c25 643f
000003f0: ae97 043f 13cb d43e e3d6 8e3e e805 a93d

network_body.linear_encoder.seq_layers.2.bias f4 [128]
-0.00069239375 -0.026982289 -0.005354906 -0.024590608 -0.011686338 0.08375982 -0.029283237 -0.03398013
-0.015602957 0.06167035 -0.016182065 -0.058874648 -0.040761318 -0.03558176 0.0040462567 -0.045610256
0.028081616 0.0005254273 0.016510358 -0.067183785 -0.05893658 -0.039748285 -0.025960432 -0.06095462
-0.07206215 0.0006884262 -0.024102325 -0.07825983 -0.044532344 -0.038829688 -0.0036168357 -0.09810666
0.024749335 -0.043628115 0.07762521 -0.03253085 -0.013218531 -0.022128323 -0.04226427 -0.060325455
-0.09180226 -0.044480752 -0.030942298 0.010160326 -0.01505656 0.018820982 -0.06296885 -0.060796186
-0.06902476 -0.018104352 -0.0357743 -0.0881433 0.022209555 0.010243748 -0.063674785 -0.0076322416
-0.04202105 -0.038662173 0.011635192 -0.015525836 -0.03339005 -0.07367973 0.013699482 -0.07366836
-0.027137646 0.006121651 -0.035253193 0.015576237 -0.06346039 -0.06742467 0.018238736 0.02307764
-0.01270169 -0.08751297 0.053610697 -0.02675831 0.008839837 -0.020405663 -0.024801552 -0.04302598
-0.023598129 0.011208107 -0.034367897 -0.058965202 -0.027199311 -0.03399055 -0.030745625 -0.026905281
-0.03677653 -0.038024925 -0.031154642 -0.07294565 -0.05202817 -0.04878467 0.037276726 -0.07118178
-0.08063556 0.03217633 -0.0065969 -0.0014202885 0.0046099 0.0130760195 -0.07848617 -0.011950702
-0.0062687704 -0.064897925 0.052306835 -0.034058455 -0.061382424 -0.043581218 -0.09542935 -0.05418299
-0.04959989 -0.04691007 -0.02624638 -0.011482472 0.01359298 0.018305684 -0.004910806 0.009080022
-0.03205737 0.0168163 -0.06706302 -0.037633933 -0.033762857 -0.04771316 -0.04392928 -0.007865192
00000000: c281 35ba f609 ddbc 3578 afbb 3e72 c9bc
00000010: 0e78 3fbc 458a ab3d 66e3 efbc c02e 0bbd
00000020: 8ca3 7fbc 0d9a 7c3d 4090 84bc 8b26 71bd
00000030: 57f5 26bd 2ebe 11bd 7696 843b d2d1 3abd
00000040: 6b0b e63c d4bc 093a bb40 873c a797 89bd
00000050: 7c67 71bd 19cf 22bd f9aa d4bc 8dab 79bd
00000060: 5295 93bd 8077 343a 3d72 c5bc b146 a0bd
00000070: 8c67 36bd e10b 1fbd 6f08 6dbb 25ec c8bd
00000080: 1ebf ca3c 65b3 32bd f7f9 9e3d 123f 05bd
00000090: 8a92 58bc 7546 b5bc 4d1d 2dbd d317 77bd
000000a0: d302 bcbd 7331 36bd b47a fdbc 7f77 263c
000000b0: caaf 76bc 762e 9a3c d0f5 80bd 6c05 79bd
000000c0: da5c 8dbd 944f 94bc 1388 12bd 7984 b4bd
000000d0: d0f0 b53c 65d5 273c ed67 82bd e217 fabb
000000e0: 441e 2cbd 3a5c 1ebd 88a1 3e3c 1360 7ebc
000000f0: 01c4 08bd 66e5 96bd cb73 603c 70df 96bd
00000100: c54f debc 2198 c83b a765 10bd 7933 7f3c
00000110: 85f7 81bd f215 8abd 6769 953c 520d bd3c
00000120: c01a 50bc 003a b3bd e496 5b3d 3e34 dbbc
00000130: f7d4 103c c729 a7bc a02c cbbc 033c 30bd
00000140: dd50 c1bc 35a2 373c 5ac5 0cbd 7f85 71bd
00000150: 17d1 debc ad39 0bbd 40de fbbc 7768 dcbc
00000160: fda2 16bd 06c0 1bbd 0538 ffbc 8764 95bd
00000170: 7e1b 55bd 6fd2 47bd 7baf 183d c1c7 91bd
00000180: 4224 a5bd 54cb 033d cf2a d8bb f928 baba
00000190: a50e 973b cd3c 563c 5bbd a0bd e1cc 43bc
000001a0: 426a cdbb 34e9 84bd b13f 563d e180 0bbd
000001b0: 236c 7bbd 3882 32bd 7770 c3bd fcee 5dbd
000001c0: 4129 4bbd c624 40bd a602 d7bc fa20 3cbc
000001d0: 17b5 5e3c cdf5 953c d4ea a0bb 5fc4 143c
000001e0: 974e 03bd 56c2 893c 5658 89bd 0a26 1abd
000001f0: ec4a 0abd e06e 43bd 30ef 33bd 02dd 00bc

network_body.linear_encoder.seq_layers.2.weight f4 [128, 128]
-0.04578746 -0.00067071576 -0.13402845 -0.11198603 0.07871856 0.0003000867 -0.10047193 -0.07849125
0.039072145 0.09364726 -0.124088295 -0.08397433 -0.19616947 0.023008874 -0.045569144 0.050394837
0.04958794 -0.11463227 0.09555649 0.044266656 -0.13839205 0.007953498 -0.106509395 0.029308919
-0.22000174 0.017467652 0.012879829 -0.23427695 -0.04544763 0.05254353 0.13380648 -0.11702766
-0.022577954 -0.022614378 -0.052500356 -0.05327445 0.11841504 -0.0445192 0.07879341 0.060153175
-0.10174396 -0.059444044 -0.04932237 0.10950593 -0.09764444 -0.024117634 -0.011585552 -0.030007958
-0.13404147 0.032309916 0.068157054 0.014774942 0.074777685 -0.036364984 -0.06656894 -0.14081086
0.012685115 0.06407356 0.0602541 0.11229821 0.034140073 -0.057518464 0.025275012 -0.07333589
-0.09183622 -0.17710541 -0.040846314 -0.11781664 0.026610909 0.018074295 0.098480865 -0.0824502
-0.010047052 -0.08520416 -0.013628421 -0.11013892 -0.18062167 -0.08910792 0.08412662 0.19997615
-0.14997174 0.020519564 -0.017951628 -0.06039434 -0.1597751 -0.11866671 0.043219183 -0.06419324
-0.032908864 0.034845162 -0.016493471 -0.0071794395 -0.23523319 -0.10596765 0.014470928 0.070293985
-0.026887523 -0.020717911 -0.072779365 0.017365966 0.08838888 -0.06600355 -0.12973045 0.010700447
-0.004577839 -0.1897588 -0.046750996 -0.1033726 0.0548427 -0.13629614 0.18286493 0.030766223
-0.050378077 0.023903837 -0.07052292 0.0034876864 0.044375554 -0.06686576 0.041989744 0.013110577
-0.15106054 -0.1398664 -0.01841494 -0.17070638 -0.07327216 0.048120353 0.012587616 -0.02494544
0.12838094 0.03009965 0.03885503 -0.14388564 -0.2843116 0.045002557 -0.11903536 -0.16370244
-0.10092812 0.18094537 -0.01575724 -0.08567127 0.13254601 0.036852974 -0.015287076 -0.14076632
-0.09381595 0.08871046 -0.104349025 -0.048116695 -0.12065973 0.043669526 0.11891622 -0.20028701
0.06484174 0.1505947 0.112514526 -0.009141861 -0.059979524 -0.09607885 0.06310215 -0.0143808955
-0.14668855 0.0618981 -0.0044741896 -0.014376213 -0.0111915395 -0.02417973 0.030282889 0.059460744
-0.06504793 0.11188348 -0.038589112 0.055860985 -0.15314439 -0.07840825 0.06627304 -0.008680514
-0.016988138 0.043960016 -0.06826326 0.03547163 0.0065301335 0.016478073 0.026771922 0.0020873623
-0.055252098 -0.0106506925 -0.12262002 -0.10480686 0.064006515 -0.14446762 -0.10573516 -0.12335083
-0.0001055584 -0.033497084 -0.061362945 -0.109024584 -0.14366695 0.090618104 -0.06439641 -0.020781644
-0.08812135 -0.006082006 -0.099575356 0.051533807 -0.21561629 0.06922291 0.016884835 0.014666471
-0.025558876 -0.08431774 -0.10155024 -0.14147578 -0.027247485 -0.17157382 -0.07598506 -0.09723186
0.07704453 -0.056730285 0.045406573 -0.1115263 -0.08908198 0.119207725 -0.069372535 -0.08701804
0.048043698 -0.059758008 -0.09774057 -0.0056642345 -0.08022192 -0.15111479 -0.043422382 0.027467018
-0.006495321 -0.039991576 -0.04096976 -0.10659966 0.078034475 -0.07157333 0.06355377 -0.18817541
0.077948265 0.047392003 0.07461419 0.039561134 -0.196187 -0.046818335 0.017014906 -0.08238616
-0.030169856 -0.01473902 -0.093869306 0.010834232 -0.06452897 0.05446441 -0.093530506 -0.06440683
00000000: a28b 3bbd f9d2 2fba c13e 09be ef58 e5bd
00000010: 3237 a13d f454 9d39 3ac4 cdbd 05c0 a0bd
00000020: 1d0a 203d 22ca bf3d 0122 febd bcfa abbd
00000030: a6e0 48be 1b7d bc3c b6a6 3abd d16a 4e3d
00000040: b91c 4b3d 53c4 eabd 1fb3 c33d f450 353d
00000050: a5b6 0dbe 634f 023c 9921 dabd 4219 f03c
00000060: 2348 61be 5218 8f3c eb05 533c 4ce6 6fbe
00000070: 4b27 3abd e237 573d 9104 093e 33ac efbd
00000080: 67f5 b8bc ca41 b9bc 9d0a 57bd 4f36 5abd
00000090: 9683 f23d c459 36bd 705e a13d 2d63 763d
000000a0: 235f d0bd 997b 73bd 4106 4abd a544 e03d
000000b0: cff9 c7bd 5892 c5bc 54d1 3dbc 40d3 f5bc
000000c0: 2b42 09be 6757 043d ed95 8b3d 9912 723c
000000d0: 0b25 993d 73f3 14bd 4c55 88bd b930 10be
000000e0: 3bd5 4f3c 0039 833d 01cd 763d 9bfc e53d
000000f0: 76d6 0b3d 7b98 6bbd 8b0d cf3c 2131 96bd
00000100: a114 bcbd 1f5b 35be 774e 27bd da49 f1bd
00000110: 1fff d93c 8b10 943c 56b0 c93d a7db a8bd
00000120: 649c 24bc 857f aebd be49 5fbc 8490 e1bd
00000130: e3f4 38be 377e b6bd 944a ac3d 8cc6 4c3e
00000140: 3192 19be a518 a83c 4b0f 93bc 0e60 77bd
00000150: 159c 23be 8807 f3bd 9906 313d bf77 83bd
00000160: 72cb 06bd cdb9 0e3d 511d 87bc 8141 ebbb
00000170: f8e0 70be 9105 d9bd 7917 6d3c 4bf6 8f3d
00000180: 3943 dcbc 9cb8 a9bc 590d 95bd 1243 8e3c
00000190: 3b05 b53d df2c 87bd 0fd8 04be ed50 2f3c
000001a0: b201 96bb 2250 42be f97d 3fbd 04b5 d3bd
000001b0: bda2 603d 3791 0bbe f240 3b3e 7209 fc3c
000001c0: 3e59 4ebd fbd1 c33c 526e 90bd ab91 643b
000001d0: 24c3 353d eaf0 88bd 70fd 2b3d bfcd 563c
000001e0: 9daf 1abe 2339 0fbe eeda 96bc a7cd 2ebe
000001f0: b70f 96bd d919 453d 4a3c 4e3c 615a ccbc
00000200: 4b76 033e 8b93 f63c 7426 1f3d c256 13be
00000210: 4a91 91be 9a54 383d d0c8 f3bd 9da1 27be
00000220: 67b3 cebd be49 393e 5415 81bc 6b74 afbd
00000230: 24ba 073e 25f3 163d a576 7abc 0c25 10be
00000240: 9422 c0bd d4ad b53d f1b4 d5bd 0316 45bd
00000250: 731c f7bd d1de 323d 598a f33d 0a18 4dbe
00000260: bfcb 843d 7f35 1a3e 046e e63d bfc7 15bc
00000270: 17ad 75bd fdc4 c4bd b33b 813d d99d 6bbc
00000280: 8635 16be dd88 7d3d 399c 92bb 358a 6bbc
00000290: b85c 37bc 9214 c6bc d213 f83c 1c8d 733d
000002a0: d937 85bd 2a23 e53d 9e0f 1ebd 7dce 643d
000002b0: e2d1 1cbe 8194 a0bd 29ba 873d b738 0ebc
000002c0: b52a 8bbc 6b0f 343d 9ccd 8bbd b34a 113d
000002d0: bbfa d53b 06fd 863c ca50 db3c 21cc 083b
000002e0: 0650 62bd 3e80 2ebc 3420 fbbd fba4 d6bd
000002f0: d915 833d 52ef 13be ad8b d8bd 5c9f fcbd
00000300: 3c5f ddb8 3d34 09bd b657 7bbd 4848 dfbd
00000310: 6e1d 13be fc95 b93d 44e2 83bd 443e aabc
00000320: f778 b4bd 904b c7bb 2aee cbbd 1d15 533d
00000330: 84ca 5cbe bec4 8d3d 1152 8a3c a34b 703c
00000340: d960 d1bc c7ae acbd 92f9 cfbd 07df 10be
00000350: 1e36 dfbc 0cb1 2fbe 0e9e 9bbd 7f21 c7bd
00000360: 86c9 9d3d 045e 68bd 3efc 393d e767 e4bd
00000370: 9d70 b6bd 2e23 f43d 3013 8ebd 8436 b2bd
00000380: 78c9 443d d0c4 74bd 352c c8bd 0b9b b9bb
00000390: 644b a4bd d6bd 1abe abdb 31bd 8302 e13c
000003a0: b4d6 d4bb 35ce 23bd e8cf 27bd ec50 dabd
000003b0: 8ad0 9f3d 0a95 92bd 7b28 823d 0eb1 40be
000003c0: 57a3 9f3d 1e1e 423d 53cf 983d db0a 223d
000003d0: 3fe5 48be 95c4 3fbd d862 8b3c 13ba a8bd
000003e0: c626 f7bc ee7b 71bc 8d3e c0bd 1082 313c
000003f0: c427 84bd 1316 5f3d ec8c bfbd bae7 83bd
