Assets/Viborin4.onnx (onnx, 71919 bytes, 5 tensors)

action_model._continuous_distribution.mu.weight f4 [1, 128]
000000 41 6e 1a 3b 74 05 40 3c fa e5 85 ba 85 61 06 3d
       0.0023564252 0.01172005 -0.0010215633 0.032807846
000010 d0 b1 b1 3c a7 86 30 3d b9 41 16 3d 3a 6d 82 bc
       0.021691233 0.043097164 0.03668377 -0.015921224
000020 dd 0c 9d 3b f6 0c e1 3c 91 0c 03 3c c1 ad d3 3c
       0.004792793 0.027472 0.0079986015 0.025839688
000030 03 82 a6 bb 90 03 44 3d 8e 4a b1 bb 34 21 2b 3d
       -0.0050814166 0.04785496 -0.005410499 0.04177971
000040 08 08 97 ba 38 15 3a bc 36 29 96 3c 8b fd 19 bd
       -0.0011522779 -0.011357598 0.018330198 -0.037595313
000050 4b 51 b4 3c 0a 4d 53 3d db cf 1c 3d bb 16 b7 3c
       0.02201142 0.051587142 0.038284164 0.022349706
000060 45 bb e6 3c 6e 63 b4 bb bc ec dc 3c 65 50 fa 3b
       0.028165469 -0.005505017 0.026968352 0.0076389783
000070 e7 04 f9 3c f8 93 da 3c 5e 6c 69 3d 9d 76 21 bd
       0.030397845 0.026681885 0.056988113 -0.03941976
000080 d3 a1 98 3a cc 98 42 3c bd c1 15 3d 01 dc d6 3c
       0.0011644907 0.01187725 0.036561716 0.026227953
000090 50 f2 f5 3b ef 99 2e bc f4 cd 95 3d 96 98 b1 bc
       0.0075056925 -0.010656818 0.07314673 -0.021679204
0000a0 7d c8 df 3c 87 72 7a 3a 6c 1b 44 3d c4 e3 c2 3b
       0.02731728 0.0009553809 0.047877714 0.005947562
0000b0 af a7 b5 3c 56 be 91 ba 16 62 a3 3c db 51 c0 3c
       0.022174684 -0.0011119347 0.019944232 0.023476532
0000c0 f3 37 2b bb dd d4 88 bb 78 28 f6 3c 5e 49 61 3d
       -0.0026125878 -0.004175766 0.030048594 0.05500161
0000d0 a5 ed 34 3d 95 7f 1a 3d e2 c4 34 3d 52 8d 14 3c
       0.044171948 0.037719328 0.044133075 0.0090668965
0000e0 f0 94 74 3d bc d8 a1 3c 1b cf b0 bc 74 eb bb 3c
       0.05971235 0.019756667 -0.02158313 0.022939421
0000f0 9e 74 9c 39 65 e4 f2 3c 4b 66 f8 bb 84 09 37 bc
       0.00029841525 0.029649923 -0.0075805536 -0.011171702
000100 fe be fe 3c b0 7e aa bc 44 c8 18 3c dd 89 1a 3b
       0.031096932 -0.020812362 0.009325091 0.0023580708
000110 4c da 36 3d 05 21 3a 3d 90 06 4d 3c f2 c7 39 3d
       0.044641778 0.045441646 0.012513772 0.0453567
000120 0e 4d bb 3c 60 3b 08 bc 08 57 13 3a 7f 77 bf bc
       0.022863891 -0.008314937 0.00056205736 -0.02337241
000130 db 0b 4d 3d d9 41 04 ba 34 f0 d5 3c d3 ba b7 3c
       0.050060134 -0.00050452125 0.026115514 0.022427952
000140 79 3f 16 3d 52 06 fb 3b d1 4c 0d 3d f0 59 db 3c
       0.036681626 0.0076606655 0.034497086 0.026776284
000150 95 6e 34 3d dc d4 1e 3d f0 90 17 3c 0d 42 9d 3c
       0.04405077 0.038777217 0.009250864 0.019196535
000160 db 2b 62 3c 77 45 01 3c 2c 95 00 3d 26 79 93 3d
       0.013804401 0.007890097 0.03139226 0.072008416
000170 25 82 03 3d 83 04 22 3d 57 c9 5c 3d 77 71 c8 bc
       0.032106537 0.039555084 0.05390295 -0.024468167
000180 d7 e6 1b 3d 3a ff fd bc 71 36 64 bc 6c 1b 87 3d
       0.038061943 -0.03100549 -0.0139289955 0.06597027
000190 a2 e3 67 3d a9 27 16 3d f1 23 6a 3c 23 c3 57 3d
       0.056613572 0.036658917 0.014290796 0.05267633
0001a0 23 45 28 3d 8c a1 f8 bc 7b dd 2e 3d e3 26 5a 3d
       0.04108156 -0.030350469 0.04269169 0.05325974
0001b0 24 a4 b0 3c 08 ea b1 bb bc 4a 06 bb d4 30 45 3d
       0.021562643 -0.00542951 -0.0020491323 0.04814227
0001c0 57 15 89 bb e3 dd bb 3c 11 01 c1 3d 86 14 20 3c
       -0.004183452 0.022932952 0.094240315 0.009770518
0001d0 fd cf 1e 3d 09 22 72 39 b6 bf bd 3c 90 6f 34 3d
       0.03877257 0.00023091598 0.023162704 0.044051707
0001e0 07 4e 15 3d d4 61 b5 3c db f0 83 3c 66 0d 3d bb
       0.036451366 0.022141375 0.01610606 -0.0028847097
0001f0 47 29 0e 3d 12 0c 50 3c 77 9d ad 3c 06 73 27 bd
       0.034707334 0.01269819 0.02119325 -0.04088118

network_body.linear_encoder.seq_layers.0.bias f4 [128]
000000 a8 77 18 bd ad 77 06 bb e9 1b b7 bc d8 92 70 39
       -0.037223488 -0.002051811 -0.022352176 0.00022942887
000010 dd 27 2a bd c8 ff db 3c bf 63 0a bd dc 4e c0 3c
       -0.041541923 0.026855364 -0.03378653 0.023475103
000020 a7 42 82 3c e6 02 15 bd 4e 7a 45 3c 61 fd a0 3d
       0.015900923 -0.036379717 0.0120530855 0.07860828
000030 17 db 95 bd b1 d9 63 bd b8 0a 20 bd 59 1e 90 bd
       -0.07317179 -0.05562753 -0.039072722 -0.07037038
000040 05 4c c8 bb 54 08 12 bd 53 8d f9 3c 90 82 b5 bb
       -0.006112578 -0.035652474 0.030462896 -0.005539246
000050 bc 82 b5 3c 2b bd 9e bb 31 f2 0c bd a2 d7 7b 39
       0.022157066 -0.004844328 -0.03441066 0.00024017555
000060 a7 0c e3 bc 02 b7 bc bd b6 90 3a bd 36 a0 8b bc
       -0.027715994 -0.092145935 -0.045548163 -0.017044168
000070 f5 e3 3f bd 76 a7 2c bd 05 db b2 bd f6 62 8a 3a
       -0.046848256 -0.04215189 -0.08733181 0.0010558057
000080 5c b3 a7 bd 20 49 42 bc e4 8f 4b bd 54 0a 93 3c
       -0.08188507 -0.011858255 -0.04969777 0.01794926
000090 2c 7b 6c bb c2 d7 5c bc 54 20 3a bd a9 5f 8e bd
       -0.0036084158 -0.013479175 -0.045440987 -0.069518395
0000a0 6f eb 03 bd 72 78 d8 ba 34 33 26 bd 52 b6 a2 bc
       -0.03220695 -0.0016515388 -0.040576175 -0.019862328
0000b0 77 12 18 bc 59 07 97 bd 66 02 ab bd 8a 28 67 bd
       -0.009281746 -0.07374448 -0.08350067 -0.056435145
0000c0 b6 68 5f bd 41 a2 8f 3c 96 ca f6 bc 97 13 93 bc
       -0.05454322 0.017533423 -0.030125897 -0.017953677
0000d0 2b 9b 9e 3b f7 3d 01 3a 41 95 a6 bc d4 d5 54 bd
       0.004840275 0.0004930193 -0.020334842 -0.051961735
0000e0 28 4d 8e bd d5 a4 04 bd 51 48 8d bd 74 7b c0 bc
       -0.0694831 -0.03238376 -0.06898559 -0.023496367
0000f0 0c c6 44 3d 4f 18 5b bd 11 86 c1 bd 13 93 23 bd
       0.048040435 -0.05348998 -0.09449399 -0.039935183
000100 72 f9 b1 bd 67 d2 60 bd 0a 09 5b bd cb 4c 89 bc
       -0.08690156 -0.054888155 -0.053475417 -0.01676025
000110 74 40 d3 bc 27 78 f0 bc 27 3f 31 b8 07 82 ae 3c
       -0.02578757 -0.029354168 -4.2258904e-05 0.021302236
000120 09 37 b4 bd 05 f7 46 bc 5e 82 ae bb 1c aa 7a bd
       -0.087995596 -0.012143855 -0.0053255996 -0.061197385
000130 18 84 0d be 44 94 5e bd 95 95 38 3c 82 86 08 bd
       -0.13819921 -0.054340616 0.011266132 -0.0333314
000140 2f 7e 3d bd c6 52 75 bd 92 6c 2b bd 13 f4 ba bd
       -0.046262916 -0.059893392 -0.041851588 -0.09128585
000150 67 3d ef bc ef 73 0c 3d fc a3 98 bd b9 32 72 3d
       -0.029204084 0.03429025 -0.074531525 0.059130404
000160 4e ba fe 3b 0b ad c2 bc 62 0d 8f bd 0d 6e a9 3d
       0.007773674 -0.023764154 -0.069849744 0.08272944
000170 77 ef 84 bc d4 fc c0 bc 13 fe 62 bc d0 d5 9b 3a
       -0.016227467 -0.023558058 -0.013854521 0.0011889283
000180 ed 4f b9 3c 07 7a 16 39 db b4 19 bd 8c f6 21 3d
       0.02262112 0.00014350573 -0.037525993 0.039541766
000190 0a 7b f6 bc 07 fd 53 bd 5e c8 3a bd 93 f7 3f bd
       -0.030087966 -0.051754978 -0.04560124 -0.046866965
0001a0 33 be 15 bc a6 41 0c ba a2 d0 a4 bc 67 67 9b bd
       -0.009139585 -0.00053503586 -0.020119015 -0.07588082
0001b0 21 2d 89 bc e5 7e 8a bc 8e 03 15 3d ef 1e 83 bc
       -0.016745152 -0.016906211 0.036380343 -0.016005961
0001c0 98 c7 d1 bc b5 46 d4 bb ff dc 75 bd 2e f1 0c 3c
       -0.025607869 -0.0064781555 -0.06002521 0.008602424
0001d0 f6 55 c6 bd 03 0d cf ba 7c e0 59 bd e7 86 d5 3c
       -0.096843645 -0.0015796724 -0.0531926 0.026065303
0001e0 c1 d9 56 bd 64 93 12 3a 9f 63 34 bd 48 52 9b 3c
       -0.05245376 0.0005591421 -0.04404032 0.018960133
0001f0 02 c8 ae bc ab c8 02 3b 7d a1 2c 3c 90 cb 1a bd
       -0.021335606 0.0019956033 0.010536549 -0.03779179

network_body.linear_encoder.seq_layers.0.weight f4 [128, 5]
000000 1b 35 dd be 88 14 8f be 42 ce 2b bf 88 27 bd 3d
       -0.4320458 -0.27945352 -0.671116 0.092360556
000010 07 e7 47 3f 5b dc 3d 3f 86 84 63 3e de 67 75 3e
       0.78086895 0.7416436 0.22218522 0.23965403
000020 f2 09 eb be 62 3a 8d be ab 69 23 3e 56 3a 0d bf
       -0.45906025 -0.27583605 0.15958278 -0.5516714
000030 b0 60 91 bc 7d 1d 16 3e 39 0b 6e bf cf 52 a5 3d
       -0.0177463 0.14659686 -0.92985874 0.08072435
000040 da ec af 3e 58 16 52 3f c9 ea 9a 3e 1b 76 ee bc
       0.3436039 0.82065344 0.30257252 -0.029109051
000050 ca 3f 97 be 48 b9 36 3f 24 a5 65 bf a7 db 2d 3f
       -0.29540855 0.71376467 -0.8970511 0.6791329
000060 06 91 d3 3e d5 a8 b6 be 6d 00 fc be d8 0e 15 3f
       0.41321582 -0.35675684 -0.49219075 0.58225775
000070 f0 46 c5 3e 21 7b 80 3d 7e 39 33 be 2d 53 c5 3e
       0.38530684 0.06273485 -0.175024 0.3854002
000080 dd 56 67 3e 3d b1 86 3e 80 23 1b 3f 53 cd 08 bf
       0.2259173 0.26307097 0.60601044 -0.534383
000090 b3 91 05 be 08 c5 83 be 7a 0d 1b 3e f0 44 30 3e
       -0.13043861 -0.2573626 0.1514186 0.17213798
0000a0 65 47 b3 be c8 73 03 3f e8 00 2e 3f 2d bb 04 3e
       -0.35015407 0.51348543 0.6797013 0.12962027
0000b0 70 67 cf be a3 4d ce 3e 82 0b 1f bf f0 00 83 bd
       -0.40508604 0.40293607 -0.62126935 -0.06396663
0000c0 06 42 1c 3e f3 e3 84 3d 0b d9 cf 3d 2b f6 0f 3d
       0.15259561 0.0648879 0.101488195 0.035146873
0000d0 f5 a9 64 bd 06 3d 43 3f 43 6d 5f 3e f5 1c f9 3b
       -0.055826146 0.7626499 0.21819024 0.007602329
0000e0 b7 2c 00 bf 9c 11 1d be 79 42 26 3f d2 e7 da 3d
       -0.5006823 -0.15338749 0.6494518 0.106887475
0000f0 9f 2c aa bc 26 eb 97 3e 55 32 62 bd 0f f1 98 be
       -0.02077323 0.29671592 -0.05522378 -0.29871413
000100 e2 9b 5a bf 09 61 04 bc 79 34 3a be 30 9c 8f be
       -0.8539411 -0.008079776 -0.18184079 -0.2804885
000110 bf 67 1f 3f 02 8a a4 be 8e 7e 48 be 75 db 4e be
       0.6226768 -0.32136542 -0.19579527 -0.20200904
000120 c1 b1 0e 3e 7e 6e 88 bd ab 1d 9b bd 5c ed 57 3f
       0.13934995 -0.066617 -0.07574018 0.84346557
000130 44 ef eb 3e c8 92 57 3e 0f 08 6d be fa 2b d3 bd
       0.46080983 0.21052086 -0.23147605 -0.10311122
000140 30 ae 19 bf 8c 16 41 3e 49 69 22 3f 10 dd dd 3e
       -0.60031414 0.18856257 0.634419 0.4333272
000150 7b 03 5d be 5b dc 0b 3f b0 36 42 3d fa c4 36 3e
       -0.21583359 0.5463311 0.047415435 0.17848578
000160 db bd 8b 3e 25 8d 0d bf 8d ab d2 bd d8 e9 11 bf
       0.27293286 -0.55293494 -0.10286627 -0.5699744
000170 00 bf 30 3e 8a 8b d3 bd 7c 1c bf 3e b3 ec a1 3e
       0.1726036 -0.10329349 0.3732642 0.316259
000180 f3 48 d5 be 3c 1e 45 be 1f f9 c1 3e d8 1a 1f 3f
       -0.41657218 -0.19249815 0.37885377 0.62150335
000190 5b 22 ef be 69 b7 18 bf 03 db df be 7e a7 1e 3f
       -0.467059 -0.5965486 -0.4372178 0.6197432
0001a0 4d a3 32 bf 73 8f 66 3e 86 29 81 3e fb 5d 64 bb
       -0.6978043 0.22515659 0.25226992 -0.0034846056
0001b0 ea c4 25 bf 5b 1e 8d be 8c 2a 03 bf 4e 35 4d 3d
       -0.6475359 -0.27562222 -0.51236796 0.050099663
0001c0 b4 0d 15 be 87 1f 16 bf 29 d6 8b bc ab 04 21 bf
       -0.14556009 -0.58641857 -0.017069893 -0.6289775
0001d0 be 71 ed 38 8d bd 49 3e 30 7c e9 bd ab 71 a7 be
       0.00011322227 0.19701214 -0.1140064 -0.3270391
0001e0 34 2e 0d be 42 ef 16 3e 56 c0 f2 3e 42 d5 b1 3e
       -0.13787156 0.14739707 0.47412366 0.34733015
0001f0 cf 57 05 3d 20 6c 4a 3e f4 97 be 3e bd d3 13 3e
       0.032554444 0.19767809 0.37225306 0.1443624
000200 d4 a2 d7 be dc a3 9e 3d 57 3b 0e 3f 9c 15 d1 be
       -0.42116416 0.077460974 0.55559295 -0.408368
000210 e2 0b b9 3e 11 e3 93 3d b1 97 84 3f d4 a4 3c bf
       0.36141878 0.07221044 1.0358793 -0.7368901
000220 7f f7 c1 3e 0e f1 50 bf ff 72 df bd 78 c9 3e be
       0.37884137 -0.8161782 -0.10910606 -0.18631542
000230 5f f3 08 bd 4c 5d 6e 3e 42 8b 24 be c4 d6 cb 3b
       -0.03343522 0.23277777 -0.16068748 0.0062206704
000240 12 a0 26 bd 13 53 97 be 00 78 a7 bf 70 5a 54 3e
       -0.04068 -0.29555568 -1.3083496 0.20737624
000250 f0 18 1e 3f 5b 67 84 bf 13 27 4b be 6d 63 41 3e
       0.617568 -1.0344042 -0.19839124 0.18885584
000260 27 c2 41 bf a9 9c ff be 3f 73 7c 3d 07 92 39 be
       -0.7568688 -0.4992421 0.061633345 -0.18122111
000270 65 0f d6 3e b2 a8 e0 3e f3 f7 07 be 15 e7 30 bf
       0.4180862 0.43878704 -0.13278179 -0.69102603
000280 c4 e1 07 3d f9 0d 8f be ff 38 bd 3d c8 21 02 be
       0.03317429 -0.27940348 0.09239387 -0.12708199
000290 2e a8 bf 3e 35 e4 5a bf 8f 16 ea bd 2d d5 99 3e
       0.37432998 -0.85504466 -0.11430084 0.30045453
0002a0 5a 4d d9 be 1a 53 c1 be 64 98 4a 3c a7 c0 d4 be
       -0.42441827 -0.37758714 0.012365434 -0.41553232
0002b0 ef be 18 3d c8 a2 00 3d 47 bd 33 be 99 cf 94 3e
       0.037291463 0.03140524 -0.17552672 0.29064634
0002c0 8e 54 41 be be a3 db 3e 89 05 31 be 1d 53 ce be
       -0.18879911 0.42898363 -0.17287268 -0.40297785
0002d0 05 a4 03 3f 59 8c ec 3d e0 32 67 3b 25 98 b8 be
       0.5142215 0.11550207 0.0035278127 -0.36053577
0002e0 d6 f9 db be 8b 4e 26 be b5 01 08 bf 02 5e 06 3e
       -0.42964047 -0.162409 -0.53127605 0.13121799
0002f0 fb ef c8 3e f3 af 63 be 9c 6f 34 bf f3 66 ba be
       0.3924559 -0.22235088 -0.704828 -0.3640667
000300 47 d5 9a 3e 91 74 a2 be 6c 86 d4 be fc f5 24 3e
       0.30240843 -0.31729558 -0.41508806 0.1610946
000310 cd 6a cb 3e e0 e1 0d bf b8 e0 86 be 1d ca c8 be
       0.3972992 -0.5542278 -0.26343322 -0.392167
000320 ae 94 38 bf e7 59 25 be 66 c2 b8 3e 1f 8a fc 3d
       -0.7210187 -0.16147576 0.36085814 0.12331032
000330 ea 2e 48 3e 6e 06 e6 be 3c ca 6d 3f 7c 9f 00 bf
       0.19549146 -0.4492678 0.9288671 -0.50243354
000340 0a 38 21 3f ae 12 95 be 85 f1 07 3f 9e 8f 24 be
       0.62976134 -0.29115814 0.53102905 -0.1607041
000350 84 0c b4 3e 4c 54 05 bf f4 15 c7 3e c8 1e 8d 3f
       0.351658 -0.5208175 0.38883936 1.1025019
000360 cc a5 d6 3d 02 27 9c 3e 62 7d 85 bf f5 56 de 3d
       0.10480842 0.3049851 -1.0428889 0.108564295
000370 92 52 e2 3e d7 c4 be 3e 4c af 2a 3e 45 65 3d be
       0.4420362 0.37259552 0.16668433 -0.18495663
000380 fc cd ca 3e 6a ea 91 3d 09 89 4f be 26 bb 11 3e
       0.3961028 0.07124789 -0.20267119 0.14231548
000390 aa f3 38 be 40 64 3f 3d ec 2b 39 be 5f 81 38 be
       -0.180617 0.046726465 -0.18083161 -0.18018101
0003a0 1a 85 a7 3e 14 20 34 3e 96 84 e4 3e 00 cd 30 3f
       0.32718736 0.17590362 0.44632405 0.69062805
0003b0 3e 69 60 3e 42 d5 c9 bd ad 97 92 3e c9 8b d9 3d
       0.21915147 -0.09855129 0.28631344 0.10622365
0003c0 a9 fb ba bd 8c fe 35 3f 6a 59 42 3f 6f f7 92 3e
       -0.091300316 0.7109153 0.75917685 0.28704402
0003d0 c3 1c 2e 3e dc 36 39 bf dd 6f 47 3e 0b e9 b3 bc
       0.17003159 -0.72349334 0.19476266 -0.02196171
0003e0 1f bb 3a 3f 1f 6a 2f 3e 88 ac dd 3e 33 18 28 be
       0.72941774 0.17130326 0.43295693 -0.16415481
0003f0 da 2a 63 3e 7e 45 43 be 07 be ad be ba 28 ce 3e
       0.22184315 -0.19069478 -0.33934042 0.40265447

network_body.linear_encoder.seq_layers.2.bias f4 [128]
000000 f7 40 be bc c9 31 74 bb a0 dd e1 bc b3 a5 b3 3b
       -0.023224337 -0.003726112 -0.0275715 0.0054823994
000010 43 3e b5 bc 61 d7 ac 3c 75 1a a0 bb 70 e3 cc bb
       -0.022124415 0.021098794 -0.0048859664 -0.0062526986
000020 91 8c d9 bc e6 4c 5c bd 4c cb 4c bd 8e bd 34 bd
       -0.026556285 -0.053784274 -0.049998567 -0.044126086
000030 31 b1 f9 bc e3 49 a5 3c 8c a8 8a bc bf 68 05 bd
       -0.03048 0.020176833 -0.016926073 -0.032570597
000040 15 e4 1f bd c6 0c 95 bc 37 bb dc bc fc 3c 4f 3b
       -0.039035875 -0.018194567 -0.02694474 0.0031622043
000050 37 e5 26 bd 05 89 fb ba 1e a6 c5 bb 58 6d 06 bd
       -0.04074594 -0.0019190615 -0.0060317656 -0.032819122
000060 fb 42 fa bc 21 85 92 3a 97 ce 32 3b c6 ac 51 bd
       -0.030549517 0.0011178592 0.0027283782 -0.05119016
000070 cd 23 08 bd b1 c5 c4 bc 07 66 bc 3c 22 31 ce 3c
       -0.033237267 -0.024020048 0.02299787 0.025169913
000080 b8 18 48 bd b4 ff 38 bd d5 cb 96 bc 35 29 71 bd
       -0.0488517 -0.045165733 -0.018407742 -0.05887719
000090 34 65 54 bd 58 93 d5 bc 7e 01 d5 3c 2b a1 8e bc
       -0.051854327 -0.026071236 0.026001688 -0.017410835
0000a0 bf 37 02 bd 31 81 25 bd 3a 4c 8d bc 77 0c 3a bd
       -0.031791445 -0.04040641 -0.017248262 -0.045422044
0000b0 18 c4 fa 3c ea 35 4d bc ae f3 f0 bc 29 79 95 bc
       0.030611083 -0.012525061 -0.02941307 -0.01824625
0000c0 fe 18 2e bd f8 8d 69 bd 30 04 17 3d 7b 1b 62 bc
       -0.042504303 -0.057020158 0.036869228 -0.013800497
0000d0 83 d2 93 bd fb 45 5f bd 23 0a 99 bd 45 4e ed bc
       -0.07217886 -0.054510098 -0.074726366 -0.028967986
0000e0 41 03 62 3b 0e ba bf bc 85 01 99 bc 61 94 6a bd
       0.0034486803 -0.023404147 -0.018677482 -0.05727041
0000f0 32 54 8b bd 9f 98 c7 bc 58 95 62 bd 3f 43 c6 bc
       -0.06803168 -0.024364768 -0.055318207 -0.024201987
000100 ac e7 48 bc 2d f7 5f bc da eb d7 bc f8 d2 62 bd
       -0.012262266 -0.013669771 -0.02635758 -0.055376977
000110 e0 6b 9b bc 70 fd 17 bd 71 e4 37 bd 78 12 00 bd
       -0.018972337 -0.03710693 -0.044895593 -0.031267613
000120 e5 7e 8f bd f8 c5 1e bd ff dd 64 bd 86 38 7e bc
       -0.07006625 -0.038763016 -0.055875774 -0.015516406
000130 2a ca cd 3c 29 50 9a bd 49 ca 3d bd 87 34 88 bd
       0.025120813 -0.075348206 -0.046335492 -0.06650644
000140 bb f0 f3 bc c8 ab f1 bc 84 62 4b bd 1b d4 3c bd
       -0.029777875 -0.029500857 -0.0496545 -0.046100717
000150 e2 ba 5a ba 45 52 9f 3c 4e 69 c2 bb 96 e5 71 bd
       -0.0008343888 0.019448409 -0.0059329635 -0.05905684
000160 c7 10 39 bd cf 38 f9 bc 1a ad 04 bd 74 60 5e 3c
       -0.045182016 -0.030422596 -0.032391645 0.013572801
000170 33 ed 8d bd f2 45 ba bb 1c 9d 4a bc a7 ca 03 bd
       -0.06930008 -0.0056846077 -0.012366559 -0.032175686
000180 90 5c c8 3a fb a8 92 bc b5 b8 7e 39 eb a3 1c 3d
       0.0015286375 -0.017902842 0.00024292136 0.03824226
000190 29 42 87 3c 31 c8 d0 3c 79 2d 04 bd 07 9e bb 3b
       0.01651104 0.025486084 -0.03226993 0.0057256254
0001a0 4c 02 a2 3c e8 5b c5 bc 30 3b 3b 3c 2e af 36 bd
       0.019776486 -0.024091676 0.011427686 -0.044600658
0001b0 4c af b4 bc 59 13 33 bd 79 4d 11 bd 14 c9 d7 3c
       -0.022056244 -0.043719623 -0.035474274 0.026340999
0001c0 63 bd 13 bc 38 9d 43 bc eb a3 8b bc 4c 46 85 bd
       -0.009017321 -0.011939339 -0.017045936 -0.06507549
0001d0 cf 05 d5 bb 06 5c 14 bd 37 5f 49 bd a8 17 1a bd
       -0.0065009366 -0.036220573 -0.04916307 -0.037620217
0001e0 bf 8c 88 bb 55 c5 f3 bc 9b 4e 0a bd 4b 37 4f bd
       -0.004167169 -0.029757181 -0.03376637 -0.05058984
0001f0 d8 58 a7 bc 49 76 dd bc 13 3f a7 ba d7 98 e9 ba
       -0.020428106 -0.027033942 -0.0012759886 -0.0017822039

network_body.linear_encoder.seq_layers.2.weight f4 [128, 128]
000000 ff c2 d3 bd 79 d2 1c bd 25 70 0b bd ba 2e 08 be
       -0.10339927 -0.03828666 -0.034042496 -0.13299075
000010 90 01 d6 3d 22 dc d3 bc be 57 3b bb ab 4b 79 bd
       0.10449517 -0.025861803 -0.0028586234 -0.06086318
000020 98 e1 ec bb ee ff da bb 6c 5d 30 3e 08 01 ad 3d
       -0.0072290413 -0.006683341 0.17223138 0.08447462
000030 05 35 d8 3c bd e1 f7 3d 84 a6 4e 3c 0c b9 40 bc
       0.02639247 0.12103603 0.012612943 -0.011762869
000040 61 fa 7b bd a1 fd 53 3d 86 1c 56 bd 80 9f c1 bd
       -0.061518077 0.05175555 -0.052273296 -0.0945425
000050 d4 8d 15 b9 6a e9 d8 3d 02 9c 1a be f7 fe 96 bd
       -0.00014262582 0.10591395 -0.15098575 -0.073728494
000060 b6 4d b2 bd 5a 87 4a be d6 c9 b2 bd 1a 5a b9 3d
       -0.087062284 -0.19778195 -0.087299034 0.09050389
000070 ca 40 8e 3d 91 a3 e3 3d 30 07 63 3d 0f 8d dd bc
       0.06945951 0.11115182 0.055426776 -0.027044801
000080 5a e3 e7 3a 03 96 da bd 54 fc 2a 3e 2d d6 28 be
       0.0017691657 -0.10673144 0.16697818 -0.16487952
000090 5d 5f 01 3d 6d 9e d1 bb a0 e2 3e be 12 ce 30 be
       0.031585086 -0.0063970597 -0.18641138 -0.1726611
0000a0 87 4b 3f 3d 73 1b df bd 36 7d 9a 3b 92 3b 3f 3e
       0.046702888 -0.108939074 0.0047146333 0.18675068
0000b0 9d 3e d4 bd f9 e0 3b be 05 12 db 3c 9d 6f 87 3d
       -0.10363505 -0.18347539 0.02674199 0.066130854
0000c0 36 15 0c be ab 15 01 bd 49 dc 09 be 02 60 2d be
       -0.13679966 -0.031514805 -0.13462938 -0.16931155
0000d0 ba 3b f5 bd d5 5b 41 be a1 16 99 bd 6a 8a f8 3d
       -0.119742826 -0.18882687 -0.07475019 0.121357754
0000e0 ee 4b 91 3d 4e ac 0b 3e af f2 0b 3d 88 fd 5f bc
       0.070945606 0.13639948 0.034166988 -0.013671286
0000f0 9d a5 15 be 3a e4 10 3e 22 67 0e 3d c6 b9 2c 3d
       -0.14613958 0.14149562 0.034766324 0.042169355
000100 f6 46 43 3d cc 8c 60 39 21 b3 3c 3a 74 14 71 ba
       0.047675095 0.00021414756 0.0007198323 -0.0009196468
000110 f3 c4 06 be 8a 77 09 bd 04 22 b4 bc c6 12 26 3c
       -0.13161068 -0.033561267 -0.021988876 0.010136312
000120 81 37 e5 bb 59 02 8f bd 2b 44 e7 bc 37 d9 24 bd
       -0.006995142 -0.0698287 -0.028230747 -0.040246215
000130 7f 1d 1b 3d b4 c0 02 3e 9f 81 ce 3d de c0 43 be
       0.037869927 0.12768823 0.10083317 -0.19116542
000140 7a e2 42 3c f0 c3 9c bd 25 4d 06 be b3 ae 56 3e
       0.0118948165 -0.076545596 -0.13115366 0.2096508
000150 07 74 10 be d8 26 38 be 36 be 7d 3c 42 a2 da 3d
       -0.14106761 -0.17983568 0.015487244 0.106754795
000160 c1 8f 3a be 54 ba 2d 3c 3b 4e 34 be 96 d2 0d bc
       -0.182189 0.010603506 -0.17607968 -0.008656165
000170 1d f4 9c 3d 59 8b 40 bd 35 89 9e bc 34 55 3f 3b
       0.076637484 -0.047007892 -0.019352535 0.0029195072
000180 c6 d6 ae bc b6 93 ac bc 2f 6f 9f bc cc 7e 8a 3c
       -0.021342646 -0.021066528 -0.019462196 0.016906165
000190 12 5e c7 3d 7c 58 42 be 4d 93 c9 bd b3 d0 d1 bd
       0.09734739 -0.18979067 -0.098425485 -0.10244884
0001a0 e7 f9 1f be 6e 6d a0 bc b1 27 8c bd 43 ba d1 3d
       -0.15622674 -0.01958343 -0.06843508 0.10240605
0001b0 f5 af 1c be 7e bf f7 bd d3 e6 f6 bd 6e cf a2 bc
       -0.15301497 -0.12097071 -0.12055745 -0.0198743
0001c0 57 b6 a2 3d ac 0c 9f 3c 85 35 01 bd fc 4c 1d bc
       0.07944935 0.019415222 -0.03154518 -0.009600874
0001d0 ca b4 4d bd 6c 29 37 bd d4 e3 1d 3c 0d 91 f8 bd
       -0.050221242 -0.044717237 0.009636838 -0.12137041
0001e0 62 43 a4 3d e4 bf 0e be 7f da 94 bd 91 2f 28 bb
       0.08020665 -0.13940388 -0.07268237 -0.0025663117
0001f0 be ea a5 3d b8 d8 9f bd 22 68 0b be 52 0d 48 3d
       0.08101414 -0.07805008 -0.13613942 0.04884083
000200 1c 6a 05 be 86 f2 e4 3d d4 79 b9 bd ca 34 c0 3d
       -0.13028759 0.1117907 -0.0905644 0.09385069
000210 86 2c a8 3d da 3b 43 3d 0a 51 5a bd 47 d6 09 3d
       0.08211617 0.0476645 -0.05329994 0.033651616
000220 bc 5f 2f bc d8 e4 21 3e 16 8f 01 3d 1d fb e0 3d
       -0.010703977 0.15809953 0.031630598 0.10985396
000230 84 2f e9 3d 36 36 b6 3d ec 61 98 3d 31 ae 5f 3c
       0.11386016 0.08897059 0.07440552 0.01365237
000240 79 1a 44 3d f7 47 e2 bd 2e b6 af bc 7f 8c e1 3c
       0.04787681 -0.110488825 -0.021449175 0.027532814
000250 f1 32 03 3e 3b de a5 3d 50 d0 7d bd 01 2d 0c 3e
       0.12812401 0.08099028 -0.06196624 0.13689043
000260 dc 2b 9e 3d 5a f4 a2 3c e0 4f 27 3a ec e4 07 3e
       0.07723209 0.019891907 0.0006382447 0.1327092
000270 b1 3d d2 bc 81 36 88 3b 50 37 13 bd 9c a0 b8 3d
       -0.025664182 0.004156888 -0.035941422 0.09015009
000280 2e 41 13 be 4d 04 7b 3d 90 44 17 3e a9 19 5f bd
       -0.14380333 0.0612834 0.14772248 -0.05446783
000290 77 33 fb 3d c5 25 5e 3d 96 d7 ff bc e5 02 e9 bd
       0.122656755 0.05423524 -0.03123073 -0.11377505
0002a0 b9 05 2a 3b 3d 44 0b bd a4 87 49 3e 34 92 2d 3e
       0.0025943352 -0.034000624 0.19680649 0.16950303
0002b0 74 6d dc 3d c7 ba f0 bd da 62 3e 3c f7 f0 d7 3d
       0.10763064 -0.11754375 0.011620248 0.10544007
0002c0 44 7c 35 bd 79 73 d2 bd 37 7a 33 3c 01 42 d7 bd
       -0.044307962 -0.10275931 0.010954431 -0.10510636
0002d0 21 df 98 3c 23 0d e0 3d 6b 81 0e 3d 44 42 da 3d
       0.018661084 0.10940006 0.03479139 0.106571704
0002e0 c7 2f 5b 3d 2f b0 e5 ba d0 1b af 3d 92 ce e3 bd
       0.05351236 -0.001752382 0.08550227 -0.111233845
0002f0 d9 be 94 3d c1 e8 a0 3d 0a f8 de 3b 34 60 8a bc
       0.07262964 0.07856894 0.006804471 -0.016891576
000300 a6 b9 f3 3d 6b 0d a3 bd 92 e2 04 bc 8f 1b c1 3d
       0.11900644 -0.07961544 -0.008110659 0.094290845
000310 f8 6e ef 3b 29 d1 2d be 1c 44 5c 3e f5 cd da 3d
       0.0073069297 -0.1697432 0.21510357 0.106838144
000320 ab c1 29 bd 92 3f c2 bb b4 d3 4e be 9f c7 d5 3d
       -0.04144446 -0.0059279883 -0.20197946 0.10438465
000330 51 f0 90 bc f1 57 88 3d 13 17 c8 bc a0 60 b1 3c
       -0.017692717 0.066573985 -0.024425065 0.02165252
000340 b7 ba dc bd cf 7a 22 3d a6 73 3e bd 47 e3 ab 3d
       -0.107778005 0.0396679 -0.04649701 0.08392959
000350 a5 5a 38 be 46 48 8f bb 79 21 89 bd 06 de df bd
       -0.18003328 -0.0043726293 -0.066958375 -0.109310195
000360 a9 02 ce bc e5 b3 e2 bd 9e bf 22 be be fc 81 3d
       -0.025147753 -0.110694684 -0.15893409 0.06347035
000370 29 29 9d 3d 2c 62 68 bd e2 ed 05 3e c6 05 30 3d
       0.07673866 -0.05673425 0.13079026 0.042974256
000380 8d c8 7e bd d9 a2 9d bd 6d b4 b1 3c 34 14 b4 3d
       -0.06220298 -0.07697076 0.021692479 0.08792916
000390 fd 1a 22 3d 57 c8 ce 3d 43 8c 90 3d fc b3 dd bd
       0.03957652 0.100968055 0.07058003 -0.10825345
0003a0 75 53 84 3c 0d 99 fe bb ca ae c0 bd 01 65 09 3c
       0.016153077 -0.00776971 -0.09408338 0.008385898
0003b0 65 23 b3 3d 9c 1d 11 be 60 1e 09 3d 92 bd 15 3d
       0.08746985 -0.14171451 0.033476233 0.03655774
0003c0 69 b2 07 3d 70 30 cb bd ba d8 26 bd a4 bb 68 3c
       0.03312913 -0.09921348 -0.04073403 0.014204893
0003d0 1d 53 e6 bb e1 a9 5f 3d 83 31 9f bd 7e 3e 97 bd
       -0.007028951 0.05460537 -0.077731155 -0.07384966
0003e0 ae 45 90 3d f3 37 35 be 2b 34 c0 bc b0 66 25 3c
       0.0704454 -0.17697124 -0.023462376 0.010095283
0003f0 5f df 5c bd 0e f0 9a 3d 43 ce 6c 3e c6 25 75 3d
       -0.05392396 0.07565318 0.23125558 0.059850477
