Assets/Viborin2.onnx (onnx, 71919 bytes, 5 tensors)

action_model._continuous_distribution.mu.weight f4 [1, 128]
0.07286869 0.06307459 0.09138325 0.023423707 0.018283788 0.03278867 0.06720947 0.08381254
0.026089123 0.06729595 0.026036393 0.025679488 0.06557302 0.032173898 0.009179943 0.004973534
0.10661112 0.0835098 0.0446172 0.046501897 0.07957287 -0.007869396 0.100820385 0.11068451
0.053883858 -0.058050063 0.08187296 0.014365659 0.08213593 0.011310905 0.07017435 -0.00081976235
0.0097063705 0.033648066 0.095912874 0.059108354 0.060374517 0.046364535 0.015297682 0.0041695
0.012455919 -0.011588735 -0.069080964 0.031651918 0.062314544 0.026863664 0.008829258 -0.025985982
0.051043157 0.04995058 0.06877498 0.04222469 0.013521012 0.10080382 -0.013459691 0.07072514
0.01776332 0.032967106 0.05914322 0.0077280984 0.053012773 0.05583577 0.030388713 0.044065807
0.047598086 0.04621686 0.036157664 -0.06460215 0.05636012 0.053814262 0.013907681 0.024129348
0.019016275 0.06356023 0.028871322 0.0760003 0.045158472 -0.03903221 0.021694217 0.11330635
-0.0028625636 0.081552394 0.014541422 0.06797653 0.059098974 0.0550405 0.010097368 -0.024126485
0.100391544 0.024468983 0.0471446 0.039381824 0.08270712 0.09287432 0.028452517 0.11711045
0.10392952 0.10299748 0.052467007 -0.0325478 0.0069425423 0.02161839 0.039899558 0.01836469
-0.042084947 0.013577938 0.09300185 -0.0038686774 0.13038069 0.027680516 0.041490328 0.0818089
-0.047007103 0.015445826 0.061002854 0.09123159 0.025417898 0.039543614 -0.06577883 0.063615024
-0.022545528 0.00054970034 0.021238232 -0.062440086 0.07634557 0.08588349 0.02018261 0.0019161212
00000000: 2e3c 953d 402d 813d 2427 bb3d 13e3 bf3c
00000010: e2c7 953c 6a4d 063d 1ea5 893d e9a5 ab3d
00000020: dbb8 d53c 76d2 893d 464a d53c ca5d d23c
00000030: 264b 863d c7c8 033d 7967 163c 07f9 a23b
00000040: ee56 da3d 3007 ab3d 86c0 363d c678 3e3d
00000050: 1af7 a23d a4ee 00bc eb7a ce3d 8fae e23d
00000060: 52b5 5c3d e7c5 6dbd 03ad a73d f15d 6b3c
00000070: e236 a83d 6051 393c 92b7 8f3d 52e5 56ba
00000080: 7807 1f3c 8ed2 093d f86d c43d 9a1b 723d
00000090: 454b 773d bde8 3d3d 21a3 7a3c 4da0 883b
000000a0: e913 4c3c adde 3dbc 527a 8dbd 71a5 013d
000000b0: 893d 7f3d 3011 dc3c 98a8 103c 8ee0 d4bc
000000c0: a112 513d fb98 4c3d e6d9 8c3d ccf3 2c3d
000000d0: 3c87 5d3c 3c72 ce3d 0986 5cbc 58d8 903d
000000e0: 6284 913c 8408 073d 2940 723d fd3b fd3b
000000f0: ec23 593d 0cb4 643d c0f1 f83c 597e 343d
00000100: 36f6 423d e44d 3d3d 0f1a 143d 224e 84bd
00000110: dfd9 663d 586c 5c3d 0bdd 633c e9aa c53c
00000120: 05c8 9b3c de2b 823d 8d83 ec3c 0ca6 9b3d
00000130: 17f8 383d 3de0 1fbd 12b8 b13c 290d e83d
00000140: d999 3bbb f104 a73d 253f 6e3c 4737 8b3d
00000150: c411 723d 2672 613d 6e6f 253c e8a4 c5bc
00000160: 159a cd3d 2d73 c83c b21a 413d d64e 213d
00000170: 5a62 a93d e434 be3d 4115 e93c 9bd7 ef3d
00000180: 00d9 d43d 58f0 d23d a5e7 563d d850 05bd
00000190: 447e e33b 0d19 b13c b86d 233d 8c71 963c
000001a0: 4461 2cbd 0076 5e3c c177 be3d a389 7dbb
000001b0: 8482 053e 40c2 e23c c3f1 293d 6d8b a73d
000001c0: 858a 40bd 7d10 7d3c 21de 793d a1d7 ba3d
000001d0: 3239 d03c 7cf8 213d 0db7 86bd 9848 823d
000001e0: 66b1 b8bc c419 103a cdfb ad3c 2dc1 7fbd
000001f0: 115b 9c3d afe3 af3d 0056 a53c 5c26 fb3a

network_body.linear_encoder.seq_layers.0.bias f4 [128]
-0.062594794 -0.10656517 -0.0016410603 -0.18936749 0.015501244 0.04193383 -0.048544448 -0.044825133
-0.070270404 0.0058639394 0.018580334 -0.10203337 -0.006327104 -0.06617271 -0.053318936 -0.08767875
-0.11233782 -0.08946583 -0.11047255 -0.10906662 -0.05259101 0.05109113 -0.11318069 -0.053247366
-0.0925007 -0.120615944 -0.020658508 -0.14164457 -0.124521926 -0.0512421 -0.14061204 -0.12688605
-0.028972922 -0.10309667 -0.07904654 -0.0006854278 -0.09132622 -0.059566036 -0.062117733 0.060692206
-0.11202994 -0.16488785 0.008642325 0.016081432 -0.036573116 0.031331487 -0.02683451 0.0076955566
0.061724972 -0.06975578 -0.026430102 0.050825417 0.0051473067 -0.12537035 -0.06948142 -0.13523352
0.0072951843 0.00454113 -0.023779301 0.021118844 -0.0989534 -0.2552573 -0.22093035 -0.0776704
-0.15265521 -0.12643385 -0.15136719 -0.05901759 0.0023968562 -0.031671688 -0.06090316 -0.08715563
-0.15083118 -0.09307598 -0.05716231 -0.06562759 -0.05164275 0.0030296736 0.014962411 0.01099676
-0.096630685 -0.030698733 -0.139419 -0.06702133 0.024514312 -0.097019926 -0.03253484 -0.070348635
-0.06751404 0.0735592 -0.028407885 0.09994505 -0.027788421 -0.11148275 -0.04180503 -0.062415443
-0.12256516 -0.050064594 -0.15467201 -0.0680632 0.08085314 -0.09152258 0.042454556 -0.24830423
-0.10209573 -0.07255734 -0.081310295 0.02471161 0.0024606665 -0.15489839 -0.011537411 -0.12245699
0.06258731 -0.029896554 -0.090087265 -0.06589703 -0.0783601 0.009953964 -0.1291221 -0.0019641775
0.02193977 0.0509775 0.0910757 -0.05856644 -0.10887103 0.12228511 -0.05377895 -0.08058292
00000000: b331 80bd d73e dabd d918 d7ba 8de9 41be
00000010: eef8 7d3c cfc2 2b3d 8bd6 46bd 8f9a 37bd
00000020: eee9 8fbd 4a26 c03b c935 983c dff6 d0bd
00000030: 9853 cfbb 8f85 87bd f564 5abd eb90 b3bd
00000040: 5f11 e6bd dc39 b7bd 6f3f e2bd 525e dfbd
00000050: ac69 57bd ef44 513d 47cb e7bd e919 5abd
00000060: 0271 bdbd 7e05 f7bd 083c a9bc 460b 11be
00000070: 5a05 ffbd 3ce3 51bd 9afc 0fbe 6bee 01be
00000080: 9f58 edbc 5924 d3bd 27e3 a1bd 48ae 33ba
00000090: 3e09 bbbd 84fb 73bd 2a6f 7ebd 6498 783d
000000a0: f46f e5bd 5cd8 28be 8a98 0d3c 35bd 833c
000000b0: b1cd 15bd 7255 003d 0cd4 dbbc 022b fc3b
000000c0: 53d3 7c3d 1edc 8ebd f183 d8bc 502e 503d
000000d0: bdaa a83b 1661 00be 464c 8ebd a87a 0abe
000000e0: 710c ef3b c2cd 943b cfcc c2bc 6d01 ad3c
000000f0: 15a8 cabd 16b1 82be 913b 62be a911 9fbd
00000100: a651 1cbe e077 01be 0000 1bbe 6ebc 71bd
00000110: 9314 1d3b 2cba 01bd 9875 79bd a77e b2bd
00000120: 7d73 1abe 9f9e bebd 0723 6abd c267 86bd
00000130: 5987 53bd 7d8d 463b e624 753c c12b 343c
00000140: 4fe6 c5bd e97b fbbc dbc3 0ebe 7b42 89bd
00000150: 3dd2 c83c 62b2 c6bd 4143 05bd f212 90bd
00000160: cd44 8abd 35a6 963d a7b7 e8bc feaf cc3d
00000170: 8ba4 e3bc 1151 e4bd c03b 2bbd 56a7 7fbd
00000180: 7103 fbbd 8810 4dbd 5762 1ebe b864 8bbd
00000190: 5596 a53d 3170 bbbd d4e4 2d3d 7743 7ebe
000001a0: 9117 d1bd f198 94bd 0386 a6bd 0170 ca3c
000001b0: 2243 213b af9d 1ebe 6907 3dbc bbca fabd
000001c0: c72d 803d 9ee9 f4bc ac7f b8bd 06f5 86bd
000001d0: 437b a0bd f315 233c 9538 04be 6eb9 00bb
000001e0: 08bb b33c c8cd 503d e685 ba3d 5de3 6fbd
000001f0: c6f7 debd 9e70 fa3d 5147 5cbd a808 a5bd

network_body.linear_encoder.seq_layers.0.weight f4 [128, 5]
-0.5042659 -0.39309737 -0.48016816 0.9235178 -0.48661375 -0.27506655 -0.49978575 0.42560047
-0.26004586 -0.7190548 -0.33196235 0.12939094 0.9822047 -0.64400125 -0.5067938 -0.023409015
-0.6077241 -0.41911 0.010564422 0.26500708 -0.95506585 -0.20526014 0.093550175 -0.2182252
-0.47944963 0.23866737 -0.11081127 0.071925126 0.3242108 -0.41160297 0.9769677 -0.89484674
0.32170025 -0.10663877 -0.3663647 0.58351165 0.03450196 0.0043265116 -0.119440615 -0.16345131
0.276249 0.8401701 -0.065416835 -0.245813 -0.008894108 -0.23914601 0.41806367 -0.13116382
0.31199405 0.6886369 -0.058172055 0.30297288 -0.02754164 0.85034096 0.7138511 0.15275684
-0.48160738 0.44181865 0.9400676 -0.53007525 -0.2299493 0.05862116 0.34859252 -0.15019701
-0.13076012 0.30145523 0.23542465 0.2820261 -0.0071614855 0.37465653 0.047574766 0.07002473
-0.06527019 -0.12148965 -0.43741354 0.4228152 0.0011690301 0.0006176147 0.21855244 -0.13418733
0.36346734 -0.5022395 -0.49689427 -0.16113272 -0.5385956 -0.371239 -0.12649636 0.08916672
0.8997148 -0.6724635 0.20491709 0.018697841 0.08015018 0.1848658 0.24535908 -0.09065198
-0.52477896 0.31953284 -0.37528452 -0.2049217 0.40120292 0.55289596 0.12270399 0.4076782
-0.28856477 -0.19201685 0.67728704 -0.20586324 0.30373204 0.4277736 -0.14258428 -1.1218069
-0.11257907 0.46249208 0.8479976 0.17545307 0.064640194 0.36939016 0.40761167 0.3791339
0.44611084 0.9258672 -0.13632423 -0.15311205 -0.37986693 0.6992848 -0.35277575 -0.47918776
-0.26099938 -0.849742 0.059171032 -0.24225648 0.53078747 -0.35110682 0.14628217 0.15352482
-0.43804958 0.5462887 0.33143356 -0.5287158 -0.5875823 0.719746 -0.22284618 0.71239287
-0.6271672 -0.5228494 -0.67946315 0.029592477 -0.35038644 -0.28061163 0.08624651 -0.43609178
-0.076197274 -0.1778243 -1.1441549 0.6439875 0.2105678 0.78481835 -0.25967658 -0.14834812
0.24003805 -0.093672015 -0.022254115 0.6431524 0.4662076 0.26067927 -0.28360388 -0.45156506
0.028542232 -0.67583525 0.079569444 -0.20123047 0.16839767 -0.5518637 -0.6301501 0.4358094
-0.4976276 0.18812293 0.31723404 -0.0784546 -0.020398993 0.112161875 0.878747 0.14002271
-0.52554226 0.48048747 0.18209074 0.037032943 -0.2837974 0.11027559 0.65426815 0.28605703
0.22322856 0.33036727 -0.20463453 -0.30205834 -0.8183811 -0.09891029 -0.20770745 1.2097325
0.25127673 0.12527825 -0.3377223 0.10343932 0.88229156 -0.4202102 -0.14894336 0.08369083
0.9357789 0.16267508 0.013211884 0.16642177 -0.22033031 -1.1435944 0.32187155 -0.5997413
-0.84265625 -1.1986582 0.9946046 -0.39187115 0.35356507 -1.7791866 0.5348323 -0.13890633
-0.64350957 0.4057534 0.8610232 0.50739455 0.7429997 -0.83480054 0.032996386 0.7750201
0.0040937085 0.55985636 0.070380814 -0.83695 -0.87020385 -0.14536725 0.23257968 -0.07282641
-0.22489764 -0.504196 -0.96273905 -0.10618587 0.98987466 -0.015234837 0.3085786 -0.10011459
0.42978153 -0.119118646 -0.26247752 0.0073167626 -0.006864085 -0.37633502 -0.93655896 0.10245606
00000000: 9217 01bf 0f44 c9be 9ad8 f5be aa6b 6c3f
00000010: 7025 f9be 86d5 8cbe ebe3 ffbe 4ee8 d93e
00000020: bb24 85be fa13 38bf f8f6 a9be 0f7f 043e
00000030: c471 7b3f 44dd 24bf 3dbd 01bf 43c4 bfbc
00000040: ce93 1bbf 9695 d6be 6616 2d3c 02af 873e
00000050: 327f 74bf b72f 52be 3c97 bf3d 6d76 5fbe
00000060: 6c7a f5be 3865 743e 05f1 e2bd 7b4d 933d
00000070: f5fe a53e a0bd d2be 8e1a 7a3f ad14 65bf
00000080: e5b5 a43e 6d65 dabd 2794 bbbe 0561 153f
00000090: ed51 0d3d 69c5 8d3b 489d f4bd c85f 27be
000000a0: 8270 8d3e 6315 573f 43f9 85bd 67b6 7bbe
000000b0: 98b8 11bc b1e2 74be 710c d63e cf4f 06be
000000c0: afbd 9f3e 824a 303f d245 6ebd 431f 9b3e
000000d0: 019f e1bc f2af 593f f2be 363f 4a6c 1c3e
000000e0: 3e95 f6be 0e36 e23e 45a8 703f 03b3 07bf
000000f0: d477 6bbe be1c 703d b87a b23e 3fcd 19be
00000100: fbe5 05be 5758 9a3e 2913 713e ba65 903e
00000110: e5aa eabb fbd2 bf3e c2dd 423d 2069 8f3d
00000120: 61ac 85bd 91cf f8bd abf4 dfbe 3c7b d83e
00000130: 243a 993a 6ce7 213a 36cc 5f3e 6768 09be
00000140: 6418 ba3e c592 00bf ed68 febe faff 24be
00000150: 67e1 09bf 0a13 bebe 4388 01be 0b9d b63d
00000160: b653 663f 9126 2cbf c9d5 513e 372c 993c
00000170: c725 a43d 764d 3d3e 693f 7b3e bfa7 b9bd
00000180: ea57 06bf cf99 a33e 4b25 c0be fed6 51be
00000190: 786a cd3e 978a 0d3f 3b4c fb3d 32bb d03e
000001a0: c3be 93be 11a0 44be af62 2d3f d0cd 52be
000001b0: c482 9b3e 2405 db3e 9d01 12be 5e97 8fbf
000001c0: db8f e6bd c3cb ec3e 5f16 593f f8a9 333e
000001d0: 1462 843d b520 bd3e 7ab2 d03e d71d c23e
000001e0: a468 e43e a205 6d3f 9498 0bbe 68c9 1cbe
000001f0: eb7d c2be 5404 333f 069f b4be 1958 f5be
00000200: b6a1 85be b188 59bf 535d 723d 1512 78be
00000210: b0e1 073f 46c4 b3be feca 153e 9c35 1d3e
00000220: 0948 e0be 94d9 0b3f a9b1 a93e eb59 07bf
00000230: cb6b 16bf 4641 383f ca31 64be 615f 363f
00000240: 088e 20bf 75d9 05bf 4cf1 2dbf ec6b f23c
00000250: da65 b3be 54ac 8fbe 03a2 b03d 6c47 dfbe
00000260: 510d 9cbd 9317 36be ab73 92bf 5ddc 243f
00000270: 169f 573e dbe9 483f 54f4 84be 92e8 17be
00000280: 89cc 753e 1dd7 bfbd 434e b6bc a3a5 243f
00000290: c3b2 ee3e c177 853e 8734 91be 8933 e7be
000002a0: 66d1 e93c 8a03 2dbf 4ef5 a23d 5c0f 4ebe
000002b0: 7070 2c3e f046 0dbf 8451 21bf 6922 df3e
000002c0: 0bc9 febe 4ca3 403e 806c a23e ceac a0bd
000002d0: ca1b a7bc 20b5 e53d 90f5 603f 1d62 0f3e
000002e0: f089 06bf 7402 f63e ff75 3a3e dbaf 173d
000002f0: e54d 91be 2bd8 e13d 1e7e 273f 1176 923e
00000300: 0796 643e e625 a93e b78b 51be 64a7 9abe
00000310: 6c81 51bf 7a91 cabd 43b1 54be 84d8 9a3f
00000320: 58a7 803e f148 003e f0e9 acbe ffd7 d33d
00000330: dcdd 613f cb25 d7be 9c84 18be 1966 ab3d
00000340: 358f 6f3f 4c94 263e a876 583c 786a 2a3e
00000350: 459e 61be 4d61 92bf 59cc a43e a588 19bf
00000360: 52b8 57bf a26d 99bf 689e 7e3f 56a3 c8be
00000370: 7b06 b53e 63bc e3bf c5ea 083f 763d 0ebe
00000380: 0bbd 24bf e9be cf3e 046c 5c3f 9ce4 013f
00000390: 3a35 3e3f 7db5 55bf 3827 073d b867 463f
000003a0: 8424 863b bf52 0f3f d123 903d 5b42 56bf
000003b0: aec5 5ebf 27db 14be 5e29 6e3e 0326 95bd
000003c0: 914b 66be fd12 01bf 1176 76bf fa77 d9bd
000003d0: 6d68 7d3f 8a9b 79bc 04fe 9d3e e108 cdbd
000003e0: 530c dc3e 7af4 f3bd 7463 86be 74c1 ef3b
000003f0: 1eec e0bb fcae c0be 54c2 6fbf 7cd4 d13d

network_body.linear_encoder.seq_layers.2.bias f4 [128]
-0.078662276 -0.07889225 -0.072990894 -0.0040586805 -0.13274579 -0.043614242 -0.042739652 -0.024466086
0.027786445 0.006237055 -0.0132639995 -0.029454043 -0.03607423 -0.04392223 -0.07852337 -0.08622755
-0.02539154 -0.05287186 -0.101481766 0.017537514 0.006950297 -0.10187702 -0.013096755 -0.03388166
-0.048035957 0.06407648 -0.056273952 -0.107109725 -0.050809857 -0.083711304 -0.038058937 -0.14790043
-0.06063161 -0.015729463 -0.052124966 0.029242307 -0.05046383 -0.015984558 -0.078528844 -0.03403557
-0.12416019 0.053270042 0.0930785 -0.09022136 -0.039745945 -0.10709554 -0.12194172 0.06861645
-0.03428198 -0.07931142 -0.06376838 -0.0946513 -0.11052304 -0.031164406 0.003830176 -0.077017434
-0.0008766154 -0.059064653 0.0025684976 -0.07567486 0.0056061023 -0.074745044 -0.02133528 0.016797367
-0.06377562 -0.04481664 -0.03975624 0.08766489 0.016383247 -0.028148515 -0.006800774 -0.05063064
-0.10580862 -0.06464715 -0.0781075 -0.06779359 -0.09518958 0.024015486 -0.05153463 -0.043372996
-0.099932715 -0.01455425 -0.040350996 -0.07303864 -0.047677495 -0.020347793 -0.12111528 -0.009549937
-0.058937293 -0.054367125 -0.061554782 -0.05389516 -0.07986887 -0.06580427 -0.086274944 -0.034271933
-0.025242569 -0.025984412 -0.040219337 0.06532212 -0.048270434 0.0014008587 -0.04946227 -0.12406773
0.07783483 -0.06230617 -0.031370692 -0.08984311 -0.0042610103 -0.033750758 -0.13264558 -0.0781105
0.11947792 -0.18345979 -0.0836013 -0.038823538 -0.08962092 -0.021512255 0.08586012 0.03372693
0.016104832 -0.027744075 -0.08843598 0.090808995 -0.05082169 -0.021083474 -0.09429488 -0.07513047
00000000: b019 a1bd 4392 a1bd 407c 95bd aefe 84bb
00000010: 83ee 07be d9a4 32bd c60f 2fbd 1a6d c8bc
00000020: 66a0 e33c 3660 cc3b 3f51 59bc 9b49 f1bc
00000030: 92c2 13bd cce7 33bd dcd0 a0bd 1298 b0bd
00000040: eb01 d0bc 2a90 58bd acd5 cfbd d5aa 8f3c
00000050: 51bf e33b e6a4 d0bd c693 56bc 7fc7 0abd
00000060: 5ac1 44bd 883a 833d 847f 66bd 585c dbbd
00000070: ff1d 50bd d570 abbd b0e3 1bbd 3673 17be
00000080: da58 78bd 13db 80bc fd80 55bd 908d ef3c
00000090: 29b3 4ebd 0cf2 82bc bbd3 a0bd e268 0bbd
000000a0: b347 febd b031 5a3d f19f be3d fac5 b8bd
000000b0: a5cc 22bd e854 dbbd 95bc f9bd c886 8c3d
000000c0: 436b 0cbd 076e a2bd ff98 82bd 8ad8 c1bd
000000d0: e759 e2bd 7f4c ffbc b103 7b3b 51bb 9dbd
000000e0: aacc 65ba c7ed 71bd 3d54 283b 6cfb 9abd
000000f0: 65b3 b73b ee13 99bd 53c7 aebc a29a 893c
00000100: cb9c 82bd a791 37bd 70d7 22bd a689 b33d
00000110: 2936 863c b797 e6bc 07d9 debb 1362 4fbd
00000120: 31b2 d8bd ba65 84bd d3f6 9fbd 5ed7 8abd
00000130: c1f2 c2bd 20bc c43c fa15 53bd e2a7 31bd
00000140: 86a9 ccbd f374 6ebc 1647 25bd 4895 95bd
00000150: 7a49 43bd 6ab0 a6bc 4a0b f8bd 5777 1cbc
00000160: 3b68 71bd 10b0 5ebd de20 7cbd 2cc1 5cbd
00000170: 4a92 a3bd 64c4 86bd ebb0 b0bd ba60 0cbd
00000180: 81c9 cebc 43dd d4bc 08bd 24bd 9bc7 853d
00000190: 38b7 45bd 059d b73a f398 4abd 3917 febd
000001a0: de67 9f3d c134 7fbd 8e7e 00bd aaff b7bd
000001b0: f29f 8bbb 3c3e 0abd 3ed4 07be 66f8 9fbd
000001c0: d7b0 f43d e2dc 3bbe 2937 abbd 6e05 1fbd
000001d0: 2c8b b7bd 783a b0bc 6ed7 af3d 4025 0a3d
000001e0: 48ee 833c 8b47 e3bc ec1d b5bd 11fa b93d
000001f0: 682a 50bd 40b7 acbc ad1d c1bd 01de 99bd

network_body.linear_encoder.seq_layers.2.weight f4 [128, 128]
-0.11879013 0.092638396 -0.060045112 0.14037162 -0.016419014 -0.14830834 -0.115161575 0.08234198
0.02794684 -0.030728616 -0.1081953 -0.16222762 0.012364107 -0.11848054 -0.1806662 0.055984203
0.08944512 -0.0041551786 -0.0034798763 -0.23163305 -0.064269096 -0.049551107 0.05614239 -0.11365603
-0.04701702 -0.17799877 -0.0038071068 0.12824535 -0.046753827 -0.0783359 0.14260913 0.026548754
-0.10426379 0.10669389 -0.13188834 -0.10184409 -0.07381805 -0.02816707 -0.07805957 0.0036461188
-0.0103989765 0.009899005 -0.15627737 -0.24555022 -0.1252583 -0.29932505 -0.18721683 -0.010189412
-0.02171401 0.03046256 -0.081623994 -0.07113157 -0.14986423 -0.04847478 -0.018145321 0.00073480554
-0.036243524 0.09181369 -0.08801822 -0.2949245 0.06638886 -0.05783433 0.013311685 -0.10350019
0.021363692 -0.09174584 -0.16766971 -0.10668708 -0.24899054 -0.14088348 0.115172125 0.031414673
-0.011910301 0.08120197 -0.17210439 -0.17160742 -0.045068283 -0.115715005 -0.07002473 -0.04625371
-0.074965134 0.21734604 0.14886951 0.07115116 -0.023014942 0.12668705 -0.099994466 -0.015082404
0.027677959 -0.057146832 -0.10186177 -0.17001429 -0.12513106 -0.14835387 -0.066753015 -0.056613505
0.085311726 0.05932534 -0.04373694 -0.1626784 0.0787183 -0.09275629 -0.04435192 0.06405414
0.039578285 -0.0034124537 -0.06542076 -0.011814859 0.03592858 -0.152558 -0.29977238 -0.21737692
-0.014276989 -0.24466668 0.027915826 -0.0132353185 0.04249922 -0.20726393 0.033475753 -0.110393964
-0.17215109 0.013035324 -0.05576513 -0.11820012 -0.08938775 -0.2053106 -0.039535243 -0.0316109
-0.0024551866 -0.08386257 -0.058191575 -0.06278186 -0.084184006 -0.14188984 -0.12574053 -0.21871369
-0.18932638 -0.15387325 -0.11743935 -0.16029984 0.014376814 -0.055449333 0.019150905 -0.14741597
-0.1578926 0.004906965 -0.021019852 0.03732383 -0.06885736 -0.10145489 0.02589981 -0.14103772
0.017737627 -0.120810874 0.13071242 0.008716556 -0.15769953 -0.097818054 -0.24682634 -0.18476982
-0.17364335 -0.1673598 0.043397553 -0.17842238 -0.07963794 -0.091900475 -0.1067848 0.023926204
0.13256022 -0.2912528 -0.002844753 0.0059264074 -0.1478245 -0.08831106 0.014415401 0.0054668393
-0.011840159 -0.16310395 -0.03869412 -0.07408394 -0.12996791 -0.055410307 -0.17045712 0.07586225
-0.06375349 -0.23483288 0.040304735 -0.14652592 0.052635066 -0.036022276 0.09737585 -0.123158604
-0.19026047 0.036516014 -0.116324306 -0.021384845 0.026966108 0.03017542 -0.053847216 -0.20866965
0.023459937 -0.19020306 -0.050636288 0.026041891 -0.020003973 -0.14566772 -0.13626641 -0.17172167
-0.026317934 0.088485 -0.0019727221 -0.08969564 -0.084180005 -0.031844355 -0.00017715908 -0.20488708
-0.20580418 -0.11162279 -0.25761998 -0.045700938 -0.07113843 -0.08765249 0.06833412 -0.28019452
0.16572416 0.009909397 -0.09346823 -0.028465495 -0.070449755 -0.09362903 -0.122172266 0.011084508
0.051503923 0.10519636 0.008277055 0.034469854 0.06939514 0.039707847 -0.07315114 0.020683281
-0.030237053 -0.105841644 -0.12951106 0.10716172 0.077561624 -0.00061341724 -0.015651114 -0.1997074
-0.050117318 0.03674834 0.042798016 -0.028987167 -0.21201254 -0.015522509 -0.11038336 -0.0014606199
00000000: 3d48 f3bd 33b9 bd3d ddf1 75bd 94bd 0f3e
00000010: 2b81 86bc 24de 17be d5d9 ebbd e9a2 a83d
00000020: c5f0 e43c 94ba fbbc 7f95 ddbd ff1e 26be
00000030: d392 4a3c eda5 f2bd 8f00 39be b14f 653d
00000040: 012f b73d 2a28 88bb a30e 64bb 3731 6dbe
00000050: 849f 83bd 1af6 4abd 90f5 653d 7ec4 e8bd
00000060: eb94 40bd 4f45 36be a780 79bb c052 033e
00000070: f180 3fbd 936e a0bd 2108 123e c67c d93c
00000080: 4188 d5bd 5482 da3d bd0d 07be a293 d0bd
00000090: eb2d 97bd a1be e6bc b2dd 9fbd b9f3 6e3b
000000a0: 7860 2abc 702f 223c 2d07 20be 8471 7bbe
000000b0: b643 00be 2241 99be c5b5 3fbe 7ef1 26bc
000000c0: 94e1 b1bc 9e8c f93c 7b2a a7bd 6ead 91bd
000000d0: 0276 19be 7e8d 46bd 7fa5 94bc f79f 403a
000000e0: 1774 14bd d108 bc3d e642 b4bd 5800 97be
000000f0: e2f6 873d b1e3 6cbd 4119 5a3c e8f7 d3bd
00000100: e902 af3c 3ee5 bbbd 9cb1 2bbe c17e dabd
00000110: 60f7 7ebe c243 10be 5ddf eb3d acac 003d
00000120: 6c23 43bc 384d a63d 223c 30be dbb9 2fbe
00000130: 8599 38bd fdfb ecbd 2069 8fbd 8874 3dbd
00000140: 5287 99bd f68f 5e3e 4071 183e b3b7 913d
00000150: d589 bcbc 40ba 013e e6c9 ccbd 301c 77bc
00000160: e3bc e23c cc12 6abd e79c d0bd 3a18 2ebe
00000170: 5b22 00be 14ea 17be ceb5 88bd 90e3 67bd
00000180: eab7 ae3d 21ff 723d 8125 33bd 2b95 26be
00000190: 0f37 a13d 03f7 bdbd 5caa 35bd d12e 833d
000001a0: d71c 223d 79a3 5fbb 52fb 85bd 1c93 41bc
000001b0: d929 133d 2a38 1cbe c47b 99be 0e98 5ebe
000001c0: 08ea 69bc e789 7abe bbaf e43c f3d8 58bc
000001d0: aa13 2e3d ff3c 54be df1d 093d 3b16 e2bd
000001e0: 6048 30be 1d92 553c fa69 64bd e812 f2bd
000001f0: ed10 b7bd f13c 52be b5ef 21bd 6e7a 01bd
00000200: 32e7 20bb 24c0 abbd 4a5a 6ebd c793 80bd
00000210: aa68 acbd 924b 11be 20c2 00be 7bf6 5fbe
00000220: c6de 41be f390 1dbe 0b84 f0bd a425 24be
00000230: ba8c 6b3c d71e 63bd 5ce2 9c3c 36f4 16be
00000240: 99ae 21be 9bca a03b d331 acbc dfe0 183d
00000250: 1605 8dbd 95c7 cfbd d72b d43c 316c 10be
00000260: 804e 913c b16b f7bd 7ad9 053e e3cf 0e3c
00000270: fc7b 21be d554 c8bd 0bc0 7cbe 4d34 3dbe
00000280: 90cf 31be 5e60 2bbe a2c1 313d 5bb4 36be
00000290: 3719 a3bd 5136 bcbd fdb1 dabd e300 c43c
000002a0: debd 073e 161f 95be 096f 3abb 4f32 c23b
000002b0: 4e5f 17be 6edc b4bd 932e 6c3c 2c23 b33b
000002c0: 3afd 41bc b904 27be ba7d 1ebd 52b9 97bd
000002d0: 4f16 05be ebf5 62bd 508c 2ebe ab5d 9b3d
000002e0: 3191 82bd 0878 70be 9416 253d e40a 16be
000002f0: de97 573d 188c 13bd fd6c c73d 943a fcbd
00000300: a4d3 42be d191 153d 703b eebd 452f afbc
00000310: 07e8 dc3c 7132 f73c e68e 5cbd 7fad 55be
00000320: 0e2f c03c 97c4 42be ff67 4fbd ce55 d53c
00000330: 5fdf a3bc eb29 15be 6c89 0bbe ced7 2fbe
00000340: b598 d7bc a037 b53d c948 01bb 59b2 b7bd
00000350: 9166 acbd 3a6f 02bd c7c3 39b9 ebcd 51be
00000360: 55be 52be 7d9a e4bd c4e6 83be e830 3bbd
00000370: 06b1 91bd 2683 b3bd c2f2 8b3d a875 8fbe
00000380: 98b3 293e 065b 223c 456c bfbd 7830 e9bc
00000390: f647 90bd 94c0 bfbd 7435 fabd cc9b 353c
000003a0: c7f5 523d 3071 d73d 7c9c 073c 4330 0d3d
000003b0: 0a1f 8e3d b2a4 223d 44d0 95bd fc6f a93c
000003c0: b2b3 f7bc 81c3 d8bd 8c9e 04be 9b77 db3d
000003d0: a1d8 9e3d bccd 20ba c436 80bc 1980 4cbe
000003e0: d147 4dbd 6d85 163d f94c 2f3d 7f76 edbc
000003f0: d119 59be 1f52 7ebc ac10 e2bd 4572 bfba
