Assets/Viborin6.onnx (onnx, 845116 bytes, 11 tensors)

action_model._continuous_distribution.mu.weight f4 [1, 228]
-0.043479133 -0.046102054 -0.054139666 0.008761079 0.065213144 -0.027756795 0.003220533 0.029284382
-0.041956697 -0.010973319 0.002183086 -0.07351265 0.07314579 -0.02132364 -0.030771732 0.022649864
0.020374272 -0.0062249955 -0.046793684 0.00746228 0.041969605 -0.015400974 0.021341262 -0.027670367
-0.0041716313 0.01756887 -0.038475823 -0.059726253 -0.014656557 0.02128805 0.004467695 0.04018449
0.009787959 0.016082253 0.03317088 0.03137457 0.054389782 -0.013092167 0.0031106302 0.03732063
0.0154109085 -0.016472187 0.018749867 0.07953218 -0.0015754432 -0.0027730393 0.0070957546 0.0058152196
0.012105418 -0.047722165 0.0066759083 0.021770747 0.046333924 0.004967143 0.09203732 -0.011834557
0.055189434 0.021653926 0.004451069 -0.01749519 -0.045463286 -0.025817858 -0.007960865 -0.025299117
-0.04136192 -0.03952312 0.015664916 0.00017316955 -0.037566002 -0.022107124 -0.0047363145 -0.019392615
-0.041501507 0.016372204 0.03878504 0.03088362 -0.0059654727 -0.00902308 -0.042352 -0.02968195
0.05658167 -0.01867824 -0.0036442406 0.02294364 0.0018310925 0.015732173 0.04158774 0.054467805
-0.06609872 -0.0125422105 0.0041458593 0.014266218 -0.009297708 0.014868222 0.007090055 0.051897097
-0.027180329 -0.0056862356 -0.016457038 0.04573293 0.016950652 0.061448585 -0.0023066823 0.042155515
-0.03485217 0.040588465 -0.019881709 0.02265832 0.023328854 0.067367725 -0.03662723 -0.009581597
-0.005847113 -0.013122288 0.017301667 0.0045020245 -0.08450221 0.015992718 -0.028789809 0.038753852
-0.039690606 0.0070731337 -0.008472578 0.041716002 0.0070788222 0.034766167 0.011972929 -0.0050680796
0.027829688 -0.024768233 -0.020532418 0.016077418 0.061814528 0.029009786 -0.05586083 -0.026038287
-0.013989078 0.014121222 0.01139394 0.059246983 0.0027883209 0.0077015217 0.0026904293 -0.0021496336
0.0017072696 -0.059594758 -0.007980853 0.044353 0.06892529 0.020315044 -0.0053028325 -0.0107920375
0.009562636 -0.020784643 0.030202894 0.016634505 0.06410022 -0.0027350704 -0.0015035471 -0.016237747
0.023127839 -0.0067650424 0.060433865 0.02691536 -0.067806505 -0.038911417 0.0074998685 0.010442184
-0.0134149585 -0.009200129 -0.012806056 0.0021298984 -0.012753884 -0.022727482 -0.016152868 -0.03985059
-0.025799682 0.039223336 0.05314706 -0.036999125 -0.028108144 -0.035687953 0.04427608 -0.024350345
-0.056770425 0.046656977 -0.004898664 -0.018823434 -0.09502475 -0.030084895 -0.008301365 0.041265618
0.04686603 -0.010396316 0.020684332 -0.058399446 0.018770928 0.06345151 0.0014101675 -0.004599291
-0.05533561 -0.02642965 -0.012449162 0.009928178 -0.024101708 0.022859681 -0.0017560637 0.034833986
-0.0031082178 -0.009294123 0.01918393 0.03755726 0.019097317 0.04213383 -0.00903784 0.0065366537
-3.6797832e-05 0.001639611 -0.033281684 0.041579686 0.028005512 0.07170963 0.057684813 0.010413886
-0.015521131 -0.053354777 -0.07571501 0.009915371
00000000: 2d17 32bd 82d5 3cbd 8ec1 5dbd a18a 0f3c
00000010: 788e 853d 3862 e3bc 940f 533b cde5 ef3c
00000020: c9da 2bbd 70c9 33bc 1b12 0f3b cd8d 96bd
00000030: 76cd 953d eaae aebc 0015 fcbc 358c b93c
00000040: f2e7 a63c 0cfb cbbb bcaa 3fbd 2486 f43b
00000050: 52e8 2b3d 5e54 7cbc dfd3 ae3c f7ac e2bc
00000060: 2eb2 88bb 97ec 8f3c d398 1dbd 84a3 74bd
00000070: 0e22 70bc 4764 ae3c be65 923b 7e98 243d
00000080: ad5d 203c eebe 833c 30de 073d 9f82 003d
00000090: d2c7 5e3d 8780 56bc b7db 4b3b 84dd 183d
000000a0: 097e 7c3c aef0 86bc 5299 993c c5e1 a23d
000000b0: 1a7f ceba e1bb 35bb 8183 e83b 998d be3b
000000c0: ce55 463c 5178 43bd 94c1 da3b 9158 b23c
000000d0: a4c8 3d3d 6ac3 a23b 107e bc3d bbe5 41bc
000000e0: 510e 623d 9363 b13c 46da 913b 1352 8fbc
000000f0: b637 3abd f97f d3bc 4a6e 02bc 1840 cfbc
00000100: 1e6b 29bd ffe2 21bd b653 803c d994 3539
00000110: cfde 19bd 001a b5bc 1633 9bbb 43dd 9ebc
00000120: 7cfd 29bd 001f 863c 10dd 1e3d a5ff fc3c
00000130: 037a c3bb 8ad5 13bc 4a79 2dbd 9027 f3bc
00000140: 2ec2 673d 1c03 99bc 36d4 6ebb 4df4 bb3c
00000150: 4501 f03a c2e0 803c e857 2a3d a219 5f3d
00000160: c45e 87bd d87d 4dbc fdd9 873b dbbc 693c
00000170: 6a55 18bc d899 733c b153 e83b 0d92 543d
00000180: 48a9 debc 9a53 babb e9d0 86bc 7452 3b3d
00000190: 18dc 8a3c 83b1 7b3d b52b 17bb 43ab 2c3d
000001a0: 26c1 0ebd 1740 263d f7de a2bc f19d b93c
000001b0: 271c bf3c 17f8 893d 6f06 16bd 21fc 1cbc
000001c0: 2499 bfbb ddfe 56bc 3abc 8d3c b885 933b
000001d0: 7f0f adbd 2903 833c 9bd8 ebbc 5cbc 1e3d
000001e0: 9e92 22bd bfc5 e73b 91d0 0abc 66de 2a3d
000001f0: 77f5 e73b f866 0e3d 1b2a 443c 2212 a6bb
00000200: 16fb e33c c0e6 cabc 9a33 a8bc cab4 833c
00000210: 3b31 7d3d eea5 ed3c 53ce 64bd 3f4e d5bc
00000220: 7232 65bc b35c 673c a6ad 3a3c f7ac 723d
00000230: 43bc 363b 0c5d fc3b ea51 303b dee0 0cbb
00000240: 76c6 df3a a219 74bd 20c2 02bc 7eab 353d
00000250: b428 8d3d bc6b a63c 62c3 adbb 16d1 30bc
00000260: 9aac 1c3c 8e44 aabc 0f6c f73c 1645 883c
00000270: fa46 833d de3e 33bb ab12 c5ba 0605 85bc
00000280: 9876 bd3c 4aad ddbb 8089 773d 9a7d dc3c
00000290: 23de 8abd 9461 1fbd 75c1 f53b b215 2b3c
000002a0: 6aca 5bbc 23bc 16bc 7ed0 51bc c495 0b3b
000002b0: abf5 50bc fc2e babc 0553 84bc 5f3a 23bd
000002c0: db59 d3bc a6a8 203d bbb0 593d 658c 17bd
000002d0: 0d43 e6bc 882d 12bd d65a 353d 607a c7bc
000002e0: 1b88 68bd 631b 3f3d f984 a0bb 9a33 9abc
000002f0: 569c c2bd 9974 f6bc 7302 08bc 2306 293d
00000300: 98f6 3f3d 4f55 2abc 3072 a93c 4234 6fbd
00000310: 7dc5 993c def2 813d 5fd5 b83a a6b5 96bb
00000320: 98a7 62bd fe82 d8bc 92f7 4bbc cca9 223c
00000330: f270 c5bc 3a44 bb3c b82b e6ba 15ae 0e3d
00000340: 3eb3 4bbb 6146 18bc 9e27 9d3c a4d5 193d
00000350: fa71 9c3c 8694 2c3d 7313 14bc 6d31 d63b
00000360: 5f57 1ab8 37e8 d63a 6052 08bd 764f 2a3d
00000370: d16b e53c 80dc 923d e946 6c3d 019f 2a3c
00000380: 584c 7ebc 8a8a 5abd 7910 9bbd 1574 223c

network_body.linear_encoder.seq_layers.0.bias f4 [228]
-0.0048439694 -0.017123954 -0.024176635 -0.0045776116 0.028944077 0.027815884 -0.024476422 0.02346875
-0.01179911 -0.008727856 0.011648863 -0.018638916 0.01653475 -0.020689905 -0.015391081 -0.018849395
0.010076492 -0.033436645 0.011080338 -0.0051027546 -0.03241783 -0.009130518 -0.034769725 -0.009351329
-0.008388037 -0.012162037 -0.03615635 -0.04726341 -0.03777505 -0.043708917 -0.027807057 0.017334623
0.028816905 0.01941176 0.00847689 0.0034359335 0.0023856726 -0.02981228 0.011428076 -0.024998147
-0.0031778635 -0.0031490612 0.015393444 -0.011199407 -0.006199702 -0.0025166443 -0.019308962 -0.018567447
-0.011347242 -0.021184152 -0.023364492 -0.024543725 -0.034494065 0.0037329255 -0.009318566 -0.02238979
-0.0034108013 0.0029444674 0.011928834 -0.0014802618 -0.040412143 -0.004744108 -0.019107003 -0.042926542
0.0018497406 0.026078809 0.02350259 0.0033961257 -0.025877241 -0.03129321 0.010390262 -0.019514777
-0.02964264 -0.021385208 -0.04310651 0.011330861 -0.0056875735 -0.0038123084 -0.026504686 -0.023356777
-0.009077448 0.0114048375 -0.03979614 -0.02318916 -0.008228515 0.016341476 -0.009204122 -0.015604388
-0.033226263 0.008425215 0.00843273 0.014070815 0.004607676 -0.0036572302 0.0026381614 -0.03989177
0.008653233 0.026635695 0.021955037 -0.010649027 -0.036059532 -0.01212348 -0.010899407 -0.009386749
-0.0027205728 0.004916332 -0.020423528 -0.014060414 -0.055552885 -0.03815365 -0.006075128 0.013588161
-0.023489147 -0.010507827 -0.026790505 -0.035052743 0.022766052 0.008668739 -0.0130615 -0.013157173
0.0025506911 -0.028351426 0.03544191 0.0025966843 0.038027655 0.029729139 -0.010101377 -0.025747329
-0.0077237613 0.003719924 -0.004384914 -0.025291853 -0.011377045 0.0034850975 -0.015511974 -0.029353226
0.011127558 -0.006360302 0.008010468 -0.0068158405 0.014978246 -0.036309246 0.026068356 -0.020786852
-0.029582374 -0.0007764544 -0.023669973 -0.019731604 -0.0211315 -0.012609893 -0.044655867 -0.013916462
0.0063880873 -0.0068310727 0.020238614 -0.031168355 -0.01123254 -0.03289115 0.00053332996 -0.0072770077
-0.03133777 0.0035729085 -0.034425557 -0.028575072 0.005183991 -0.019359235 -0.010920732 0.014231782
0.00360876 -0.024291646 0.013232688 -0.037112713 -0.050492037 0.02019314 -0.02601368 -0.0020462142
-9.0879395e-05 -0.010032745 0.027065085 -0.053257734 0.0054767854 -0.03316009 0.0042817728 -0.01349186
0.00039292956 0.013349018 -0.011752537 -0.023496935 -0.015510084 0.0040268637 0.005218754 -0.00135094
-0.007341652 -0.03371204 -0.013706591 -0.0028994256 -0.010366091 -0.0007614778 -0.02097409 0.006993587
0.015606711 -0.03344531 -0.013943036 -0.010247879 -0.04212877 0.0053997133 -0.0067384075 -0.02929197
-0.0057772184 -0.022833802 -0.0030391645 0.007070409 -0.0033214258 -0.009012804 -0.02481584 -0.01794865
-0.021119878 -0.04174418 -0.012250424 0.008859234 -0.040170677 -0.02812459 -0.0026977563 -0.0286589
-0.03789035 -0.011662719 -0.0015948655 -0.01707101
00000000: 29ba 9ebb 8947 8cbc 140e c6bc caff 95bb
00000010: 211c ed3c 23de e33c c782 c8bc 8941 c03c
00000020: 0e51 41bc 48ff 0ebc dfda 3e3c a4b0 98bc
00000030: e273 873c e07d a9bc df2a 7cbc 0c6a 9abc
00000040: df17 253c ddf4 08bd 4e8a 353c 0235 a7bb
00000050: 8fc8 04bd 2b98 15bc b36a 0ebd 5136 19bc
00000060: fa6d 09bc 4843 47bc ae18 14bd 4797 41bd
00000070: 03ba 1abd 1f08 33bd a0cb e3bc 5701 8e3c
00000080: 6e11 ec3c 6905 9f3c a7e2 0a3c 662d 613b
00000090: f258 1c3b e238 f4bc d33c 3b3c eac8 ccbc
000000a0: b443 50bb 7b60 4ebb c934 7c3c b87d 37bc
000000b0: df26 cbbb 49ee 24bb d42d 9ebc c21a 98bc
000000c0: c8e9 39bc 638a adbc e466 bfbc ec0f c9bc
000000d0: a649 0dbd 19a4 743b e6ac 18bc cb6a b7bc
000000e0: c087 5fbb f7f7 403b 2871 433c 5805 c2ba
000000f0: 3487 25bd 7674 9bbb 4a86 9cbc bed3 2fbd
00000100: ff72 f23a 3aa3 d53c 8188 c03c 8991 5e3b
00000110: 82fc d3bc 4f2d 00bd eb3b 2a3c 74dd 9fbc
00000120: 1fd5 f2bc 0830 afbc 7490 30bd 13a5 393c
00000130: d35e babb ecd7 79bb 5b20 d9bc b656 bfbc
00000140: 94b9 14bc 5bdb 3a3c 4701 23bd 31f7 bdbc
00000150: e5d0 06bc 8fde 853c e3cc 16bc 8ca9 7fbc
00000160: 4318 08bd ea09 0a3c 6f29 0a3c 4789 663c
00000170: fdfb 963b 24ae 6fbb 01e5 2c3b 8d65 23bd
00000180: 4ac6 0d3c 1a33 da3c 0ddb b33c 4279 2ebc
00000190: 29b3 13bd 90a1 46bc 6d93 32bc e1ca 19bc
000001a0: a34b 32bb 2f19 a13b 3e4f a7bc a75d 66bc
000001b0: 6c8b 63bd 0047 1cbd de11 c7bb e1a0 5e3c
000001c0: 506c c0bc 0529 2cbc c377 dbbc 7793 0fbd
000001d0: df7f ba3c 5407 0e3c e7ff 55bc 2f91 57bc
000001e0: 7f29 273b 4041 e8bc 892b 113d 222d 2a3b
000001f0: e3c2 1b3d 868a f33c 3f80 25bc 10ec d2bc
00000200: 9b17 fdbb f8c9 733b 53af 8fbb dc30 cfbc
00000210: c966 3abc 3c66 643b ef25 7ebc 2d76 f0bc
00000220: 5c50 363c 156a d0bb 573e 033c 6a57 dfbb
00000230: 5167 753c 01b9 14bd 4e8d d53c 3049 aabc
00000240: bc56 f2bc f98a 4bba 88e7 c1bc 2ca4 a1bc
00000250: f81b adbc ba99 4ebc 12e9 36bd df01 64bc
00000260: 2953 d13b 31d7 dfbb 73cb a53c c754 ffbc
00000270: b008 38bc dfb8 06bd 2bcf 0b3a f773 eebb
00000280: 095c 00bd 7527 6a3b d001 0dbd 4516 eabc
00000290: 78de a93b 4297 9ebc dfec 32bc 6c2c 693c
000002a0: f280 6c3b 46ff c6bc ebcd 583c 8003 18bd
000002b0: bdd0 4ebd 156c a53c a41a d5bc c719 06bb
000002c0: 8196 beb8 6260 24bc 99b7 dd3c c824 5abd
000002d0: 9b76 b33b e0d2 07bd 1d4e 8c3b f60c 5dbc
000002e0: 1d02 ce39 d7b5 5a3c b78d 40bc a57c c0bc
000002f0: 021e 7ebc c8f3 833b 1502 ab3b 0612 b1ba
00000300: 3e92 f0bb a315 0abd 9c91 60bc 4a04 3ebb
00000310: 89d6 29bc e99d 47ba dbd1 abbc 762a e53b
00000320: 4ab3 7f3c f3fd 08bd 5571 64bc b8e6 27bc
00000330: 388f 2cbd 14f0 b03b dccd dcbb b7f5 efbc
00000340: d24e bdbb f40d bbbc b82c 47bb e4ae e73b
00000350: 47ac 59bb 71aa 13bc 974a cbbc 0c09 93bc
00000360: 9803 adbc f2fb 2abd 01b6 48bc 5226 113c
00000370: 028a 24bd 8a65 e6bc d7cc 30bb 12c6 eabc
00000380: e932 1bbd fd14 3fbc ce0a d1ba 81d8 8bbc

network_body.linear_encoder.seq_layers.0.weight f4 [228, 5]
1.220199 0.71227276 -0.27443364 -0.07777151 -0.2297248 0.03469369 0.038376395 -0.43467724
0.51167893 0.5642749 0.10772536 0.08335797 -0.9436658 -0.12237423 0.6040375 -0.1583021
-0.9471833 0.3852158 -0.06692911 0.025671838 -0.124432705 1.3893267 0.4829779 -0.30602914
0.3543393 0.73823756 -0.27949986 -0.5874647 0.38873088 -0.8961959 -0.10921878 -0.05353396
0.5527477 0.6648946 0.2693448 0.6442491 0.5717616 -0.5742474 0.26319844 0.34420028
0.42651445 0.4772474 1.1269794 0.5767506 -0.1737105 -0.9230706 -0.21143211 0.16688868
-0.0035317556 0.55403537 -0.07569957 0.39510992 -0.084647775 -0.80126125 -0.30967605 0.010836358
-0.9288056 0.2179934 0.09055575 -0.48721772 0.44673172 0.44259778 -0.4464402 0.036631353
0.21790536 -0.6747106 0.11532031 -0.048201814 -0.0896957 -0.9685733 0.10854717 0.49455836
0.19488199 0.13318403 -0.38636017 0.2983649 -0.010794084 0.39431018 0.46936977 -0.17722096
0.50681514 -0.09383636 -0.6810194 -0.8101776 0.13668421 -0.056138523 -0.44855025 -0.26646847
0.21890078 -0.25048742 0.22420867 0.2891642 -0.25344726 -0.42253003 0.22444507 -0.24496168
-0.2331296 -0.023837632 -0.5154775 0.030302484 -0.14824352 0.55071074 0.046023846 -0.285125
0.41493464 0.5143016 -0.35249993 -0.61559296 0.052543286 -0.093300335 -0.14992595 0.7670461
0.67861956 0.17233336 -1.0629185 0.84818345 0.16777836 -0.14942797 -0.3924089 -0.34024876
0.6479994 0.17398727 0.3559897 0.8557082 -0.21433961 0.2211554 -0.31941733 0.70962536
0.4945202 0.6362996 -0.47010547 -0.7333383 -0.3430223 0.25986245 -0.13653107 -0.07998966
-0.4024097 -0.4231392 -0.45860875 0.55621564 0.81351095 -0.014838193 -0.13089073 0.33989507
-0.2267235 0.44737452 -0.44643903 0.06679156 -0.17912008 -0.2517369 0.8353606 0.29180822
-0.105586745 -0.36256897 -0.4770025 -0.15428619 -0.611322 0.08009456 -0.29411864 0.036909305
0.07832188 -0.07262919 -0.0490741 -0.3357262 0.037283354 0.3008614 -0.054640036 -0.3230771
-0.08259909 0.49749693 -0.16364048 -0.2657108 0.007164029 0.4847942 0.21313158 -0.026787926
-0.51111853 0.25782993 0.72805965 -0.8070931 -0.14932223 0.07203707 0.94028175 0.12599376
0.43666485 -1.3865027 -0.35489902 0.42643017 -0.67017287 -0.28909338 -0.23559745 -0.18385284
0.45539075 -0.8546126 -0.83422476 -0.2282109 -0.507452 -0.2131832 -0.23771879 -0.7714807
-0.15089291 -0.0058933417 -0.29590854 -1.0011711 0.49099764 -0.7408099 0.08035789 -0.22225383
-0.39846972 0.43050832 -0.10718343 -0.0009054643 0.49327162 -1.7050017 0.14920144 -0.17070848
0.3164166 0.21288635 0.063158415 -0.23305124 -0.37753576 0.7855909 0.23867746 -0.33667183
-0.5185597 -0.21487081 0.486248 0.42223898 0.63316095 0.5192156 -0.8325078 -0.19810924
0.71306634 0.19880183 0.33700842 0.3110301 -0.08564283 0.93705934 0.2198173 0.20962977
-0.2509341 -0.17013657 0.31494334 0.7614744 -0.030833352 0.045322765 -0.64607805 -0.4027446
-0.04588413 0.020641433 -0.35994205 -0.29219297 0.22800153 1.2335817 0.9063605 -0.10460198
00000000: 7b2f 9c3f 8257 363f 9182 8cbe ab46 9fbd
00000010: fa3c 6bbe f81a 0e3d 9130 1d3d 048e debe
00000020: 64fd 023f 5274 103f 1d9f dc3d 95b7 aa3d
00000030: 1594 71bf 579f fabd 34a2 1a3f f219 22be
00000040: 9b7a 72bf 013b c53e 2112 89bd bf4d d23c
00000050: 93d6 febd 75d5 b13f e148 f73e daaf 9cbe
00000060: f66b b53e 23fd 3c3f 9b1a 8fbe 1664 16bf
00000070: bc07 c73e 186d 65bf 19ae dfbd 6d46 5bbd
00000080: e080 0d3f 8836 2a3f 90e7 893e 82ed 243f
00000090: f85e 123f e101 13bf f2c1 863e 053b b03e
000000a0: 1a60 da3e c559 f43e dc40 903f eda5 133f
000000b0: 2ae1 31be 5b4e 6cbf a981 58be dee4 2a3e
000000c0: 0775 67bb 43d5 0d3f 6008 9bbd d94b ca3e
000000d0: d05b adbd 751f 4dbf dc8d 9ebe fb8a 313c
000000e0: 34c6 6dbf a939 5f3e 4b75 b93d 9a74 f9be
000000f0: 05ba e43e 2d9c e23e cf93 e4be c20a 163d
00000100: 9522 5f3e d5b9 2cbf 0e2d ec3d 446f 45bd
00000110: 61b2 b7bd 6bf4 77bf fb4d de3d c136 fd3e
00000120: 258f 473e 6561 083e 00d1 c5be 49c3 983e
00000130: abd9 30bc 06e3 c93e 3c51 f03e 6979 35be
00000140: a3be 013f 472d c0bd 4a57 2ebf cd67 4fbf
00000150: f2f6 0b3e 82f1 65bd 61a8 e5be 8e6e 88be
00000160: 8727 603e e33f 80be f596 653e 540d 943e
00000170: d7c3 81be db55 d8be eed4 653e 3cd7 7abe
00000180: 87b9 6ebe 2347 c3bc 55f6 03bf ea3c f83c
00000190: 26cd 17be 61fb 0c3f 8083 3c3d e7fb 91be
000001a0: 5072 d43e 45a9 033f df7a b4be 8097 1dbf
000001b0: a137 573d 3f14 bfbd 3086 19be 225d 443f
000001c0: 03ba 2d3f 2878 303e b70d 88bf 8d22 593f
000001d0: 17ce 2b3e a503 19be d2e9 c8be 1635 aebe
000001e0: 4ae3 253f b829 323e 4844 b63e b10f 5b3f
000001f0: d87b 5bbe 9076 623e ab8a a3be 02aa 353f
00000200: c031 fd3e 88e4 223f aab1 f0be 0fbc 3bbf
00000210: 9ea0 afbe b10c 853e cdce 0bbe 9ed1 a3bd
00000220: a508 cebe b4a5 d8be c4ce eabe 2664 0e3f
00000230: 4142 503f e41b 73bc 3808 06be ba06 ae3e
00000240: 352a 68be 460e e53e a893 e4be 03ca 883d
00000250: 416b 37be a9e3 80be 31da 553f e367 953e
00000260: dd3d d8bd a4a2 b9be ac39 f4be 33fd 1dbe
00000270: 997f 1cbf 9e08 a43d b896 96be 362e 173d
00000280: 3967 a03d 9dbe 94bd ec01 49bd 4ee4 abbe
00000290: 6eb6 183d 810a 9a3e 3bce 5fbd 5d6a a5be
000002a0: b629 a9bd ebb7 fe3e 5f91 27be 3f0b 88be
000002b0: 3bc0 ea3b f236 f83e 2a3f 5a3e 5a72 dbbc
000002c0: aad8 02bf 4902 843e 1e62 3a3f a79d 4ebf
000002d0: ede7 18be 2c88 933d 4eb6 703f 8204 013e
000002e0: 8992 df3e ec78 b1bf 53b5 b5be 0e55 da3e
000002f0: 7390 2bbf 0c04 94be 7540 71be eb43 3cbe
00000300: fa28 e93e e4c7 5abf c18f 55bf 1eb0 69be
00000310: 60e8 01bf b24c 5abe 8e6c 73be c27f 45bf
00000320: ac83 1abe ef1c c1bb 5381 97be 6026 80bf
00000330: 0b64 fb3e b8a5 3dbf ad92 a43d 8296 63be
00000340: 3904 ccbe 966b dc3e fc82 dbbd ae5c 6dba
00000350: 198e fc3e 7f3d dabf 43c8 183e 34ce 2ebe
00000360: 5b01 a23e e1fe 593e 3359 813d fca4 6ebe
00000370: 5e4c c1be 7c1c 493f dd67 743e 4060 acbe
00000380: 54c0 04bf 1807 5cbe 7ff5 f83e b52f d83e
00000390: d616 223f 50eb 043f 3b1f 55bf 26dd 4abe
000003a0: 848b 363f b592 4b3e 5e8c ac3e 563f 9f3e
000003b0: 8265 afbd 1fe3 6f3f c917 613e 30a9 563e
000003c0: 6f7a 80be 4838 2ebe 4140 a13e fcef 423f
000003d0: 3a96 fcbc 5da4 393d 5f65 25bf 8a34 cebe
000003e0: fff0 3bbd 3918 a93c 534a b8be 519a 95be
000003f0: 3c79 693e 01e6 9d3f 3e07 683f 9039 d6bd

network_body.linear_encoder.seq_layers.2.bias f4 [228]
-0.008042037 -0.016390631 -0.037673898 -0.02374425 0.006297866 0.009866853 -0.01699176 0.0011546252
0.0018443314 -0.003019191 -0.0124692125 0.013812583 -0.055021092 0.027068023 -0.03286026 0.011824195
-0.020828385 -0.0038953018 0.008714122 0.0021821028 -0.030696608 0.011063335 -0.028196061 0.009822224
-0.038568504 -0.007428272 -0.00842815 -0.008771035 0.007457519 0.016907854 0.008342078 -0.019716715
-0.051769473 0.016071238 -0.006683834 -0.034725633 0.022834264 -0.001565641 0.000740399 -0.0105216615
-0.01451357 0.009469461 0.0002614566 -0.008149953 -0.024129566 -0.010888985 0.0321478 0.0014763487
-0.012158279 -0.0052976073 0.002227443 0.0074636047 0.011461989 -0.010529113 -0.006897006 -0.017946454
-0.0027406653 -0.015520309 -0.005017419 -0.018022142 0.03922801 0.009664497 -0.011955768 0.016558621
-0.008553185 -0.015043019 0.0068703555 0.017627725 -0.023139447 0.008780827 0.017616237 0.013879675
-0.0132689765 -0.04321782 -0.00428307 -0.023953563 -0.04387635 -0.004039029 0.0016066788 -0.0044683334
0.0029962447 -0.013993611 0.008952074 -0.016844366 -0.012427591 -0.00090947346 -0.022418505 -0.008932197
-0.035696544 -0.015282251 -0.0032336386 -0.026684191 -0.01541247 -0.019119933 0.0098579135 -0.0029186143
0.01017492 0.014378326 -0.020247722 -0.028264716 0.005026986 -0.0103591345 -0.027649468 -0.021183604
-0.01782344 -0.027824512 -0.001346209 -0.003479963 -0.009196978 0.0060361037 -0.0021741118 -0.019195128
-0.00915142 -0.03770132 -0.0042204987 -0.010861922 0.010460862 0.01010125 -0.01286122 0.006811001
-0.03127725 -0.0142916655 0.016220096 0.032257468 0.018990722 0.0033861732 -0.033577744 -0.011082879
-0.010220895 0.014309818 -0.012455087 -0.011999556 0.011999549 0.046082012 -0.010299414 -0.0060705286
0.013147821 -0.017713062 -0.020254757 -0.024150044 0.0059922026 -0.0008460348 -0.006142678 -0.009925907
-0.04299481 0.013666442 -0.007503541 -0.016921043 -0.004448163 -0.027062064 0.012132789 0.00090625416
0.0052780746 -0.04060886 -0.014812682 -0.010152785 -0.01397096 0.0068277568 -0.03568002 -0.0012086813
0.009103597 0.014353927 -0.013448437 0.0013344027 0.016175106 -0.020941885 -0.025012273 -0.031732615
-0.027709434 0.005330179 -0.012128651 0.018187448 -0.027106756 -0.019024653 0.009661276 -0.0048884116
0.005124377 -0.013698543 0.006250813 0.036845684 -0.01824524 -0.011245293 -0.015335641 -0.014228898
-0.03140647 -0.020871134 -0.023276428 -0.006174966 -0.0032202215 0.009943303 0.016648158 -0.0114706075
-0.0028652924 -0.0011434603 -0.0068984935 -0.016973598 0.023500279 -0.005568608 0.006375871 -0.02840337
-0.030856045 0.0045766947 0.009605919 0.018393539 -0.016440663 0.005051158 0.003687275 -0.023339337
-0.020114366 -0.01875489 -0.012545467 0.024507912 0.0021348516 -0.010056845 -0.01631532 0.0014057782
0.01740283 -0.008270505 -0.0011989061 0.011114756 -0.018371806 0.003677862 0.0040596444 -0.0038843856
-0.004213809 -0.030079966 0.011825866 -0.014904094
00000000: bfc2 03bc a545 86bc f24f 1abd 4d83 c2bc
00000010: 545e ce3b 95a8 213c 4e32 8bbc cb56 973a
00000020: 7ebd f13a 9fdd 45bb ab4b 4cbc 2c4e 623c
00000030: cc5d 61bd c2bd dd3c 7b98 06bd 45ba 413c
00000040: 4aa0 aabc 5248 7fbb adc5 0e3c 9c01 0f3b
00000050: 7477 fbbc fe42 353c 6dfb e6bc 65ed 203c
00000060: 02fa 1dbd dd68 f3bb 3916 0abc 63b4 0fbc
00000070: 345e f43b 5782 8a3c 36ad 083c f384 a1bc
00000080: 3a0c 54bd d4a7 833c 1004 dbbb 773c 0ebd
00000090: ec0e bb3c 3236 cdba 5617 423a 0c63 2cbc
000000a0: 53ca 6dbc cc25 1b3c 1c14 8939 6187 05bc
000000b0: 5eab c5bc b767 32bc 69ad 033d 0b82 c13a
000000c0: 8533 47bc 8d97 adbb 4bfa 113b 4191 f43b
000000d0: 11cb 3b3c 4d82 2cbc 4800 e2bb 7104 93bc
000000e0: bc9c 33bb e548 7ebc 2969 a4bb 2ca3 93bc
000000f0: 8dad 203d d757 1e3c 20e2 43bc f2a5 873c
00000100: a822 0cbc ff76 76bc b820 e13b 0568 903c
00000110: f08e bdbc 75dd 0f3c ed4f 903c 9467 633c
00000120: 1f66 59bc 2b05 31bd ff58 8cbb 433a c4bc
00000130: b0b7 33bd d559 84bb 3297 d23a 196b 92bb
00000140: a55c 443b 7545 65bc b8ab 123c 32fd 89bc
00000150: 189d 4bbc bb69 6eba 03a7 b7bc 5958 12bc
00000160: 8a36 12bd 6862 7abc 74eb 53bb ce98 dabc
00000170: 9684 7cbc 68a1 9cbc 1683 213c 3946 3fbb
00000180: b5b4 263c 1293 6b3c 8dde a5bc 688b e7bc
00000190: 6ab9 a43b 5cb9 29bc 2381 e2bc 3d89 adbc
000001a0: 7602 92bc 3bf0 e3bc 4773 b0ba 1710 64bb
000001b0: ecae 16bc 82ca c53b 8b7b 0ebb 1a3f 9dbc
000001c0: d6ef 15bc b36c 1abd 1c4c 8abb 34f6 31bc
000001d0: 0964 2b3c b77f 253c deb7 52bc d12e df3b
000001e0: 931c 00bd 9727 6abc 02e0 843c 6820 043d
000001f0: 6e92 9b3c 8fea 5d3b d188 09bd f794 35bc
00000200: 8a75 27bc ba73 6a3c 6c10 4cbc c999 44bc
00000210: c299 443c 7ec0 3c3d e0be 28bc 49eb c6bb
00000220: f569 573c fc1a 91bc 4eed a5bc 50d6 c5bc
00000230: 3d5a c43b 6fc8 5dba 8548 c9bb 45a0 22bc
00000240: 531b 30bd 36e9 5f3c 44e0 f5bb 009e 8abc
00000250: e5c1 91bb 43b1 ddbc 9bc8 463c b091 6d3a
00000260: b3f3 ac3b 7a55 26bd e4b0 72bc de57 26bc
00000270: 74e6 64bc 60bb df3b 3625 12bd 9d6c 9eba
00000280: 4127 153c bc2c 6b3c d556 5cbc 20e7 ae3a
00000290: a881 843c 518e abbc 8ae6 ccbc 0ffa 01bd
000002a0: e5fe e2bc c8a8 ae3b 40b7 46bc d8fd 943c
000002b0: fd0e debc 97d9 9bbc 544a 1e3c f82e a0bb
000002c0: 64ea a73b db6f 60bc 9fd3 cc3b 80eb 163d
000002d0: 0b77 95bc 2d3e 38bc 5742 7bbc 5320 69bc
000002e0: 12a4 00bd f1f9 aabc 35ae bebc 5f57 cabb
000002f0: 5a0a 53bb 3ce9 223c b861 883c 37ef 3bbc
00000300: a1c7 3bbb 29e0 95ba c20c e2bb 370c 8bbc
00000310: a883 c03c df78 b6bb afec d03b 2fae e8bc
00000320: d1c5 fcbc 19f8 953b 2562 1d3c 0cae 963c
00000330: 92ae 86bc 2f84 a53b 36a6 713b 2332 bfbc
00000340: e2c6 a4bc dba3 99bc 818b 4dbc d1c4 c83c
00000350: dee8 0b3b 77c5 24bc b5a7 85bc 1742 b83a
00000360: 6190 8e3c 0381 07bc 9d24 9dba aa1a 363c
00000370: 7880 96bc 4908 713b c406 853b 2d91 7ebb
00000380: fe13 8abb 436a f6bc 47c1 413c 4d30 74bc

network_body.linear_encoder.seq_layers.2.weight f4 [228, 228]
-0.07774878 0.0470961 -0.17301826 -0.031441618 0.015781207 0.08528449 0.028052865 0.05323608
0.2378303 -0.038342733 0.081692666 0.06379274 0.10501801 -0.014565399 0.024885882 -0.039795205
-0.056295816 0.0011809564 0.0053010345 -0.040983275 -0.10169704 -0.08510636 0.16843082 0.1786839
-0.014135386 -0.08835648 0.08208723 -0.077482395 0.10356171 0.0688624 -0.028950771 -0.012187351
0.07349256 0.037213553 0.04210983 0.06753646 -0.029732082 0.01805549 -0.041712373 0.008600233
-0.057952084 0.04020575 0.011130856 0.076044545 -0.0684037 0.00070353685 0.078096226 -0.14553012
0.053545535 -0.028220568 -0.06418469 -0.08600474 0.055018704 -0.13852742 0.012828901 -0.0064540957
0.009642037 -0.061300386 -0.046816524 0.031161865 0.024138786 0.062135924 0.070025064 0.09678347
-0.054396596 0.06643148 0.15682921 -0.1661008 0.15876566 0.0055416403 -0.009369364 -0.068257645
-0.053534623 -0.048376735 -0.03693372 -0.036324855 -0.029904265 0.018462675 0.022634387 -0.0021752531
0.019239664 0.04700936 -0.09097495 -0.0200698 0.009785577 0.07179995 0.034409143 0.010497998
-0.08803021 -0.022783818 -0.05836151 0.07001139 0.0013234599 0.004895437 -0.08297128 -0.14187615
0.06232374 0.03449062 0.026108881 -0.10522147 0.09372353 -0.008531695 -0.10524397 -0.0313895
-0.03454492 0.033808313 -0.029907178 0.15351467 0.062442623 -0.07200127 0.02258052 0.008261686
-0.030313464 -0.009263866 -0.010136547 0.009816705 -0.030012883 0.0006681142 -0.03622558 0.011536744
-0.054230448 0.1835163 0.024216283 -0.010393031 -0.011302056 0.076766565 0.0030435596 -0.11302058
0.075830534 0.038958795 -0.033614848 0.012415612 0.042478677 0.08644883 0.100907065 0.09785219
-0.012321311 -0.079698026 -0.032227203 -0.06647114 -0.07848663 -0.017900907 -0.040006746 0.001050613
0.057083223 -0.091192394 -0.07355477 -0.036866903 -0.031019658 0.02020069 -0.018533768 -0.033423517
0.011182221 0.034751188 -0.00013165857 -0.050839473 0.09247003 -0.0012022298 -0.06264555 0.05363563
-0.023094904 -0.07890598 0.08776858 0.053336836 -0.025378209 -0.008481544 0.06953524 -0.00877243
0.09041961 -0.04980613 0.13170028 0.025263274 0.0026156842 0.06363985 0.052289046 0.07336832
-0.1259968 0.06975651 -0.060072828 -0.12565209 -0.05569022 -0.022933811 0.038561385 -0.055157695
0.016375145 -0.042489007 -0.051444694 -0.008385622 -0.04982531 -0.10407149 -0.00013352983 0.014978078
-0.05750278 0.06396005 0.013594751 0.051589604 0.017365277 -0.054966662 -0.047026135 0.020717151
-0.13774696 -0.13438396 -0.038901497 0.0021009678 -0.07773649 0.03133002 -0.06995515 0.033636175
0.07134124 -0.086570404 -0.05533356 -0.05997048 -0.039056156 -0.0030706448 0.10043068 -0.09657621
-0.07352419 -0.042067703 -0.0279344 0.1030691 -0.022599358 -0.06950495 0.03931128 0.08767097
0.047997702 -0.098868884 0.05898865 0.10363626 -0.030399712 0.019993218 -0.05358925 -0.024737522
0.077401675 0.10585094 0.041181467 0.027927395 -0.053505596 0.07514559 -0.1018924 0.008057902
0.027543677 -0.017778678 -0.008937106 -0.0033213557 0.053019855 -0.018359987 -0.0127078425 -0.0035814464
0.013410407 -0.009370288 0.014373494 0.019960178 -0.03472638 0.005470664 -0.056242976 -0.045085553
00000000: c13a 9fbd d7e7 403d b32b 31be edc8 00bd
00000010: 9747 813c a2a9 ae3d 1fcf e53c 130e 5a3d
00000020: c989 733e 450d 1dbd 7c4e a73d c5a5 823d
00000030: af13 d73d b6a3 6ebc 7add cb3c 4c00 23bd
00000040: 7196 66bd 52ca 9a3a 4db4 ad3b 14de 27bd
00000050: 8a46 d0bd 3e4c aebd 2179 2c3e eaf8 363e
00000060: 1b98 67bc 3ef4 b4bd 5a1d a83d 17af 9ebd
00000070: 2918 d43d bb07 8d3d 2b2a edbc 74ad 47bc
00000080: 4483 963d 3d6d 183d 5b7b 2c3d 8e50 8a3d
00000090: b290 f3bc 1be9 933c 98da 2abd fee7 0c3c
000000a0: 2a5f 6dbd c9ae 243d 325e 363c 3ebd 9b3d
000000b0: 3d17 8cbd 8f6d 383a eaf0 9f3d d905 15be
000000c0: 9052 5b3d d22e e7bc 4373 83bd 4123 b0bd
000000d0: 4b5b 613d 22da 0dbe 5030 523c e17c d3bb
000000e0: a2f9 1d3c 1d16 7bbd afc2 3fbd 2b47 ff3c
000000f0: b4be c53c 3d82 7e3d 4d69 8f3d 6936 c63d
00000100: f7ce 5ebd 3a0d 883d d697 203e 5416 2abe
00000110: 7793 223e a696 b53b f681 19bc aaca 8bbd
00000120: 1f47 5bbd af26 46bd d047 17bd 5fc9 14bd
00000130: caf9 f4bc 093f 973c c06b b93c b18e 0ebb
00000140: 809c 9d3c e38c 403d 1351 babd 6c69 a4bc
00000150: af53 203c da0b 933d 9af0 0c3d ccff 2b3c
00000160: 2f49 b4bd 21a5 babc 7b0c 6fbd 2262 8f3d
00000170: f277 ad3a e769 a03b d9ec a9bd fb47 11be
00000180: 2e47 7f3d 0946 0d3d 4be2 d53c 5b7e d7bd
00000190: 1ff2 bf3d 86c8 0bbc 278a d7bd 4792 00bd
000001a0: f97e 0dbd 967a 0a3d e6ff f4bc f332 1d3e
000001b0: d6c3 7f3d 6775 93bd c8fa b83c 065c 073c
000001c0: f153 f8bc 78c7 17bc c213 26bc 3fd6 203c
000001d0: 94dd f5bc 6324 2f3a 4661 14bd 9d04 3d3c
000001e0: bf20 5ebd b2eb 3b3e 3a61 c63c 8847 2abc
000001f0: 422c 39bc ca37 9d3d 7576 473b 5577 e7bd
00000200: 0a4d 9b3d 4293 1f3d b9af 09bd da6a 4b3c
00000210: 1ffe 2d3d 160c b13d 5da8 ce3d bb66 c83d
00000220: 53df 49bc b838 a3bd ac00 04bd 0522 88bd
00000230: 99bd a0bd eca4 92bc 1dde 23bd b9b4 893a
00000240: 19d0 693d 14c3 babd e2a3 96bd c001 17bd
00000250: f01c febc eb7b a53c 21d4 97bc 19e7 08bd
00000260: a235 373c 4357 0e3d d40d 0ab9 0d3d 50bd
00000270: ed60 bd3d 2394 9dba 4f4c 80bd 09b1 5b3d
00000280: 8631 bdbc 7599 a1bd 03c0 b33d ba77 5a3d
00000290: f6e5 cfbc 2df6 0abc 7e68 8e3d 3dba 0fbc
000002a0: eb2d b93d 8301 4cbd 70dc 063e edf4 ce3c
000002b0: e66b 2b3b 9c55 823d 0a2d 563d 2142 963d
000002c0: 4e05 01be 80dc 8e3d ed0e 76bd f1aa 00be
000002d0: 6e1b 64bd b0df bbbc 8bf2 1d3d 09ed 61bd
000002e0: 2b25 863c f408 2ebd acb7 52bd d963 09bc
000002f0: a015 4cbd 6f23 d5bd 2404 0cb9 9d66 753c
00000300: 0988 6bbd 7dfd 823d 85bc 5e3c 9f4f 533d
00000310: a041 8e3c b924 61bd 7a9e 40bd 04b7 a93c
00000320: 8a0d 0dbe f39b 09be 2d57 1fbd 64b0 093b
00000330: 4f34 9fbd e853 003d a544 8fbd 16c6 093d
00000340: 5b1b 923d d34b b1bd 71a5 62bd 9ba3 75bd
00000350: 59f9 1fbd df3c 49bb 9aae cd3d bfc9 c5bd
00000360: da93 96bd 2f4f 2cbd afd6 e4bc e415 d33d
00000370: 4a22 b9bc 9c58 8ebd dd04 213d d68c b33d
00000380: 3d99 443d c57b cabd 159e 713d 3f3f d43d
00000390: d108 f9bc d1c8 a33c 6780 5bbd 58a6 cabc
000003a0: c584 9e3d 61c8 d83d e6ad 283d fec7 e43c
000003b0: af28 5bbd eee5 993d f6ac d0bd 4a05 043c
000003c0: 47a3 e13c 97a4 91bc f06c 12bc 1aab 59bb
000003d0: 592b 593d af67 96bc 8e34 50bc b3b6 6abb
000003e0: 53b7 5b3c d685 19bc ce7e 6b3c 8783 a33c
000003f0: 403d 0ebd 4143 b33b 095f 66bd a1ab 38bd

network_body.linear_encoder.seq_layers.4.bias f4 [228]
-0.0065667275 0.010178841 0.01712476 -0.040669285 -0.007635201 0.0070088017 0.0282388 -0.010590783
-0.039097946 0.010274177 0.028689673 -0.027741143 -0.010454902 -0.005473595 0.020293066 -0.009160176
-0.0009632897 -0.015627421 -0.026622998 0.018896671 -0.0033378147 -0.036173124 -0.0002792673 0.013620805
0.024777813 0.0017719857 -0.041141372 -0.033613525 0.02273865 -0.002243964 0.0349383 -0.016787738
0.01187125 -0.032515395 -0.025388056 0.037540063 -0.0044706343 -0.04888964 -0.014364343 -0.016616784
0.00076988613 -0.04715856 -0.011577617 -0.018162379 -0.025058413 -0.026411919 -0.011548181 -0.014220954
-0.051095735 -0.01375554 -0.034206767 -0.0061855908 -0.012571857 -0.004457648 -0.013735376 -0.0043623243
0.0025885715 -0.0031106707 0.011048571 0.021444716 -0.04153905 0.024560833 0.04058054 -0.04226693
-0.023566945 -0.01758966 -0.023793193 0.018415106 -0.057825003 -0.03959652 0.01897366 0.0046330728
0.02048608 -0.008368103 0.018283678 0.0031424698 -0.010454384 0.012512872 0.0015146941 -0.007008436
0.007308595 -0.006877547 -0.0075564426 -0.017590983 -0.030887492 0.009546769 -0.012863793 -0.023151673
-0.02189465 0.0039100857 0.012454255 -0.00053412904 0.008098198 0.06349409 -0.014740905 -0.044939246
0.0070378934 -0.008063874 0.006308483 -0.006700863 -0.044891268 0.023793802 -0.02080498 0.0023296198
-0.0036423742 -0.0006941443 -0.002361001 0.012726 -0.02784495 0.009432984 -0.011228415 -0.01882783
-0.0005207136 -0.021344613 0.038839724 -0.008909287 -0.011081314 -0.03581078 -0.028706877 -0.020429548
0.0043890416 0.01657934 0.0075068222 0.037254944 -0.024145054 0.0018739295 0.0056199054 0.0121540725
-0.0055629723 -0.027337449 0.012089747 -0.0026222044 -0.049186353 0.026722498 0.012873804 0.0020620457
-0.03806248 0.022687942 0.023018787 -0.0071384045 0.019413017 -0.013589383 -0.027571727 -0.010956071
-2.0060217e-05 0.0053282245 0.013413579 0.023332909 0.001839711 -0.024546133 -0.015244392 -0.014951547
-0.0013337071 0.008831394 0.013430338 -0.033152778 -0.01587029 -0.03329421 0.04039897 0.014475101
0.0032978614 0.02415849 -0.021317407 0.028767414 -0.010808257 0.0024642216 0.012522589 -0.019721614
-0.021965533 0.025016386 0.0007539145 -0.0051172897 -0.0013244014 -0.011027121 0.0063884924 -0.0026644492
-0.002056777 -0.03609336 -0.014381981 -0.006446122 0.0075202086 -0.03210464 -0.005226634 0.0012472946
-0.03504438 -0.04490893 0.0020836606 -0.025372516 -0.01398171 -0.003256678 -0.026594415 -0.008622099
-0.017688466 0.017487263 0.0035504967 -0.025500169 -0.019274749 -0.051154815 -0.028643142 -0.017222257
-0.019456305 -0.032195766 -0.035218693 -0.0040363986 0.0077035357 -0.004550345 0.0086805485 0.016231433
-0.023633998 -0.033684958 -0.005747862 0.012904925 -0.019518944 0.005751145 -0.005837664 0.010635632
-0.0014704674 0.013220868 -0.028240887 -0.024243668 0.0020956462 0.0119360555 0.009273536 0.006046863
-0.018584866 -0.0184592 -0.01792569 0.020183366
00000000: b42d d7bb 27c5 263c 3a49 8c3c d694 26bd
00000010: b530 fabb 17aa e53b 0e55 e73c f784 2dbc
00000020: 2b25 20bd 0655 283c 9b06 eb3c 6541 e3bc
00000030: 0a4b 2bbc d85b b3bb a53d a63c 9014 16bc
00000040: 4785 7cba 1405 80bc 7918 dabc 31cd 9a3c
00000050: 3dbf 5abb 452a 14bd 9f6a 92b9 cc29 5f3c
00000060: d7fa ca3c f941 e83a db83 28bd 56ae 09bd
00000070: 6846 ba3c 780f 13bb 761b 0f3d 7086 89bc
00000080: a27f 423c dd2e 05bd 9dfa cfbc 9cc3 193d
00000090: 667e 92bb 8140 48bd 6c58 6bbc ec1f 88bc
000000a0: 2fd2 493a 5629 41bd 0cb0 3dbc 45c9 94bc
000000b0: 4d47 cdbc cf5d d8bc 9534 3dbc 01ff 68bc
000000c0: c349 51bd eb5e 61bc 651c 0cbd 7fb0 cabb
000000d0: 31fa 4dbc 7611 92bb 580a 61bc d4f1 8ebb
000000e0: 06a5 293b 65dc 4bbb 1105 353c d4ac af3c
000000f0: da24 2abd cd33 c93c c837 263d 1720 2dbd
00000100: 770f c1bc 3118 90bc f1e9 c2bc 47db 963c
00000110: e9d9 6cbd f62f 22bd a66e 9b3c 08d1 973b
00000120: 6cd2 a73c 5e1a 09bc a7c7 953c e5f1 4d3b
00000130: dd48 2bbc ca02 4d3c b388 c63a 06a7 e5bb
00000140: f07c ef3b 0c5d e1bb 099c f7bb f71a 90bc
00000150: c407 fdbc 0d6a 1c3c a9c2 52bc 94a8 bdbc
00000160: 695c b3bc 2d20 803b ee0c 4c3c cb04 0cba
00000170: 4eae 043c 3109 823d d683 71bc 3712 38bd
00000180: 219e e63b 571e 04bc 64b7 ce3b ea92 dbbb
00000190: e8df 37bd 38eb c23c 356f aabc 89ac 183b
000001a0: e6b4 6ebb 3cf7 35ba 06bb 1abb b680 503c
000001b0: 181b e4bc cd8c 1a3c 63f7 37bc d23c 9abc
000001c0: 8080 08ba e6da aebc 6716 1f3d 42f8 11bc
000001d0: 668e 35bc 53ae 12bd af2a ebbc de5b a7bc
000001e0: f3d1 8f3b 65d1 873c cafb f53b a498 183d
000001f0: d9cb c5bc a49e f53a 2f27 b83b e021 473c
00000200: 9849 b6bb c9f2 dfbc 1314 463c 4ad9 2bbb
00000210: a177 49bd 24e9 da3c a6ec 523c 6323 073b
00000220: 67e7 1bbd 10dc b93c e591 bc3c 47e9 e9bb
00000230: 0c08 9f3c 01a6 5ebc 1ade e1bc 1881 33bc
00000240: fd46 a8b7 6398 ae3b a1c4 5b3c a824 bf3c
00000250: 7522 f13a f914 c9bc 9dc3 79bc 55f7 74bc
00000260: c9cf aeba 8db1 103c ec0a 5c3c 35cb 07bd
00000270: 6902 82bc 825f 08bd 6479 253d f928 6d3c
00000280: ef20 583b 07e8 c53c d8a1 aebc a4a9 eb3c
00000290: 1e15 31bc c77e 213b 8c2b 4d3c 398f a1bc
000002a0: 10f1 b3bc 2aef cc3c 58a2 453a f0ae a7bb
000002b0: 8997 adba 19ab 34bc 8f56 d13b 0a9e 2ebb
000002c0: feca 06bb a2d6 13bd 67a2 6bbc fe39 d3bb
000002d0: 156c f63b 2880 03bd 2f44 abbb 437c a33a
000002e0: b28a 0fbd 6df2 37bd 068e 083b 06da cfbc
000002f0: 8b13 65bc fe6d 55bb 88dc d9bc b443 0dbc
00000300: 67e7 90bc 7341 8f3c 73af 683b bbe5 d0bc
00000310: 14e6 9dbc b687 51bd 06a5 eabc b115 8dbc
00000320: d462 9fbc b5df 03bd 7a41 10bd c443 84bb
00000330: f16d fc3b 0f1b 95bb dc38 0e3c c8f7 843c
00000340: 169c c1bc 3df9 09bd 9058 bcbb 2e6f 533c
00000350: 31e6 9fbc 1a74 bc3b e049 bfbb 1341 2e3c
00000360: b3bc c0ba 579c 583c 6f59 e7bc a89a c6bc
00000370: 1c57 093b 728f 433c 07f0 173c c324 c63b
00000380: 4a3f 98bc c037 97bc e6d8 92bc 9657 a53c

network_body.linear_encoder.seq_layers.4.weight f4 [228, 228]
0.13431217 0.055696055 0.049991153 0.011261491 0.17615543 -0.019948356 -0.12192801 -0.00022100924
0.0836522 -0.08900184 -0.05280588 -0.027924094 0.028886704 0.048546452 -0.010807204 -0.00873752
0.03686131 -0.07016664 -0.037786707 -0.02990941 -0.20018214 -0.11962756 -0.031911843 0.09939765
0.012254456 0.0041431272 0.025482463 0.018869529 -0.02691971 0.016595088 -0.16340773 -0.018571472
-0.099002935 -0.04712835 -0.056737922 0.059870727 0.038052104 -0.041282907 0.1800932 0.0037648592
-0.00040752222 0.029717138 0.02395393 -0.07586507 -0.03138181 0.03934125 0.03503679 0.05955894
0.01540002 0.08785989 -0.09123642 0.06351895 -0.0785586 0.01290261 0.022182722 0.027176917
-0.008107948 -0.04188033 0.030769158 -0.08169747 -0.1557803 -0.096346796 0.047696277 0.08191362
-0.06288488 -0.14333193 -0.036711857 0.11449696 0.037788287 0.0207191 0.08252995 0.12004167
-0.05344945 -0.02377766 -0.040127724 -0.030550653 -0.009292788 0.05660628 -0.012918381 0.068647824
-0.0804124 0.08737873 0.16028301 0.007272201 -0.08516491 -0.08125845 -0.11262141 -0.018548004
0.043622456 0.03829869 -0.09139149 0.12073732 -0.18365306 -0.09860589 0.073472336 -0.047087777
-0.08999235 -0.015302287 -0.022005199 0.013558994 0.07547617 -0.029665211 -0.0858994 0.105287924
0.061114904 0.05224538 -0.10183231 0.07677697 -0.0045982185 0.04829594 0.044509474 0.075486906
0.0623439 -0.14109068 -0.035249043 0.015368491 0.015291376 -0.006682013 -0.0033826632 -0.11614063
-0.060725085 -0.05611619 0.08161021 -0.051416606 -0.032796763 -0.041927952 0.037755903 0.049017835
0.02218683 0.09913949 0.017371565 -0.036242954 0.057915807 0.10678482 0.048859403 0.11441404
0.079417124 -0.057816412 -0.022704463 -0.065093756 -0.043296866 -0.1148416 0.18392324 -0.06188055
-0.012814973 -0.028726205 -0.0696253 0.07694497 -0.0030189797 0.03525588 -0.014201909 0.042492285
-0.07219128 0.10028287 0.06993545 -0.04821884 0.15201691 0.036231197 -0.027444705 0.04977722
0.009519846 -0.019504093 -0.07752734 -0.026785284 0.00014904335 0.1743961 -0.08925658 0.06968236
0.050414592 0.05716033 -0.041613054 0.023577193 0.17363799 -0.047922067 -0.12264567 0.09093073
0.027132625 -0.01787275 0.00603561 0.0007865252 -0.0029340233 0.008326755 -0.09710953 -0.053043853
-0.21561132 -0.08249969 0.0059861364 -0.034780692 0.017466525 -0.08641879 0.06350432 -0.04531637
0.019997053 -0.031814933 -0.0061434563 0.06894986 0.100072056 0.077079736 0.024478657 0.07591064
0.084182374 -0.022370577 0.0349416 0.06522515 0.09934523 0.025474936 -0.037486646 -0.16894662
-0.07288492 -0.00054509175 -0.014417455 0.069747776 -0.06959676 0.03805519 -0.07314373 -0.113908246
0.026271539 -0.11257546 -0.012474333 0.07803649 -0.007455176 -0.03179931 0.091150254 0.029564986
0.07805671 -0.048162133 0.01100866 0.06223083 -0.011768801 0.0017523887 0.06310057 -0.05132908
-0.048322286 -0.057560287 -0.117442235 -0.008126177 0.012597174 0.121537834 0.0008684971 0.0035979354
-0.060113944 0.052556418 0.009273793 0.029881127 -0.0018581062 0.0062831407 0.061596796 -0.004183266
-0.10762596 0.025349505 -0.06627463 -0.04639458 -0.014465697 -0.0048187952 0.04451876 -0.040330008
00000000: 2189 093e 8c21 643d 86c3 4c3d 1e82 383c
00000010: 1762 343e bc6a a3bc 64b5 f9bd b7be 67b9
00000020: d851 ab3d 9946 b6bd fa4a 58bd 12c1 e4bc
00000030: cfa3 ec3c a5d8 463d b310 31bc d127 0fbc
00000040: e3fb 163d 87b3 8fbd 3cc6 1abd 9404 f5bc
00000050: 8cfc 4cbe 4bff f4bd feb5 02bd ff90 cb3d
00000060: eac6 483c 12c3 873b 99c0 d03c 4594 9a3c
00000070: b986 dcbc 6cf2 873c 5b54 27be 3323 98bc
00000080: 0dc2 cabd a809 41bd 0666 68bd 023b 753d
00000090: 86dc 1b3d 4418 29bd 5a6a 383e dbbb 763b
000000a0: b5a8 d5b9 5b71 f33c 083b c43c 255f 9bbd
000000b0: 368a 00bd 4a24 213d bd82 0f3d 13f4 733d
000000c0: 5e50 7c3c e3ef b33d 29da babd 3916 823d
000000d0: 55e3 a0bd 7865 533c 8ab8 b53c 20a2 de3c
000000e0: 33d7 04bc b58a 2bbd 9a0f fc3c 0151 a7bd
000000f0: df84 1fbe 7851 c5bd 2c5d 433d 54c2 a73d
00000100: cac9 80bd 9bc5 12be 2c5f 16bd 627d ea3d
00000110: e4c7 1a3d 1abb a93c 7605 a93d 68d8 f53d
00000120: cfed 5abd 5ec9 c2bc f85c 24bd 5d45 fabc
00000130: c740 18bc fddb 673d 9ea7 53bc 3b97 8c3d
00000140: 42af a4bd 9ff3 b23d 3b21 243e a54b ee3b
00000150: f16a aebd d56a a6bd 0ea6 e6bd fcf1 97bc
00000160: 76ad 323d 16df 1c3d 762b bbbd 2145 f73d
00000170: 8c0f 3cbe e3f1 c9bd aa78 963d 1ddf 40bd
00000180: e94d b8bd 72b6 7abc 3f44 b4bc 8b26 5e3c
00000190: 4093 9a3d 7504 f3bc 06ec afbd 32a1 d73d
000001a0: 9f53 7a3d 40ff 553d 758d d0bd 3e3d 9d3d
000001b0: a7ac 96bb f7d1 453d 914f 363d e198 9a3d
000001c0: 515c 7f3d 137a 10be 4d61 10bd 20cc 7b3c
000001d0: ae88 7a3c caf4 dabb acaf 5dbb 23db edbd
000001e0: deba 78bd 17da 65bd 4123 a73d 389a 52bd
000001f0: e655 06bd a5bc 2bbd efa5 1a3d edc6 483d
00000200: 28c1 b53c a509 cb3d d04e 8e3c 7e73 14bd
00000210: 2039 6d3d 00b2 da3d cc20 483d e951 ea3d
00000220: 72a5 a23d e7d0 6cbd b6fe b9bc e04f 85bd
00000230: 0e58 31bd 1332 ebbd 6056 3c3e 7676 7dbd
00000240: e4f5 51bc 3853 ebbc b697 8ebd 5395 9d3d
00000250: 13da 45bb 7868 103d 20af 68bc 640c 2e3d
00000260: 06d9 93bd 1b61 cd3d 513a 8f3d 1e81 45bd
00000270: 52aa 1b3e 2a67 143d b8d3 e0bc 33e3 4b3d
00000280: 21f9 1b3c 0cc7 9fbc a7c6 9ebd d06c dbbc
00000290: 8548 1c39 e494 323e 27cc b6bd a0b5 8e3d
000002a0: 887f 4e3d f320 6a3d 7372 2abd f524 c13c
000002b0: 28ce 313e ee49 44bd a72d fbbd e439 ba3d
000002c0: 3d45 de3c e069 92bc 5ec6 c53b d02e 4e3a
000002d0: be48 40bb f16c 083c 5ce1 c6bd 8344 59bd
000002e0: 37c9 5cbe 99f5 a8bd 5a27 c43b 3376 0ebd
000002f0: f515 8f3c 56fc b0bd 8e0e 823d a89d 39bd
00000300: dcd0 a33c 6050 02bd 0c4f c9bb 9635 8d3d
00000310: 94f2 cc3d fbdb 9d3d 7787 c83c 0a77 9b3d
00000320: cf67 ac3d 8042 b7bc ec1e 0f3d c394 853d
00000330: 8375 cb3d d0b0 d03c 998b 19bd 5800 2dbe
00000340: b044 95bd 7de4 0eba 3037 6cbc ecd7 8e3d
00000350: bf88 8ebd c2df 1b3d 61cc 95bd ba48 e9bd
00000360: 6937 d73c f68d e6bd 2561 4cbc 98d1 9f3d
00000370: 8d4a f4bb fe3f 02bd fcac ba3d 4532 f23c
00000380: 32dc 9f3d a845 45bd ab5d 343c c1e5 7e3d
00000390: eed1 40bc 68b0 e53a df3a 813d 713e 52bd
000003a0: 97ed 45bd 56c4 6bbd 8e85 f0bd a823 05bc
000003b0: 6164 4e3c d4e8 f83d dbab 633a 57cb 6b3b
000003c0: 0a3a 76bd 6645 573d 1bf1 173c 44c9 f43c
000003d0: b38b f3ba cee2 cd3b ec4c 7c3d c713 89bb
000003e0: 006b dcbd c4a9 cf3c feba 87bd 3e08 3ebd
000003f0: 8801 6dbc fce6 9dbb 4e59 363d 1431 25bd

network_body.linear_encoder.seq_layers.6.bias f4 [228]
0.005459832 -0.020416703 0.023639267 -0.048089292 -0.025393602 -0.04052283 0.006514745 0.026092378
-0.017871631 -0.024433007 0.008183414 0.009900289 0.029297771 -0.017905623 -0.0043717204 0.005750652
0.010775045 0.005684388 -0.028852193 -0.027032718 0.02155153 0.020468803 0.01188338 -0.024535708
0.020905528 -0.06851642 -0.017821128 -0.045369603 0.021446083 -0.009255495 -0.030443806 -0.0038468023
-0.0076783346 0.014419307 0.019036058 0.014887193 0.012062531 -0.052232765 0.018049972 -0.036013763
-0.013060002 -0.056672394 -0.024491599 0.015923413 -0.0276887 0.022865016 -0.0116796335 -0.009157378
0.021353817 -0.00016387673 0.015357981 -0.019999102 -0.0043999013 -0.009350126 -0.0129696 -0.03763673
0.020002108 -0.00394256 -0.043286093 0.023029536 0.022494225 0.001937503 0.023688542 -0.0046748826
-0.029165339 0.018542847 0.018570442 -9.356902e-05 0.019605422 -0.004061638 -0.020200858 0.01219822
0.009013301 -0.041343432 0.008472035 -0.02598638 0.0029270952 -0.0065984274 -0.012521637 0.017374093
-0.0065482077 0.008177734 -0.04130308 -0.007151645 -0.0056992695 -0.0011865243 0.012413781 0.01303964
-0.02453577 -0.009922343 -0.045971148 0.007661301 0.001117527 -0.021084853 -0.055627305 0.008261982
-0.03140965 0.00984294 -0.027668497 0.02373048 0.024367739 0.0032395576 -0.026087025 -0.020852981
0.0025183691 0.03703003 0.024299808 -0.01573251 0.008769949 -0.028382147 0.003989668 0.04358389
-0.034033857 -0.004069011 0.024594927 0.026552435 0.03462679 0.023287201 -0.049039975 0.039831087
-0.026002193 -0.01633419 -0.024868105 -0.013088581 0.01572222 -0.007683622 -0.008451183 0.029676659
-0.019940328 -0.012212451 0.0030053777 -0.016903967 0.0005314722 0.034825835 0.03175556 -0.047021117
0.012511743 -0.024298953 -0.045267787 0.004127356 0.014769697 0.0127060525 0.017724028 0.010960041
-0.0103795435 0.010546627 -0.027046358 -0.029169597 -0.0404591 -0.056750778 0.001412814 0.033640005
-0.013334508 0.0034517713 -0.014484692 0.01715579 -0.0598458 0.04128658 -0.009187665 -0.012573145
0.02223691 0.009649343 -0.024464786 -0.043653894 0.026174558 -0.02933021 -0.028285718 -0.029135875
-0.016610576 0.009446005 0.018257234 0.028837983 0.006343024 0.029782739 0.007881562 -0.016263902
-0.017208323 -0.024662882 0.025075128 0.021516213 0.017955381 0.008214444 0.010763995 -0.019321727
0.030590385 -0.0054836143 -0.056214716 0.0058976947 -0.0017224081 -0.03836589 -0.046388496 -0.00025692862
0.002393642 -0.006478412 -0.023476545 -0.03412486 0.017745249 -0.021556186 -0.004856658 0.0042360313
0.0051877387 0.020035805 0.03738819 -0.0064406865 -0.015941566 0.0020909845 -0.01849541 0.012422782
-0.0017543697 0.012077606 0.008954623 -0.025844479 -0.0050764834 -0.030537773 0.02589663 -0.030380165
0.028916338 -0.01156473 -0.0434111 -0.0023754817 0.03677196 -0.013414944 -0.010089885 -0.002996568
0.016156558 0.016630728 -0.024133723 -0.019622546
00000000: 64e8 b23b ee40 a7bc 23a7 c13c 47f9 44bd
00000010: 3e06 d0bc 44fb 25bd a479 d53b afbf d53c
00000020: 8767 92bc bb27 c8bc ba13 063c d234 223c
00000030: e101 f03c d0ae 92bc a640 8fbb f76f bc3b
00000040: d089 303c 1a44 ba3b 6f5b ecbc b873 ddbc
00000050: d68c b03c 31ae a73c 82b2 423c 1cff c8bc
00000060: 1242 ab3c 5652 8cbd 9dfd 91bc 7ad5 39bd
00000070: b2af af3c 5ca4 17bc 4a65 f9bc a21a 7cbb
00000080: 8a9a fbbb f53e 6c3c 82f1 9b3c 6ae9 733c
00000090: eca1 453c 06f2 55bd 89dd 933c 2b83 13bd
000000a0: 9ef9 55bc 5021 68bd 9ba2 c8bc d171 823c
000000b0: 6ad3 e2bc 6a4f bb3c ef5b 3fbc d408 16bc
000000c0: 33ee ae3c 53d6 2bb9 0ba0 7b3c 28d5 a3bc
000000d0: 0c2d 90bb 4531 19bc 727e 54bc f928 1abd
000000e0: 76db a33c 9730 81bb c24c 31bd 70a8 bc3c
000000f0: cf45 b83c d0f3 fd3a 790e c23c c22f 99bb
00000100: 26ec eebc 2be7 973c 0a21 983c 7c3a c4b8
00000110: 8d9b a03c 7d17 85bb 457c a5bc 0bdb 473c
00000120: 86ac 133c bb57 29bd 4ace 0a3c 64e1 d4bc
00000130: 82d4 3f3b 9f37 d8bb 8d27 4dbc 1d54 8e3c
00000140: 5992 d6bb e7fb 053c 6b2d 29bd 5958 eabb
00000150: f0c0 babb 2685 9bba 2c63 4b3c 37a4 553c
00000160: 3dff c8bc 5391 22bc 3e4c 3cbd a70b fb3b
00000170: fc79 923a 24ba acbc 75d9 63bd 445d 073c
00000180: 68a7 00bd 4844 213c 0ba9 e2bc 6c66 c23c
00000190: da9e c73c c24e 543b 75b4 d5bc dfd3 aabc
000001a0: 390b 253b cdac 173d 6410 c73c 77e1 80bc
000001b0: d5af 0f3c ad81 e8bc c3bb 823b 0585 323d
000001c0: 1667 0bbd 5755 85bb 4d7b c93c 7e84 d93c
000001d0: d2d4 0d3d cdc4 be3c 24de 48bd ec25 233d
000001e0: 8d02 d5bc 47cf 85bc 32b8 cbbc 7d71 56bc
000001f0: e3cb 803c e5c6 fbbb d576 0abc 771c f33c
00000200: e659 a3bc bb16 48bc dff5 443b 307a 8abc
00000210: 7f52 0b3a 89a5 0e3d 1e12 023d 3799 40bd
00000220: 0efe 4c3c 990e c7bc b76a 39bd c63e 873b
00000230: 99fc 713c 0c2d 503c fb31 913c be91 333c
00000240: f60e 2abc c3cb 2c3c 5390 ddbc 14f5 eebc
00000250: 71b8 25bd 8173 68bd 2c2e b93a 1aca 093d
00000260: fb78 5abc 1d37 623b 3451 6dbc 4d8a 8c3c
00000270: df20 75bd 1e1c 293d dc87 16bc 98ff 4dbc
00000280: 2e2a b63c 4718 1e3c 606a c8bc 6dce 32bd
00000290: 076c d63c e945 f0bc 73b7 e7bc 5cae eebc
000002a0: e712 88bc 6bc3 1a3c 3290 953c a23d ec3c
000002b0: 24d9 cf3b eefa f33c ab21 013c e03b 85bc
000002c0: 78f8 8cbc d009 cabc 5b6a cd3c c542 b03c
000002d0: 2a17 933c e095 063c 785b 303c 9948 9ebc
000002e0: b098 fa3c e4af b3bb 6741 66bd 7341 c13b
000002f0: 6dc2 e1ba 8d25 1dbd dd01 3ebd 60b4 86b9
00000300: a6de 1c3b dc48 d4bb e251 c0bc 82c6 0bbd
00000310: 7c5e 913c 9996 b0bc 9a24 9fbb 68ce 8a3b
00000320: e8fd a93b 2122 a43c 5c24 193d 650c d3bb
00000330: e397 82bc e608 093b b083 97bc ed88 4b3c
00000340: e1f2 e5ba 27e1 453c 69b6 123c cdb7 d3bc
00000350: a158 a6bb 5a2a fabc 2b25 d43c d3df f8bc
00000360: f5e1 ec3c fe79 3dbc d6cf 31bd f8ad 1bbb
00000370: 329e 163d 5aca 5bbc 0c50 25bc 1262 44bb
00000380: c25a 843c 2a3d 883c 16b4 c5bc 76bf a0bc
