Assets/Viborin3.onnx (onnx, 71919 bytes, 5 tensors)

action_model._continuous_distribution.mu.weight f4 [1, 128]
00000000: f8ca 283c 39a4 a23b c240 58bc 40f7 ab3b
00000010: 37fe 043d c698 92bc 6a99 edbc 78ba c7bc
00000020: f45f 29bb 0685 b33b 6815 c4bb 241b a73c
00000030: b730 c6bc 2f98 21bd 62be f43c e193 e93b
00000040: a3b5 d6b9 3725 273b f983 c23c e711 423c
00000050: c7eb 253b f796 8c3c 45d7 99bc ddea 453c
00000060: 69b9 6cbc 222f ec3a 7286 fa3a 3cdc 3d3a
00000070: 1247 34bc 7531 90bb a890 d73b e9c0 71bc
00000080: 950d fcbc b2ba abbc 873a c73c 4a16 a8bc
00000090: 30d0 be3b 4730 06bc 2c0b 87ba 63db 7d3c
000000a0: b4b8 b53a 0d39 513d 3c68 d6bc 611a a5bb
000000b0: 6e48 263d f75c adbc 80d2 053d 9587 053d
000000c0: b91e ddbc 9091 f8bc 5852 7ebc c432 d9bb
000000d0: 9b72 31bc 05e0 213d 3c26 4bbc 4f5a 0b3d
000000e0: 9f05 9dbc 3fb6 aabb 0cb6 6a3c b963 a2bb
000000f0: 9ea5 8bbc 273d 4abc cac9 58bb 24d7 94bd
00000100: f10f f03c 48f7 073d e737 2e3c 2172 dcbc
00000110: 5dc7 00bc 089f b33a 6512 0b3d 357f d5ba
00000120: 5218 f2bb 1d6f dcbc 3127 4abc a03e 18bd
00000130: cc87 7a3c dec2 7cbc db1e fbbc 1222 f73c
00000140: 2873 8ebb b241 89bc 7dc1 2e3d f26f e8bc
00000150: ab56 233d 672e 813d 119a d3bc 78d8 773c
00000160: 9e01 4fbc a3da 08bd 2f25 83bd 5b87 e93c
00000170: cddf 0eba 1263 dbbb 1ca9 41bc 633f 263c
00000180: f2c0 9c3c 6e77 85bc 3c1b 86bd 59a9 07bc
00000190: 3ea6 3cbc bc0e 8bbd f2a1 833c 2aa8 44bc
000001a0: 12ba fb3c 47ae 6fbc 77da 27bc 0fec ebbb
000001b0: 57c9 893c 0be4 02bd 54ac 3ebc ddd3 5c3c
000001c0: 32af 27bd 6aa1 37bd 084b 1e3d 7b90 ac3c
000001d0: 8559 d0bc 0cc7 1fbc 2867 b9bc 9e54 adbc
000001e0: af75 4bbc 3b90 1dbc a435 99bc b660 e83c
000001f0: 13a9 84bc c404 883c ef96 3e39 6b13 e0bb
0.010302298 0.0049634245 -0.013199033 0.0052479804 0.032469 -0.017895114 -0.029003818 -0.024380907
-0.0025844546 0.005478504 -0.005983997 0.020398684 -0.02419315 -0.039451774 0.029875938 0.0071282242
-0.0004095259 0.002550436 0.02374457 0.011845089 0.0025317536 0.01716183 -0.018779406 0.012079922
-0.014448502 0.0018019418 0.0019113554 0.00072425953 -0.011003273 -0.004400427 0.0065785237 -0.014755466
-0.030768195 -0.020963047 0.0243199 -0.02051844 0.0058231577 -0.008190221 -0.0010303012 0.0154942
0.001386425 0.0510798 -0.02617275 -0.005038545 0.040596418 -0.021162493 0.03267145 0.032600004
-0.026992189 -0.030342847 -0.015522562 -0.006628366 -0.010830547 0.039520282 -0.0123992525 0.03402167
-0.01916772 -0.0052097137 0.01432563 -0.0049557355 -0.017046746 -0.012343681 -0.003307926 -0.07267597
0.029304476 0.03319481 0.010633445 -0.02690989 -0.007860032 0.0013704011 0.03395309 -0.0016288521
-0.007388153 -0.026908452 -0.0123384455 -0.0371691 0.015291166 -0.015427319 -0.030654361 0.030167613
-0.004347224 -0.016754959 0.042664994 -0.028373692 0.039877575 0.06307679 -0.0258303 0.015127294
-0.012634663 -0.033411633 -0.064035766 0.028506925 -0.0005450219 -0.0066951597 -0.011820104 0.0101469485
0.019134972 -0.0162923 -0.06548163 -0.008280122 -0.011514245 -0.0678992 0.016068432 -0.012002984
0.030728374 -0.014628953 -0.010244957 -0.0071997712 0.01681964 -0.03195576 -0.011637766 0.0134782465
-0.040938564 -0.04483167 0.038645774 0.021064987 -0.025433311 -0.009752046 -0.022632197 -0.021158513
-0.012418195 -0.009616907 -0.018702336 0.028366428 -0.016193902 0.016603835 0.00018176039 -0.0068382523

network_body.linear_encoder.seq_layers.0.bias f4 [128]
00000000: 78fd f6bc b84b 763c 3811 2d3c a55b 8ebb
00000010: 143f b63b 009a aebc 1f3c fabc 1d79 433a
00000020: 1f96 7bbc 5246 38bd e851 10bd 6299 c6bc
00000030: 7e00 8cbc 7337 ebbd f826 e0bc 4134 3cbd
00000040: e50d 07be d261 82bd 2b0e 3fbd abc8 41bd
00000050: 3e89 e4bc 075c d8bc 98a4 893c dbcc bebd
00000060: 8c88 08bd 9504 40bc ac05 abbc c453 12bd
00000070: 4d87 b0bc 4afb 183d 8c8c 69bd 43b8 7dbd
00000080: fdd4 2438 0ae8 2a3d 41c0 fab9 a849 f3bc
00000090: c845 533b 79a3 2b3d 38fb 8a3d d123 8abc
000000a0: 450c 91bc e577 64bd a9b4 a73c fd1a b7bc
000000b0: e3ce 5e3c 32e4 33bc 707b 62bd 3bc4 91bc
000000c0: ac96 5b3d 8cb3 53bd 54e5 52bd ab59 483b
000000d0: 98f7 0ebd fbd9 123d d54a 43bd a967 133d
000000e0: 93dc 13bd f926 1e3c 19b8 8ebd 7804 b6bb
000000f0: d59a a43b 64aa 5cbc 89fc 34bc 2f3b 5a3d
00000100: ba96 a1bc 0f99 1dba 3852 0abd 48a2 ad3c
00000110: cbb3 4fbd ca6f f93a 4092 f6b9 a6a9 c83c
00000120: 6f30 fdbc 1572 cbbb 132d 003b 0000 68bd
00000130: 309f 103c 1188 003d 5d61 e8bd 1e47 1fbd
00000140: 7964 81bc a89c 3ebd e8e3 f7bc 183b 87bc
00000150: 7213 99bc 7cb4 a83c 03c7 2abd 741a acbd
00000160: 42c5 62bd fb7e 45bd c4f9 36bc 4b45 363d
00000170: 8ae4 0c3c 895d eebc f92c 6dbd 2972 0c3c
00000180: 50e4 0cbd 5c3a 8cbc 359d acbc cd9f 6cbc
00000190: 46c5 80bc ec3c c5bc 3943 c2bc c2c2 91bc
000001a0: 004e 7cbd 2b0e c1bd e6cb 26bd bdba ca3c
000001b0: e36e cfbc 7763 7f3c 9767 8abc 0265 88bc
000001c0: 0666 52bb 6a6b 8a3b 4d60 26bc 0984 3b3c
000001d0: 9f16 2cbd 7000 87bc f431 21bd 419c 64bc
000001e0: 16ba 223c 4806 983c 1c2d 6dbc 94a7 e73c
000001f0: 5184 aabc 4741 95bc 1bc8 ffbc 14f5 46bc
-0.03015016 0.015032701 0.010563187 -0.004344421 0.0055617187 -0.021313667 -0.030546246 0.0007456707
-0.015355616 -0.044988938 -0.035234362 -0.02424306 -0.017090078 -0.114851855 -0.027362332 -0.04594827
-0.13188894 -0.06366314 -0.04664437 -0.047310513 -0.027897473 -0.02641107 0.016802117 -0.09316417
-0.033333346 -0.011719842 -0.020876728 -0.035724416 -0.021548891 0.037349023 -0.0570188 -0.061943304
3.9299008e-05 0.041725196 -0.00047826956 -0.029698208 0.0032237638 0.041903947 0.067861974 -0.016862782
-0.017706046 -0.055778403 0.020471888 -0.022351736 0.01359913 -0.010979699 -0.0552935 -0.017793765
0.05361049 -0.0516849 -0.051488236 0.0030571024 -0.034904093 0.035852414 -0.047678787 0.03598753
-0.036099028 0.0096528465 -0.069687076 -0.005554732 0.00502334 -0.013468359 -0.011046537 0.053279098
-0.019725192 -0.0006011882 -0.033769816 0.021195546 -0.050708573 0.0019030508 -0.0004702974 0.024494957
-0.030906884 -0.006208668 0.0019558116 -0.056640625 0.008827016 0.031379763 -0.113466956 -0.038886182
-0.01579498 -0.046536118 -0.030260041 -0.01650767 -0.01868603 0.020593874 -0.0416937 -0.08403483
-0.0553639 -0.0482168 -0.011167947 0.044499677 0.00859941 -0.029097335 -0.057904217 0.00857214
-0.034397423 -0.017117672 -0.021071056 -0.014442396 -0.015719067 -0.024076901 -0.023713695 -0.017793063
-0.061597824 -0.094265305 -0.040721796 0.024747247 -0.02532143 0.015587679 -0.016895099 -0.016649727
-0.0032104268 0.0042242305 -0.010154796 0.011445054 -0.04201376 -0.0164797 -0.03935428 -0.013953269
0.009932062 0.018557683 -0.014476087 0.02827815 -0.020815047 -0.018219603 -0.031223347 -0.012143392

network_body.linear_encoder.seq_layers.0.weight f4 [128, 5]
00000000: 7923 b3be c19b bebd 836c 1dbf 7da5 b6be
00000010: 3284 3c3e 8946 203f 5c3b 0f3f 41e8 f5be
00000020: 223c d53d 79bf 31bf 2d78 3bbf 4f55 db3e
00000030: 4d15 b2be 3365 8b3f 1da4 c93d 7cc6 adbd
00000040: 2b2d 1c3f 2519 7b3e f0d3 01bf 89af 23bc
00000050: 265f a43e 40b6 dabc 1733 183f 39da a9be
00000060: da26 1a3f 4a30 2d3e 1dab b63e ccf5 f73e
00000070: 316f a3be 0b2d d33e 8fd0 0d3f 8eda 933e
00000080: f04f aebe b2b1 8abe 72c1 a5be 6d6f 8dbf
00000090: a3d8 513e 5739 f13d 09e1 bf3d ceaa 2b3e
000000a0: 62ac d93d 596b 0fbf 9476 373f 18e7 7ebf
000000b0: b908 adbd 2ed5 e6be 8ca8 dd3e f267 bfbd
000000c0: 04cf 55be e281 efbe 14dd 013e 837a 793e
000000d0: 0225 523f 762b cebc 24eb 19bf ced6 3f3e
000000e0: a3cf 3f3f b12b 3ebe 1a6e 08bf e611 bdbe
000000f0: 3465 4a3e 2ce2 573f dea4 613e b77a 833e
00000100: cff0 cabe abcf 003f a58d 933e ecfc af3e
00000110: ba90 0bbe eb18 743e 5af3 153f 7b48 1dbf
00000120: 72fe 7abd 0096 74bd e242 6abf bd49 383e
00000130: f2aa aabe d5ad d43e db14 85be 4fdb cf3e
00000140: 89f1 b63e 4c1f 113e cdef 583e 0ec6 4abf
00000150: 6cab d13e 9f21 43be ee69 c53e 6dba debe
00000160: 4ec7 08be 3fed 293f b6b6 093f 87fc 243f
00000170: 21fe 763e 2b0e c2be 226d 89be 76f2 233d
00000180: c1ab 14bf 8a28 e9be 5a8f 84be 63a5 2abe
00000190: 5cac 873e 4ff6 a8be 058a 94bd 6eb3 f63e
000001a0: 0062 a53e 9489 5a3f ddd6 14be 3ea7 053f
000001b0: d369 4abe 626f 4bbf 2962 f13d 1f08 c2bd
000001c0: cf08 013f ce39 23bf a12e 4cbf f90e ee3c
000001d0: 97e9 cf3d 1621 bd3e 76c0 ea3e 1eb2 1e3e
000001e0: 5eae 653e cf0f 3d3e c12e b1bd 0445 99bf
000001f0: 9203 09bf cd41 ae3c e9ad 903e 6f5b aabe
00000200: a1c2 0fbe 5b4f b5be 3d68 4ebd daa9 30be
00000210: 6142 d73d d9d6 dbbe 1e6e 1a3e 545b 1c3f
00000220: 4df9 38be e892 773d f433 07bf 5c8b 87be
00000230: 4078 0cbf a5ae 0cbe f725 7cbe c1a6 14be
00000240: afb8 563e 9903 cebe 88bb ec3c 70dd 803e
00000250: 70b9 1e3e 1c11 d6be 22f1 95bb 9040 0dbf
00000260: 93ff 95be c9d8 2cbf 1c2d 313e ac1c 8abe
00000270: 66e8 f23e 6a8a babd 5ddc 10bf 7ded bd3e
00000280: 079e 0cbf 229f 1bbd ec56 a2be 2785 9f3c
00000290: d355 853e 72e0 2c3f 22c5 20bf dd4d 5b3f
000002a0: bb15 e0be 77d5 9c3e 764a 943e 7c2f 84be
000002b0: 6f2e 52be d8ce 283f 3c29 3c3f 1adc 2abd
000002c0: 62a0 c9be d40c c83d c89d 50bf 3436 75be
000002d0: 0653 18bf ecd4 5b3a a87e b7be 814a 863e
000002e0: eb66 41be c869 ed3e 22d6 31ba 218a 3c3f
000002f0: 8316 afbe 0f25 33bf 651a c2be ea33 3c3e
00000300: 59c9 c0be 8a3d 513e d69d 693d 9070 d0bc
00000310: 8f0d d13e 0f4a dfbe 64b4 913e 89cf dfbe
00000320: d33f 12bd 165a d6bd 2108 3e3f eeb3 333c
00000330: 0b36 13be 5081 82be d965 1f3e 85e9 d13e
00000340: 2538 123f f1db 07bf ae12 bebe f93d 43be
00000350: afb6 9cbe 2320 a03e 9bc0 2ebd 4c95 a43e
00000360: da47 7bbd 807e cfbd 6902 043e e166 98be
00000370: 0c62 b53e fafa 473f e031 4cbe b8d0 833e
00000380: 1937 843e d95e 3b3e 11c6 1fbd 8cbf 23be
00000390: 5e0e b4be ea8b 6dbf ee45 2d3f fe2a 28bf
000003a0: 4b55 143e d7d9 a8be 3551 00bd ecd2 0e3e
000003b0: c16b 023e b290 d3be aa85 d63e 83d7 d03e
000003c0: e3d8 32bf 6eac 8dbf e582 e6be b358 8c3e
000003d0: d4a2 3abd 4d7d 50bc 1143 f93e d49d be3e
000003e0: 3e5e b1bc 24fb edbd ed85 81bc 312e c83e
000003f0: ddcb 8d3e cf1d 4cbf d46e a73e eac6 0dbe
-0.34988 -0.093070515 -0.614937 -0.35673133 0.18409804 0.6260763 0.5594995 -0.48028758
0.1041186 -0.6943279 -0.7323025 0.42838523 -0.34781876 1.0890259 0.09845755 -0.084851235
0.6100642 0.2452131 -0.50714016 -0.009990581 0.32103842 -0.026698232 0.59452957 -0.33174303
0.6021553 0.16912952 0.35677424 0.48429716 -0.3192077 0.41245303 0.5539636 0.28877681
-0.34045362 -0.27088696 -0.3237415 -1.104963 0.20492797 0.11778515 0.09369094 0.16764376
0.106285825 -0.56023175 0.7166531 -0.9957137 -0.08448929 -0.45084518 0.43292654 -0.09345998
-0.20879751 -0.4677878 0.12681991 0.24363141 0.8208772 -0.025167208 -0.6012442 0.18734285
0.74926203 -0.18571354 -0.53293 -0.36927718 0.19765168 0.84329486 0.22035548 0.25679561
-0.39636847 0.50316876 0.28819004 0.34372652 -0.13629428 0.2383763 0.5857445 -0.6143872
-0.061277814 -0.059713364 -0.91508305 0.17996879 -0.33333546 0.41538873 -0.25992474 0.40597007
0.35731152 0.14172095 0.21185227 -0.7920846 0.40951097 -0.19055794 0.3855738 -0.43501607
-0.13357279 0.66377634 0.5379442 0.64447826 0.2412038 -0.37901434 -0.26841074 0.04002615
-0.58074576 -0.4553874 -0.2589062 -0.16664653 0.26498687 -0.3300042 -0.07252888 0.4818377
0.3230133 0.8536618 -0.14535089 0.52208316 -0.19766931 -0.7946683 0.11786301 -0.09474205
0.50404066 -0.6376008 -0.7975865 0.029059874 0.101519756 0.36939305 0.4584996 0.15497634
0.22429797 0.18463062 -0.08651496 -1.1974187 -0.5352107 0.02127161 0.28257683 -0.33272883
-0.14039089 -0.35412106 -0.050392378 -0.17252293 0.10510708 -0.42937353 0.15081069 0.61076856
-0.1806385 0.060442835 -0.5281365 -0.2647351 -0.54870987 -0.13738497 -0.24623857 -0.14516737
0.20968889 -0.4023712 0.028898016 0.25168943 0.15500426 -0.41809928 -0.0045758644 -0.5517664
-0.2929655 -0.6751829 0.17302364 -0.26975 0.4744293 -0.09108432 -0.5658625 0.37095252
-0.5492863 -0.037993558 -0.3170694 0.019472672 0.2604204 0.67529976 -0.628008 0.85665685
-0.4376658 0.3063161 0.2896306 -0.25817478 -0.20525526 0.6594062 0.7350042 -0.04171381
-0.39380175 0.09768072 -0.81490755 -0.23946458 -0.59501684 0.0008385915 -0.3583882 0.26228717
-0.18886916 0.46369767 -0.00067839224 0.7364827 -0.34196863 -0.6997842 -0.37910762 0.18379179
-0.37653616 0.20433632 0.05703529 -0.025444299 0.40830657 -0.4361119 0.2845794 -0.43713024
-0.0357054 -0.10466401 0.74231154 0.010968192 -0.14376085 -0.25489283 0.15566196 0.40998474
0.5711692 -0.5306998 -0.37123626 -0.1906661 -0.30608127 0.31274518 -0.04266415 0.32145154
-0.06134782 -0.1013155 0.12891544 -0.2976599 0.35426366 0.78117335 -0.19940901 0.25745177
0.25823286 0.182979 -0.03900725 -0.15991038 -0.3516721 -0.92791617 0.6768483 -0.656906
0.14485662 -0.329787 -0.031327445 0.13947648 0.12736417 -0.4132133 0.41898853 0.40789422
-0.6986219 -1.1068246 -0.4502174 0.27411422 -0.04556544 -0.0127251865 0.4868398 0.37229788
-0.021651383 -0.11620167 -0.015810931 0.3909774 0.27694598 -0.79732984 0.32701743 -0.13845411

network_body.linear_encoder.seq_layers.2.bias f4 [128]
00000000: dcbc 08bb c261 60bc ead1 debc 8342 91bc
00000010: 73f8 2bbd 0405 c1bc 363c d0bc 6ee6 8cbd
00000020: 54b4 b7bd 1a49 cdbc d076 87bd e637 0d3c
00000030: 3fba 92bc 6934 b7bd 9419 013c 33a6 1bbd
00000040: 5a87 4dbd e8b4 2fbd 5501 cd3c ebdc 0dbd
00000050: df60 46bd 8f01 483c 8b2e 28bd f601 b3bb
00000060: c0a6 b1bc 44a8 64bc 2a33 a0bc 9ad2 a6bd
00000070: acfd 43bd bbb7 1ebd c469 14bc ecba afbc
00000080: d046 5abd be5d 61bd 7e48 47bd 1576 7ebd
00000090: c610 d1bc c0bf 38bd cecb 62bd f00e 833c
000000a0: e41a 57bd 1bcf 543d 2266 99bd e39f a2bd
000000b0: 0586 133d 64d1 5cbd 00fb 4bbc 0ac9 653c
000000c0: e5cc 66bd 3c90 4dbd 6897 17bd 5007 06bb
000000d0: 7e8a 1dbd 1a10 0bbd dc92 c5bb 8648 0e3c
000000e0: e5f2 49bd d665 83bd bb37 e03c 7243 a5bc
000000f0: 3e52 85bc 0ae7 36bd 585b c4bc 4f3d 1cbd
00000100: 302f 3e3c 3c74 b0bb 46e6 4cbd 27da 43bc
00000110: 00c9 62bd c7c5 25bc 1ba5 153d 965b 6bbd
00000120: 0764 04bd 115b 28bd 4202 fcbc a701 d2bb
00000130: f7a5 ddbc be5b 08bd a5e8 52bd 10ef c83c
00000140: ac60 26bd 6dfe 3abd 7720 803c ba5d 99bc
00000150: 3322 36bb d030 e43c 743a 35bd cfd6 963c
00000160: 03f9 7cbc c750 e1bc b48d babd 8744 2abb
00000170: 855b 06bd 0b0b 64bd 5168 aabd 60f6 35bd
00000180: 09a5 40bd e140 67bd 8b1f 41bd 28bc 34bd
00000190: 4075 55bd dd06 f9bc ce39 d5bc 8d70 85bc
000001a0: 5736 303d 3d4a eebc efee 83bd f716 d2bc
000001b0: cd95 f23b 6376 ffbc 93cf dcbc de38 503c
000001c0: 1555 19bd 11ab dabc 4018 f63c 056f ddba
000001d0: 34d3 63ba 6934 bdbc f3ea 5dbd 4498 59bd
000001e0: a433 29bc 43b9 e8bc b4b8 3fbd 32e5 743c
000001f0: c4cf b2bc 19fe 3abd 6b5f 79bd decb e7bc
-0.0020864522 -0.013695182 -0.027199704 -0.01773191 -0.041984987 -0.023561962 -0.025419336 -0.068798885
-0.08969942 -0.025059272 -0.066144586 0.008619284 -0.017911075 -0.08945543 0.007879633 -0.038000297
-0.05017791 -0.042897135 0.02502505 -0.034634512 -0.048432227 0.012207403 -0.04106001 -0.0054628802
-0.021685958 -0.013956133 -0.019555647 -0.08145638 -0.047849342 -0.038749438 -0.00905842 -0.021451436
-0.05329019 -0.05502104 -0.04865312 -0.06212433 -0.025520694 -0.045104742 -0.055370145 0.015998334
-0.05251588 0.051955324 -0.074901834 -0.07940652 0.036016483 -0.053910628 -0.01244998 0.014024982
-0.056347746 -0.05018638 -0.037009627 -0.0020451136 -0.038462155 -0.033950903 -0.00602947 0.008684283
-0.049303908 -0.06415908 0.027370324 -0.020173762 -0.016274568 -0.04465393 -0.023969337 -0.038144406
0.01160793 -0.00538495 -0.050024293 -0.011953867 -0.05536747 -0.010117955 0.03653441 -0.05746039
-0.032321956 -0.041102473 -0.030762795 -0.0064088884 -0.027056677 -0.033290617 -0.0514914 0.024528056
-0.040619537 -0.045652796 0.01564048 -0.01872145 -0.002779138 0.027855307 -0.0442452 0.018412976
-0.015440228 -0.027504338 -0.09109059 -0.0025980787 -0.032802124 -0.055674594 -0.08320678 -0.044424415
-0.04703239 -0.056458358 -0.047149222 -0.044124752 -0.05211377 -0.03039878 -0.02602854 -0.01628902
0.043020573 -0.029088134 -0.06442057 -0.025645716 0.0074031116 -0.03118438 -0.026954448 0.012708871
-0.037434656 -0.026692899 0.03004086 -0.0016894048 -0.00086908345 -0.02309628 -0.054179143 -0.053123727
-0.0103272535 -0.028408652 -0.046807006 0.014947223 -0.021827586 -0.045652483 -0.060882013 -0.028295454

network_body.linear_encoder.seq_layers.2.weight f4 [128, 128]
00000000: 698c c43c 3ea8 58be 8f7a 36bd c472 cc3d
00000010: 6be1 443d f8fc 01bd b2c1 91bd f14f 03bd
00000020: 948f 283e eeab c23b 8907 273c 6db1 1cbe
00000030: 8d07 6abc 08d7 823d a29b f3bd c532 d03c
00000040: def0 d2bd 587c a93d 2ad6 2c3e 0ec5 e8bc
00000050: 1c3e c33d 1ce1 b23d eb9a 9bbd 9ea2 24be
00000060: 5c62 9b3d 7e71 103e c049 a4bc 5199 813d
00000070: a38e 023d 1fb9 803e 15c7 d33d 7066 dbbd
00000080: 5ea3 0dbb b97e 8b3d 6469 9b3c 3318 c4bd
00000090: 8fef ab3d 48d9 a43d eda3 9fbd fede bfbd
000000a0: a4b3 05be e210 edbd ce05 3bbb 1d39 34bd
000000b0: fcc0 dcbd f075 6ebc 225a 89bd 145b 183e
000000c0: e1a7 e2bd cbdd 433b 89ef 2a3e a14f 08be
000000d0: 38e1 f1bd c9ad 9d3c 07a3 58b9 34b5 883d
000000e0: 41f1 873d 8329 e9bc 2404 fa3c ddd6 5ebd
000000f0: 3f09 1f3e 3295 f1bd 6db7 1d3b c4a3 1a3e
00000100: ba7f 1a3e ad84 fc3d 71e7 50bc e160 363e
00000110: a973 53bd 8359 dd3d c8d2 963b 189e f4bc
00000120: de96 f43d e9a8 863d 26d5 4b3e d85d 253d
00000130: e783 3fbc c45c 8ebd c37b 26bc 4e28 12be
00000140: 89cf 003b 99d5 063e 3453 413c 53e6 dfbd
00000150: bab7 df3d 90a3 563c 8035 8f3b 1855 053e
00000160: 369b c9bc 2f81 2fbc 9fd7 863d b142 ce3c
00000170: f399 43bc 3d4d f1bc c0e9 eabc 666f 1a3e
00000180: 7af1 12be 4293 cabd 115f a6bd 47e5 b1bd
00000190: 6fad f8bd 8b14 93bd 5dc2 393e c063 31be
000001a0: a5e2 183d 733c 9cbd daf6 c03d b32d 8bbb
000001b0: c8eb 1cbc cfaa a7bc 8ae9 a1bd 261e 8ebd
000001c0: 4e23 d83c 1972 af3d e68a 8abb e962 8e3d
000001d0: b933 343e 9337 013e 0147 86bd 05ed 0f3e
000001e0: 0e34 8b3d fb32 d5ba 4c4f aa3d 1966 c33d
000001f0: 6917 3e3e 6d95 03bd 50ed e03d 1fdc c7bc
00000200: 8b36 053d ecd2 aabd 46db 79bd d801 793b
00000210: 25b1 f43d e8a6 d53c 16bc c7bc 974e 2bbd
00000220: 9071 a23d 823e 0abe bc36 a93d 8939 8e3d
00000230: 3f1f 13bd bf70 26bc 374c 063e 818b c1bd
00000240: a2c1 86bd d9cb ed3b 1a3e 163d 1504 6a3c
00000250: 9159 35bd e790 50bd ab06 d9bc 48e1 9d3d
00000260: 1745 fabc 965b b9bd 9e02 bb3c c738 84bd
00000270: bd5d e5bd a9a4 c4bc f9ab 85bd 2406 e2bd
00000280: d01f 1fbd 1382 71bd a54d 78be 5bfa 4fbd
00000290: 2f7a babd 789c 993c bbbf 8abe 7d02 db3d
000002a0: 68e1 7a3d bcee d4bd bbc2 78be 7dbb 803c
000002b0: ad1c 8d3c 3e90 63bd e52d 23be d441 2d3d
000002c0: 5b27 0cbe c6dc b1bd 39bc 13be f4f6 0abe
000002d0: 5c04 b8bc 0cf9 19be 480a 43bd 09fd 213b
000002e0: 8c6b bcbd 40cf 91bd 440f 383d db66 953c
000002f0: 1f40 7f3d 0138 5fbd 81e1 253d 318d 5e3d
00000300: 2ee2 243d e954 e93d 4177 b1bd acb7 1f3e
00000310: 96db 81be 1d0b 0abd 1300 0bbc d2d8 aebc
00000320: def7 6abc d207 1a3d 3f44 1e3d 4fb8 21bd
00000330: debc fe3c 83b7 133e 903e 793c eda4 de3d
00000340: 17e5 47bd 21c3 cd3d 32a2 613c a178 c4bd
00000350: 62a0 56bd 1282 fd3d 73dc dcbc ae76 bf3d
00000360: 5047 01be 6b9e d33c f135 d0bd b220 e53c
00000370: a5b1 dabd 094a 28be 0bee 8cbd 7afa d83d
00000380: 468c d93d c941 543d 7248 ccbb 975f 7ebd
00000390: 3003 4dbe 5877 16be aaee 5fb9 ff93 bbbd
000003a0: e825 74bd 9261 87bd 3aa2 cabb 00fd d2bd
000003b0: 3fb4 4e3e 0424 c1bd 6ef3 debc 9e27 adbd
000003c0: 0335 84bd 2fac 5bbc b29e 34bd 958c 143d
000003d0: 5815 24bd fb9a 743d 7d72 d63d bfc5 06be
000003e0: 6ad0 a5bd 3b3b 8cbd 5007 e9bb 6cbd a3bd
000003f0: dd07 14be fc7a d73d e50f 7e3d 6927 ac3c
0.023992734 -0.2115793 -0.044550475 0.09982827 0.048066538 -0.03173539 -0.071170226 -0.03205866
0.1646102 0.005940906 0.010194668 -0.15302058 -0.014284027 0.0638867 -0.11894919 0.025414834
-0.10299848 0.0827567 0.16878572 -0.028414275 0.09533331 0.087343425 -0.07597908 -0.16077659
0.0758712 0.14105794 -0.020054698 0.06328071 0.03187431 0.25141236 0.10340706 -0.10712898
-0.0021612267 0.0681128 0.018971153 -0.09574928 0.083953016 0.080492556 -0.07794938 -0.09368704
-0.13056809 -0.11575486 -0.0028537395 -0.04399978 -0.10778996 -0.014554486 -0.067066446 0.14878494
-0.110671766 0.0029886838 0.16692938 -0.13311626 -0.11810535 0.019247906 -0.00020660098 0.06675187
0.066378124 -0.028462177 0.030519553 -0.05440413 0.15530871 -0.11796035 0.002406563 0.15101534
0.15087786 0.123299934 -0.012750492 0.17810394 -0.051623974 0.10808089 0.004602764 -0.029860541
0.11942838 0.06575186 0.19905528 0.0403727 -0.011689163 -0.069512874 -0.010161343 -0.14273188
0.001965495 0.13167419 0.011799622 -0.10932603 0.10923715 0.01310052 0.0043703914 0.13020742
-0.024610143 -0.010711952 0.06584095 0.025178285 -0.01193856 -0.029455775 -0.028675914 0.15081558
-0.14349928 -0.098913684 -0.08123601 -0.08686309 -0.12142455 -0.07181653 0.1814055 -0.17323208
0.03732552 -0.07628717 0.09422083 -0.004247391 -0.009577699 -0.02046719 -0.07905872 -0.06939344
0.026384022 0.08566684 -0.0042279838 0.06952459 0.17597856 0.12618856 -0.06556512 0.1405526
0.06797038 -0.0016265804 0.08315906 0.09540958 0.18563618 -0.032124925 0.10982764 -0.024396954
0.03252272 -0.083410114 -0.06100013 0.0037995484 0.1194785 0.026080564 -0.024381679 -0.041822996
0.079318166 -0.13500407 0.08262393 0.06944568 -0.03591847 -0.010158717 0.13115011 -0.094504364
-0.06579901 0.0072569665 0.03668032 0.0142832 -0.04427487 -0.05091944 -0.026492437 0.077089846
-0.030550523 -0.09050672 0.022828396 -0.06456142 -0.1119952 -0.024004297 -0.06526942 -0.110363275
-0.0388487 -0.05896194 -0.24248369 -0.050775867 -0.09105336 0.018751368 -0.27099404 0.10693834
0.06125012 -0.103970975 -0.24293034 0.015714401 0.017225588 -0.055557482 -0.15935476 0.042299107
-0.13686888 -0.08684687 -0.1442727 -0.13570768 -0.022463016 -0.1503641 -0.047617227 0.002471747
-0.092002004 -0.07119608 0.044936433 0.018237522 0.06231701 -0.05449677 0.04049826 0.05433387
0.040254764 0.113931485 -0.08665324 0.15597409 -0.25362843 -0.033702005 -0.008483904 -0.021343622
-0.014341323 0.037605114 0.038639303 -0.03948241 0.031095918 0.14425473 0.01521267 0.10871301
-0.04880246 0.100469835 0.0137715805 -0.09593321 -0.052399047 0.123783246 -0.026960587 0.09348808
-0.1262486 0.025832376 -0.101665385 0.027969692 -0.10678414 -0.16434492 -0.068813406 0.105946496
0.10622458 0.05182055 -0.006234222 -0.06210288 -0.20020747 -0.14693964 -0.00021355847 -0.091590874
-0.059606463 -0.06610407 -0.0061838897 -0.10302162 0.20185946 -0.094306976 -0.027215686 -0.08454822
-0.06455424 -0.013407751 -0.044096656 0.036266882 -0.040059417 0.059718113 0.10471056 -0.13161372
-0.080963925 -0.06847235 -0.0071114674 -0.07995114 -0.14456125 0.10521504 0.062026877 0.021014886
